…
Warning: module FusedMBConv is treated as a zero-op.
Warning: module Sigmoid is treated as a zero-op.
Warning: module SqueezeExcitation is treated as a zero-op.
Warning: module MBConv is treated as a zero-op.
Warning: module Dropout is treated as a zero-op.
Warning: module EfficientNet is treated as a zero-op.
Warning! No positional inputs found for a module, assuming batch size is 1.
EfficientNet(
  118.52 M, 100.000% Params, 12.31 GMac, 100.000% MACs, 
  (features): Sequential(
    117.23 M, 98.919% Params, 12.31 GMac, 99.989% MACs, 
    (0): Conv2dNormActivation(
      928, 0.001% Params, 11.64 MMac, 0.095% MACs, 
      (0): Conv2d(864, 0.001% Params, 10.84 MMac, 0.088% MACs, 3, 32, kernel_size=(3, 3), stride=(2, 2), padding=(1, 1), bias=False)
      (1): BatchNorm2d(64, 0.000% Params, 802.82 KMac, 0.007% MACs, 32, eps=0.001, momentum=0.1, affine=True, track_running_stats=True)
      (2): SiLU(0, 0.000% Params, 0.0 Mac, 0.000% MACs, inplace=True)
    )
    (1): Sequential(
      37.12 k, 0.031% Params, 465.63 MMac, 3.782% MACs, 
      (0): FusedMBConv(
        9.28 k, 0.008% Params, 116.41 MMac, 0.946% MACs, 
        (block): Sequential(
          9.28 k, 0.008% Params, 116.41 MMac, 0.946% MACs, 
          (0): Conv2dNormActivation(
            9.28 k, 0.008% Params, 116.41 MMac, 0.946% MACs, 
            (0): Conv2d(9.22 k, 0.008% Params, 115.61 MMac, 0.939% MACs, 32, 32, kernel_size=(3, 3), stride=(1, 1), padding=(1, 1), bias=False)
            (1): BatchNorm2d(64, 0.000% Params, 802.82 KMac, 0.007% MACs, 32, eps=0.001, momentum=0.1, affine=True, track_running_stats=True)
            (2): SiLU(0, 0.000% Params, 0.0 Mac, 0.000% MACs, inplace=True)
          )
        )
        (stochastic_depth): StochasticDepth(p=0.0, mode=row)
      )
      (1): FusedMBConv(
        9.28 k, 0.008% Params, 116.41 MMac, 0.946% MACs, 
        (block): Sequential(
          9.28 k, 0.008% Params, 116.41 MMac, 0.946% MACs, 
          (0): Conv2dNormActivation(
            9.28 k, 0.008% Params, 116.41 MMac, 0.946% MACs, 
            (0): Conv2d(9.22 k, 0.008% Params, 115.61 MMac, 0.939% MACs, 32, 32, kernel_size=(3, 3), stride=(1, 1), padding=(1, 1), bias=False)
            (1): BatchNorm2d(64, 0.000% Params, 802.82 KMac, 0.007% MACs, 32, eps=0.001, momentum=0.1, affine=True, track_running_stats=True)
            (2): SiLU(0, 0.000% Params, 0.0 Mac, 0.000% MACs, inplace=True)
          )
        )
        (stochastic_depth): StochasticDepth(p=0.002531645569620253, mode=row)
      )
      (2): FusedMBConv(
        9.28 k, 0.008% Params, 116.41 MMac, 0.946% MACs, 
        (block): Sequential(
          9.28 k, 0.008% Params, 116.41 MMac, 0.946% MACs, 
          (0): Conv2dNormActivation(
            9.28 k, 0.008% Params, 116.41 MMac, 0.946% MACs, 
            (0): Conv2d(9.22 k, 0.008% Params, 115.61 MMac, 0.939% MACs, 32, 32, kernel_size=(3, 3), stride=(1, 1), padding=(1, 1), bias=False)
            (1): BatchNorm2d(64, 0.000% Params, 802.82 KMac, 0.007% MACs, 32, eps=0.001, momentum=0.1, affine=True, track_running_stats=True)
            (2): SiLU(0, 0.000% Params, 0.0 Mac, 0.000% MACs, inplace=True)
          )
        )
        (stochastic_depth): StochasticDepth(p=0.005063291139240506, mode=row)
      )
      (3): FusedMBConv(
        9.28 k, 0.008% Params, 116.41 MMac, 0.946% MACs, 
        (block): Sequential(
          9.28 k, 0.008% Params, 116.41 MMac, 0.946% MACs, 
          (0): Conv2dNormActivation(
            9.28 k, 0.008% Params, 116.41 MMac, 0.946% MACs, 
            (0): Conv2d(9.22 k, 0.008% Params, 115.61 MMac, 0.939% MACs, 32, 32, kernel_size=(3, 3), stride=(1, 1), padding=(1, 1), bias=False)
            (1): BatchNorm2d(64, 0.000% Params, 802.82 KMac, 0.007% MACs, 32, eps=0.001, momentum=0.1, affine=True, track_running_stats=True)
            (2): SiLU(0, 0.000% Params, 0.0 Mac, 0.000% MACs, inplace=True)
          )
        )
        (stochastic_depth): StochasticDepth(p=0.007594936708860761, mode=row)
      )
    )
    (2): Sequential(
      1.03 M, 0.871% Params, 3.24 GMac, 26.297% MACs, 
      (0): FusedMBConv(
        45.44 k, 0.038% Params, 142.5 MMac, 1.158% MACs, 
        (block): Sequential(
          45.44 k, 0.038% Params, 142.5 MMac, 1.158% MACs, 
          (0): Conv2dNormActivation(
            37.12 k, 0.031% Params, 116.41 MMac, 0.946% MACs, 
            (0): Conv2d(36.86 k, 0.031% Params, 115.61 MMac, 0.939% MACs, 32, 128, kernel_size=(3, 3), stride=(2, 2), padding=(1, 1), bias=False)
            (1): BatchNorm2d(256, 0.000% Params, 802.82 KMac, 0.007% MACs, 128, eps=0.001, momentum=0.1, affine=True, track_running_stats=True)
            (2): SiLU(0, 0.000% Params, 0.0 Mac, 0.000% MACs, inplace=True)
          )
          (1): Conv2dNormActivation(
            8.32 k, 0.007% Params, 26.09 MMac, 0.212% MACs, 
            (0): Conv2d(8.19 k, 0.007% Params, 25.69 MMac, 0.209% MACs, 128, 64, kernel_size=(1, 1), stride=(1, 1), bias=False)
            (1): BatchNorm2d(128, 0.000% Params, 401.41 KMac, 0.003% MACs, 64, eps=0.001, momentum=0.1, affine=True, track_running_stats=True)
          )
        )
        (stochastic_depth): StochasticDepth(p=0.010126582278481013, mode=row)
      )
      (1): FusedMBConv(
        164.48 k, 0.139% Params, 515.81 MMac, 4.190% MACs, 
        (block): Sequential(
          164.48 k, 0.139% Params, 515.81 MMac, 4.190% MACs, 
          (0): Conv2dNormActivation(
            147.97 k, 0.125% Params, 464.03 MMac, 3.769% MACs, 
            (0): Conv2d(147.46 k, 0.124% Params, 462.42 MMac, 3.756% MACs, 64, 256, kernel_size=(3, 3), stride=(1, 1), padding=(1, 1), bias=False)
            (1): BatchNorm2d(512, 0.000% Params, 1.61 MMac, 0.013% MACs, 256, eps=0.001, momentum=0.1, affine=True, track_running_stats=True)
            (2): SiLU(0, 0.000% Params, 0.0 Mac, 0.000% MACs, inplace=True)
          )
          (1): Conv2dNormActivation(
            16.51 k, 0.014% Params, 51.78 MMac, 0.421% MACs, 
            (0): Conv2d(16.38 k, 0.014% Params, 51.38 MMac, 0.417% MACs, 256, 64, kernel_size=(1, 1), stride=(1, 1), bias=False)
            (1): BatchNorm2d(128, 0.000% Params, 401.41 KMac, 0.003% MACs, 64, eps=0.001, momentum=0.1, affine=True, track_running_stats=True)
          )
        )
        (stochastic_depth): StochasticDepth(p=0.012658227848101266, mode=row)
      )
      (2): FusedMBConv(
        164.48 k, 0.139% Params, 515.81 MMac, 4.190% MACs, 
        (block): Sequential(
          164.48 k, 0.139% Params, 515.81 MMac, 4.190% MACs, 
          (0): Conv2dNormActivation(
            147.97 k, 0.125% Params, 464.03 MMac, 3.769% MACs, 
            (0): Conv2d(147.46 k, 0.124% Params, 462.42 MMac, 3.756% MACs, 64, 256, kernel_size=(3, 3), stride=(1, 1), padding=(1, 1), bias=False)
            (1): BatchNorm2d(512, 0.000% Params, 1.61 MMac, 0.013% MACs, 256, eps=0.001, momentum=0.1, affine=True, track_running_stats=True)
            (2): SiLU(0, 0.000% Params, 0.0 Mac, 0.000% MACs, inplace=True)
          )
          (1): Conv2dNormActivation(
            16.51 k, 0.014% Params, 51.78 MMac, 0.421% MACs, 
            (0): Conv2d(16.38 k, 0.014% Params, 51.38 MMac, 0.417% MACs, 256, 64, kernel_size=(1, 1), stride=(1, 1), bias=False)
            (1): BatchNorm2d(128, 0.000% Params, 401.41 KMac, 0.003% MACs, 64, eps=0.001, momentum=0.1, affine=True, track_running_stats=True)
          )
        )
        (stochastic_depth): StochasticDepth(p=0.015189873417721522, mode=row)
      )
      (3): FusedMBConv(
        164.48 k, 0.139% Params, 515.81 MMac, 4.190% MACs, 
        (block): Sequential(
          164.48 k, 0.139% Params, 515.81 MMac, 4.190% MACs, 
          (0): Conv2dNormActivation(
            147.97 k, 0.125% Params, 464.03 MMac, 3.769% MACs, 
            (0): Conv2d(147.46 k, 0.124% Params, 462.42 MMac, 3.756% MACs, 64, 256, kernel_size=(3, 3), stride=(1, 1), padding=(1, 1), bias=False)
            (1): BatchNorm2d(512, 0.000% Params, 1.61 MMac, 0.013% MACs, 256, eps=0.001, momentum=0.1, affine=True, track_running_stats=True)
            (2): SiLU(0, 0.000% Params, 0.0 Mac, 0.000% MACs, inplace=True)
          )
          (1): Conv2dNormActivation(
            16.51 k, 0.014% Params, 51.78 MMac, 0.421% MACs, 
            (0): Conv2d(16.38 k, 0.014% Params, 51.38 MMac, 0.417% MACs, 256, 64, kernel_size=(1, 1), stride=(1, 1), bias=False)
            (1): BatchNorm2d(128, 0.000% Params, 401.41 KMac, 0.003% MACs, 64, eps=0.001, momentum=0.1, affine=True, track_running_stats=True)
          )
        )
        (stochastic_depth): StochasticDepth(p=0.017721518987341773, mode=row)
      )
      (4): FusedMBConv(
        164.48 k, 0.139% Params, 515.81 MMac, 4.190% MACs, 
        (block): Sequential(
          164.48 k, 0.139% Params, 515.81 MMac, 4.190% MACs, 
          (0): Conv2dNormActivation(
            147.97 k, 0.125% Params, 464.03 MMac, 3.769% MACs, 
            (0): Conv2d(147.46 k, 0.124% Params, 462.42 MMac, 3.756% MACs, 64, 256, kernel_size=(3, 3), stride=(1, 1), padding=(1, 1), bias=False)
            (1): BatchNorm2d(512, 0.000% Params, 1.61 MMac, 0.013% MACs, 256, eps=0.001, momentum=0.1, affine=True, track_running_stats=True)
            (2): SiLU(0, 0.000% Params, 0.0 Mac, 0.000% MACs, inplace=True)
          )
          (1): Conv2dNormActivation(
            16.51 k, 0.014% Params, 51.78 MMac, 0.421% MACs, 
            (0): Conv2d(16.38 k, 0.014% Params, 51.38 MMac, 0.417% MACs, 256, 64, kernel_size=(1, 1), stride=(1, 1), bias=False)
            (1): BatchNorm2d(128, 0.000% Params, 401.41 KMac, 0.003% MACs, 64, eps=0.001, momentum=0.1, affine=True, track_running_stats=True)
          )
        )
        (stochastic_depth): StochasticDepth(p=0.020253164556962026, mode=row)
      )
      (5): FusedMBConv(
        164.48 k, 0.139% Params, 515.81 MMac, 4.190% MACs, 
        (block): Sequential(
          164.48 k, 0.139% Params, 515.81 MMac, 4.190% MACs, 
          (0): Conv2dNormActivation(
            147.97 k, 0.125% Params, 464.03 MMac, 3.769% MACs, 
            (0): Conv2d(147.46 k, 0.124% Params, 462.42 MMac, 3.756% MACs, 64, 256, kernel_size=(3, 3), stride=(1, 1), padding=(1, 1), bias=False)
            (1): BatchNorm2d(512, 0.000% Params, 1.61 MMac, 0.013% MACs, 256, eps=0.001, momentum=0.1, affine=True, track_running_stats=True)
            (2): SiLU(0, 0.000% Params, 0.0 Mac, 0.000% MACs, inplace=True)
          )
          (1): Conv2dNormActivation(
            16.51 k, 0.014% Params, 51.78 MMac, 0.421% MACs, 
            (0): Conv2d(16.38 k, 0.014% Params, 51.38 MMac, 0.417% MACs, 256, 64, kernel_size=(1, 1), stride=(1, 1), bias=False)
            (1): BatchNorm2d(128, 0.000% Params, 401.41 KMac, 0.003% MACs, 64, eps=0.001, momentum=0.1, affine=True, track_running_stats=True)
          )
        )
        (stochastic_depth): StochasticDepth(p=0.02278481012658228, mode=row)
      )
      (6): FusedMBConv(
        164.48 k, 0.139% Params, 515.81 MMac, 4.190% MACs, 
        (block): Sequential(
          164.48 k, 0.139% Params, 515.81 MMac, 4.190% MACs, 
          (0): Conv2dNormActivation(
            147.97 k, 0.125% Params, 464.03 MMac, 3.769% MACs, 
            (0): Conv2d(147.46 k, 0.124% Params, 462.42 MMac, 3.756% MACs, 64, 256, kernel_size=(3, 3), stride=(1, 1), padding=(1, 1), bias=False)
            (1): BatchNorm2d(512, 0.000% Params, 1.61 MMac, 0.013% MACs, 256, eps=0.001, momentum=0.1, affine=True, track_running_stats=True)
            (2): SiLU(0, 0.000% Params, 0.0 Mac, 0.000% MACs, inplace=True)
          )
          (1): Conv2dNormActivation(
            16.51 k, 0.014% Params, 51.78 MMac, 0.421% MACs, 
            (0): Conv2d(16.38 k, 0.014% Params, 51.38 MMac, 0.417% MACs, 256, 64, kernel_size=(1, 1), stride=(1, 1), bias=False)
            (1): BatchNorm2d(128, 0.000% Params, 401.41 KMac, 0.003% MACs, 64, eps=0.001, momentum=0.1, affine=True, track_running_stats=True)
          )
        )
        (stochastic_depth): StochasticDepth(p=0.02531645569620253, mode=row)
      )
    )
    (3): Sequential(
      2.39 M, 2.017% Params, 1.87 GMac, 15.223% MACs, 
      (0): FusedMBConv(
        172.74 k, 0.146% Params, 135.43 MMac, 1.100% MACs, 
        (block): Sequential(
          172.74 k, 0.146% Params, 135.43 MMac, 1.100% MACs, 
          (0): Conv2dNormActivation(
            147.97 k, 0.125% Params, 116.01 MMac, 0.942% MACs, 
            (0): Conv2d(147.46 k, 0.124% Params, 115.61 MMac, 0.939% MACs, 64, 256, kernel_size=(3, 3), stride=(2, 2), padding=(1, 1), bias=False)
            (1): BatchNorm2d(512, 0.000% Params, 401.41 KMac, 0.003% MACs, 256, eps=0.001, momentum=0.1, affine=True, track_running_stats=True)
            (2): SiLU(0, 0.000% Params, 0.0 Mac, 0.000% MACs, inplace=True)
          )
          (1): Conv2dNormActivation(
            24.77 k, 0.021% Params, 19.42 MMac, 0.158% MACs, 
            (0): Conv2d(24.58 k, 0.021% Params, 19.27 MMac, 0.157% MACs, 256, 96, kernel_size=(1, 1), stride=(1, 1), bias=False)
            (1): BatchNorm2d(192, 0.000% Params, 150.53 KMac, 0.001% MACs, 96, eps=0.001, momentum=0.1, affine=True, track_running_stats=True)
          )
        )
        (stochastic_depth): StochasticDepth(p=0.027848101265822787, mode=row)
      )
      (1): FusedMBConv(
        369.6 k, 0.312% Params, 289.77 MMac, 2.354% MACs, 
        (block): Sequential(
          369.6 k, 0.312% Params, 289.77 MMac, 2.354% MACs, 
          (0): Conv2dNormActivation(
            332.54 k, 0.281% Params, 260.71 MMac, 2.118% MACs, 
            (0): Conv2d(331.78 k, 0.280% Params, 260.11 MMac, 2.113% MACs, 96, 384, kernel_size=(3, 3), stride=(1, 1), padding=(1, 1), bias=False)
            (1): BatchNorm2d(768, 0.001% Params, 602.11 KMac, 0.005% MACs, 384, eps=0.001, momentum=0.1, affine=True, track_running_stats=True)
            (2): SiLU(0, 0.000% Params, 0.0 Mac, 0.000% MACs, inplace=True)
          )
          (1): Conv2dNormActivation(
            37.06 k, 0.031% Params, 29.05 MMac, 0.236% MACs, 
            (0): Conv2d(36.86 k, 0.031% Params, 28.9 MMac, 0.235% MACs, 384, 96, kernel_size=(1, 1), stride=(1, 1), bias=False)
            (1): BatchNorm2d(192, 0.000% Params, 150.53 KMac, 0.001% MACs, 96, eps=0.001, momentum=0.1, affine=True, track_running_stats=True)
          )
        )
        (stochastic_depth): StochasticDepth(p=0.030379746835443044, mode=row)
      )
      (2): FusedMBConv(
        369.6 k, 0.312% Params, 289.77 MMac, 2.354% MACs, 
        (block): Sequential(
          369.6 k, 0.312% Params, 289.77 MMac, 2.354% MACs, 
          (0): Conv2dNormActivation(
            332.54 k, 0.281% Params, 260.71 MMac, 2.118% MACs, 
            (0): Conv2d(331.78 k, 0.280% Params, 260.11 MMac, 2.113% MACs, 96, 384, kernel_size=(3, 3), stride=(1, 1), padding=(1, 1), bias=False)
            (1): BatchNorm2d(768, 0.001% Params, 602.11 KMac, 0.005% MACs, 384, eps=0.001, momentum=0.1, affine=True, track_running_stats=True)
            (2): SiLU(0, 0.000% Params, 0.0 Mac, 0.000% MACs, inplace=True)
          )
          (1): Conv2dNormActivation(
            37.06 k, 0.031% Params, 29.05 MMac, 0.236% MACs, 
            (0): Conv2d(36.86 k, 0.031% Params, 28.9 MMac, 0.235% MACs, 384, 96, kernel_size=(1, 1), stride=(1, 1), bias=False)
            (1): BatchNorm2d(192, 0.000% Params, 150.53 KMac, 0.001% MACs, 96, eps=0.001, momentum=0.1, affine=True, track_running_stats=True)
          )
        )
        (stochastic_depth): StochasticDepth(p=0.03291139240506329, mode=row)
      )
      (3): FusedMBConv(
        369.6 k, 0.312% Params, 289.77 MMac, 2.354% MACs, 
        (block): Sequential(
          369.6 k, 0.312% Params, 289.77 MMac, 2.354% MACs, 
          (0): Conv2dNormActivation(
            332.54 k, 0.281% Params, 260.71 MMac, 2.118% MACs, 
            (0): Conv2d(331.78 k, 0.280% Params, 260.11 MMac, 2.113% MACs, 96, 384, kernel_size=(3, 3), stride=(1, 1), padding=(1, 1), bias=False)
            (1): BatchNorm2d(768, 0.001% Params, 602.11 KMac, 0.005% MACs, 384, eps=0.001, momentum=0.1, affine=True, track_running_stats=True)
            (2): SiLU(0, 0.000% Params, 0.0 Mac, 0.000% MACs, inplace=True)
          )
          (1): Conv2dNormActivation(
            37.06 k, 0.031% Params, 29.05 MMac, 0.236% MACs, 
            (0): Conv2d(36.86 k, 0.031% Params, 28.9 MMac, 0.235% MACs, 384, 96, kernel_size=(1, 1), stride=(1, 1), bias=False)
            (1): BatchNorm2d(192, 0.000% Params, 150.53 KMac, 0.001% MACs, 96, eps=0.001, momentum=0.1, affine=True, track_running_stats=True)
          )
        )
        (stochastic_depth): StochasticDepth(p=0.035443037974683546, mode=row)
      )
      (4): FusedMBConv(
        369.6 k, 0.312% Params, 289.77 MMac, 2.354% MACs, 
        (block): Sequential(
          369.6 k, 0.312% Params, 289.77 MMac, 2.354% MACs, 
          (0): Conv2dNormActivation(
            332.54 k, 0.281% Params, 260.71 MMac, 2.118% MACs, 
            (0): Conv2d(331.78 k, 0.280% Params, 260.11 MMac, 2.113% MACs, 96, 384, kernel_size=(3, 3), stride=(1, 1), padding=(1, 1), bias=False)
            (1): BatchNorm2d(768, 0.001% Params, 602.11 KMac, 0.005% MACs, 384, eps=0.001, momentum=0.1, affine=True, track_running_stats=True)
            (2): SiLU(0, 0.000% Params, 0.0 Mac, 0.000% MACs, inplace=True)
          )
          (1): Conv2dNormActivation(
            37.06 k, 0.031% Params, 29.05 MMac, 0.236% MACs, 
            (0): Conv2d(36.86 k, 0.031% Params, 28.9 MMac, 0.235% MACs, 384, 96, kernel_size=(1, 1), stride=(1, 1), bias=False)
            (1): BatchNorm2d(192, 0.000% Params, 150.53 KMac, 0.001% MACs, 96, eps=0.001, momentum=0.1, affine=True, track_running_stats=True)
          )
        )
        (stochastic_depth): StochasticDepth(p=0.0379746835443038, mode=row)
      )
      (5): FusedMBConv(
        369.6 k, 0.312% Params, 289.77 MMac, 2.354% MACs, 
        (block): Sequential(
          369.6 k, 0.312% Params, 289.77 MMac, 2.354% MACs, 
          (0): Conv2dNormActivation(
            332.54 k, 0.281% Params, 260.71 MMac, 2.118% MACs, 
            (0): Conv2d(331.78 k, 0.280% Params, 260.11 MMac, 2.113% MACs, 96, 384, kernel_size=(3, 3), stride=(1, 1), padding=(1, 1), bias=False)
            (1): BatchNorm2d(768, 0.001% Params, 602.11 KMac, 0.005% MACs, 384, eps=0.001, momentum=0.1, affine=True, track_running_stats=True)
            (2): SiLU(0, 0.000% Params, 0.0 Mac, 0.000% MACs, inplace=True)
          )
          (1): Conv2dNormActivation(
            37.06 k, 0.031% Params, 29.05 MMac, 0.236% MACs, 
            (0): Conv2d(36.86 k, 0.031% Params, 28.9 MMac, 0.235% MACs, 384, 96, kernel_size=(1, 1), stride=(1, 1), bias=False)
            (1): BatchNorm2d(192, 0.000% Params, 150.53 KMac, 0.001% MACs, 96, eps=0.001, momentum=0.1, affine=True, track_running_stats=True)
          )
        )
        (stochastic_depth): StochasticDepth(p=0.04050632911392405, mode=row)
      )
      (6): FusedMBConv(
        369.6 k, 0.312% Params, 289.77 MMac, 2.354% MACs, 
        (block): Sequential(
          369.6 k, 0.312% Params, 289.77 MMac, 2.354% MACs, 
          (0): Conv2dNormActivation(
            332.54 k, 0.281% Params, 260.71 MMac, 2.118% MACs, 
            (0): Conv2d(331.78 k, 0.280% Params, 260.11 MMac, 2.113% MACs, 96, 384, kernel_size=(3, 3), stride=(1, 1), padding=(1, 1), bias=False)
            (1): BatchNorm2d(768, 0.001% Params, 602.11 KMac, 0.005% MACs, 384, eps=0.001, momentum=0.1, affine=True, track_running_stats=True)
            (2): SiLU(0, 0.000% Params, 0.0 Mac, 0.000% MACs, inplace=True)
          )
          (1): Conv2dNormActivation(
            37.06 k, 0.031% Params, 29.05 MMac, 0.236% MACs, 
            (0): Conv2d(36.86 k, 0.031% Params, 28.9 MMac, 0.235% MACs, 384, 96, kernel_size=(1, 1), stride=(1, 1), bias=False)
            (1): BatchNorm2d(192, 0.000% Params, 150.53 KMac, 0.001% MACs, 96, eps=0.001, momentum=0.1, affine=True, track_running_stats=True)
          )
        )
        (stochastic_depth): StochasticDepth(p=0.04303797468354431, mode=row)
      )
    )
    (4): Sequential(
      3.55 M, 2.998% Params, 585.49 MMac, 4.756% MACs, 
      (0): MBConv(
        134.81 k, 0.114% Params, 44.95 MMac, 0.365% MACs, 
        (block): Sequential(
          134.81 k, 0.114% Params, 44.95 MMac, 0.365% MACs, 
          (0): Conv2dNormActivation(
            37.63 k, 0.032% Params, 29.5 MMac, 0.240% MACs, 
            (0): Conv2d(36.86 k, 0.031% Params, 28.9 MMac, 0.235% MACs, 96, 384, kernel_size=(1, 1), stride=(1, 1), bias=False)
            (1): BatchNorm2d(768, 0.001% Params, 602.11 KMac, 0.005% MACs, 384, eps=0.001, momentum=0.1, affine=True, track_running_stats=True)
            (2): SiLU(0, 0.000% Params, 0.0 Mac, 0.000% MACs, inplace=True)
          )
          (1): Conv2dNormActivation(
            4.22 k, 0.004% Params, 827.9 KMac, 0.007% MACs, 
            (0): Conv2d(3.46 k, 0.003% Params, 677.38 KMac, 0.006% MACs, 384, 384, kernel_size=(3, 3), stride=(2, 2), padding=(1, 1), groups=384, bias=False)
            (1): BatchNorm2d(768, 0.001% Params, 150.53 KMac, 0.001% MACs, 384, eps=0.001, momentum=0.1, affine=True, track_running_stats=True)
            (2): SiLU(0, 0.000% Params, 0.0 Mac, 0.000% MACs, inplace=True)
          )
          (2): SqueezeExcitation(
            18.84 k, 0.016% Params, 94.1 KMac, 0.001% MACs, 
            (avgpool): AdaptiveAvgPool2d(0, 0.000% Params, 75.26 KMac, 0.001% MACs, output_size=1)
            (fc1): Conv2d(9.24 k, 0.008% Params, 9.24 KMac, 0.000% MACs, 384, 24, kernel_size=(1, 1), stride=(1, 1))
            (fc2): Conv2d(9.6 k, 0.008% Params, 9.6 KMac, 0.000% MACs, 24, 384, kernel_size=(1, 1), stride=(1, 1))
            (activation): SiLU(0, 0.000% Params, 0.0 Mac, 0.000% MACs, inplace=True)
            (scale_activation): Sigmoid(0, 0.000% Params, 0.0 Mac, 0.000% MACs, )
          )
          (3): Conv2dNormActivation(
            74.11 k, 0.063% Params, 14.53 MMac, 0.118% MACs, 
            (0): Conv2d(73.73 k, 0.062% Params, 14.45 MMac, 0.117% MACs, 384, 192, kernel_size=(1, 1), stride=(1, 1), bias=False)
            (1): BatchNorm2d(384, 0.000% Params, 75.26 KMac, 0.001% MACs, 192, eps=0.001, momentum=0.1, affine=True, track_running_stats=True)
          )
        )
        (stochastic_depth): StochasticDepth(p=0.04556962025316456, mode=row)
      )
      (1): MBConv(
        379.82 k, 0.320% Params, 60.06 MMac, 0.488% MACs, 
        (block): Sequential(
          379.82 k, 0.320% Params, 60.06 MMac, 0.488% MACs, 
          (0): Conv2dNormActivation(
            148.99 k, 0.126% Params, 29.2 MMac, 0.237% MACs, 
            (0): Conv2d(147.46 k, 0.124% Params, 28.9 MMac, 0.235% MACs, 192, 768, kernel_size=(1, 1), stride=(1, 1), bias=False)
            (1): BatchNorm2d(1.54 k, 0.001% Params, 301.06 KMac, 0.002% MACs, 768, eps=0.001, momentum=0.1, affine=True, track_running_stats=True)
            (2): SiLU(0, 0.000% Params, 0.0 Mac, 0.000% MACs, inplace=True)
          )
          (1): Conv2dNormActivation(
            8.45 k, 0.007% Params, 1.66 MMac, 0.013% MACs, 
            (0): Conv2d(6.91 k, 0.006% Params, 1.35 MMac, 0.011% MACs, 768, 768, kernel_size=(3, 3), stride=(1, 1), padding=(1, 1), groups=768, bias=False)
            (1): BatchNorm2d(1.54 k, 0.001% Params, 301.06 KMac, 0.002% MACs, 768, eps=0.001, momentum=0.1, affine=True, track_running_stats=True)
            (2): SiLU(0, 0.000% Params, 0.0 Mac, 0.000% MACs, inplace=True)
          )
          (2): SqueezeExcitation(
            74.54 k, 0.063% Params, 225.07 KMac, 0.002% MACs, 
            (avgpool): AdaptiveAvgPool2d(0, 0.000% Params, 150.53 KMac, 0.001% MACs, output_size=1)
            (fc1): Conv2d(36.91 k, 0.031% Params, 36.91 KMac, 0.000% MACs, 768, 48, kernel_size=(1, 1), stride=(1, 1))
            (fc2): Conv2d(37.63 k, 0.032% Params, 37.63 KMac, 0.000% MACs, 48, 768, kernel_size=(1, 1), stride=(1, 1))
            (activation): SiLU(0, 0.000% Params, 0.0 Mac, 0.000% MACs, inplace=True)
            (scale_activation): Sigmoid(0, 0.000% Params, 0.0 Mac, 0.000% MACs, )
          )
          (3): Conv2dNormActivation(
            147.84 k, 0.125% Params, 28.98 MMac, 0.235% MACs, 
            (0): Conv2d(147.46 k, 0.124% Params, 28.9 MMac, 0.235% MACs, 768, 192, kernel_size=(1, 1), stride=(1, 1), bias=False)
            (1): BatchNorm2d(384, 0.000% Params, 75.26 KMac, 0.001% MACs, 192, eps=0.001, momentum=0.1, affine=True, track_running_stats=True)
          )
        )
        (stochastic_depth): StochasticDepth(p=0.04810126582278482, mode=row)
      )
      (2): MBConv(
        379.82 k, 0.320% Params, 60.06 MMac, 0.488% MACs, 
        (block): Sequential(
          379.82 k, 0.320% Params, 60.06 MMac, 0.488% MACs, 
          (0): Conv2dNormActivation(
            148.99 k, 0.126% Params, 29.2 MMac, 0.237% MACs, 
            (0): Conv2d(147.46 k, 0.124% Params, 28.9 MMac, 0.235% MACs, 192, 768, kernel_size=(1, 1), stride=(1, 1), bias=False)
            (1): BatchNorm2d(1.54 k, 0.001% Params, 301.06 KMac, 0.002% MACs, 768, eps=0.001, momentum=0.1, affine=True, track_running_stats=True)
            (2): SiLU(0, 0.000% Params, 0.0 Mac, 0.000% MACs, inplace=True)
          )
          (1): Conv2dNormActivation(
            8.45 k, 0.007% Params, 1.66 MMac, 0.013% MACs, 
            (0): Conv2d(6.91 k, 0.006% Params, 1.35 MMac, 0.011% MACs, 768, 768, kernel_size=(3, 3), stride=(1, 1), padding=(1, 1), groups=768, bias=False)
            (1): BatchNorm2d(1.54 k, 0.001% Params, 301.06 KMac, 0.002% MACs, 768, eps=0.001, momentum=0.1, affine=True, track_running_stats=True)
            (2): SiLU(0, 0.000% Params, 0.0 Mac, 0.000% MACs, inplace=True)
          )
          (2): SqueezeExcitation(
            74.54 k, 0.063% Params, 225.07 KMac, 0.002% MACs, 
            (avgpool): AdaptiveAvgPool2d(0, 0.000% Params, 150.53 KMac, 0.001% MACs, output_size=1)
            (fc1): Conv2d(36.91 k, 0.031% Params, 36.91 KMac, 0.000% MACs, 768, 48, kernel_size=(1, 1), stride=(1, 1))
            (fc2): Conv2d(37.63 k, 0.032% Params, 37.63 KMac, 0.000% MACs, 48, 768, kernel_size=(1, 1), stride=(1, 1))
            (activation): SiLU(0, 0.000% Params, 0.0 Mac, 0.000% MACs, inplace=True)
            (scale_activation): Sigmoid(0, 0.000% Params, 0.0 Mac, 0.000% MACs, )
          )
          (3): Conv2dNormActivation(
            147.84 k, 0.125% Params, 28.98 MMac, 0.235% MACs, 
            (0): Conv2d(147.46 k, 0.124% Params, 28.9 MMac, 0.235% MACs, 768, 192, kernel_size=(1, 1), stride=(1, 1), bias=False)
            (1): BatchNorm2d(384, 0.000% Params, 75.26 KMac, 0.001% MACs, 192, eps=0.001, momentum=0.1, affine=True, track_running_stats=True)
          )
        )
        (stochastic_depth): StochasticDepth(p=0.05063291139240506, mode=row)
      )
      (3): MBConv(
        379.82 k, 0.320% Params, 60.06 MMac, 0.488% MACs, 
        (block): Sequential(
          379.82 k, 0.320% Params, 60.06 MMac, 0.488% MACs, 
          (0): Conv2dNormActivation(
            148.99 k, 0.126% Params, 29.2 MMac, 0.237% MACs, 
            (0): Conv2d(147.46 k, 0.124% Params, 28.9 MMac, 0.235% MACs, 192, 768, kernel_size=(1, 1), stride=(1, 1), bias=False)
            (1): BatchNorm2d(1.54 k, 0.001% Params, 301.06 KMac, 0.002% MACs, 768, eps=0.001, momentum=0.1, affine=True, track_running_stats=True)
            (2): SiLU(0, 0.000% Params, 0.0 Mac, 0.000% MACs, inplace=True)
          )
          (1): Conv2dNormActivation(
            8.45 k, 0.007% Params, 1.66 MMac, 0.013% MACs, 
            (0): Conv2d(6.91 k, 0.006% Params, 1.35 MMac, 0.011% MACs, 768, 768, kernel_size=(3, 3), stride=(1, 1), padding=(1, 1), groups=768, bias=False)
            (1): BatchNorm2d(1.54 k, 0.001% Params, 301.06 KMac, 0.002% MACs, 768, eps=0.001, momentum=0.1, affine=True, track_running_stats=True)
            (2): SiLU(0, 0.000% Params, 0.0 Mac, 0.000% MACs, inplace=True)
          )
          (2): SqueezeExcitation(
            74.54 k, 0.063% Params, 225.07 KMac, 0.002% MACs, 
            (avgpool): AdaptiveAvgPool2d(0, 0.000% Params, 150.53 KMac, 0.001% MACs, output_size=1)
            (fc1): Conv2d(36.91 k, 0.031% Params, 36.91 KMac, 0.000% MACs, 768, 48, kernel_size=(1, 1), stride=(1, 1))
            (fc2): Conv2d(37.63 k, 0.032% Params, 37.63 KMac, 0.000% MACs, 48, 768, kernel_size=(1, 1), stride=(1, 1))
            (activation): SiLU(0, 0.000% Params, 0.0 Mac, 0.000% MACs, inplace=True)
            (scale_activation): Sigmoid(0, 0.000% Params, 0.0 Mac, 0.000% MACs, )
          )
          (3): Conv2dNormActivation(
            147.84 k, 0.125% Params, 28.98 MMac, 0.235% MACs, 
            (0): Conv2d(147.46 k, 0.124% Params, 28.9 MMac, 0.235% MACs, 768, 192, kernel_size=(1, 1), stride=(1, 1), bias=False)
            (1): BatchNorm2d(384, 0.000% Params, 75.26 KMac, 0.001% MACs, 192, eps=0.001, momentum=0.1, affine=True, track_running_stats=True)
          )
        )
        (stochastic_depth): StochasticDepth(p=0.053164556962025315, mode=row)
      )
      (4): MBConv(
        379.82 k, 0.320% Params, 60.06 MMac, 0.488% MACs, 
        (block): Sequential(
          379.82 k, 0.320% Params, 60.06 MMac, 0.488% MACs, 
          (0): Conv2dNormActivation(
            148.99 k, 0.126% Params, 29.2 MMac, 0.237% MACs, 
            (0): Conv2d(147.46 k, 0.124% Params, 28.9 MMac, 0.235% MACs, 192, 768, kernel_size=(1, 1), stride=(1, 1), bias=False)
            (1): BatchNorm2d(1.54 k, 0.001% Params, 301.06 KMac, 0.002% MACs, 768, eps=0.001, momentum=0.1, affine=True, track_running_stats=True)
            (2): SiLU(0, 0.000% Params, 0.0 Mac, 0.000% MACs, inplace=True)
          )
          (1): Conv2dNormActivation(
            8.45 k, 0.007% Params, 1.66 MMac, 0.013% MACs, 
            (0): Conv2d(6.91 k, 0.006% Params, 1.35 MMac, 0.011% MACs, 768, 768, kernel_size=(3, 3), stride=(1, 1), padding=(1, 1), groups=768, bias=False)
            (1): BatchNorm2d(1.54 k, 0.001% Params, 301.06 KMac, 0.002% MACs, 768, eps=0.001, momentum=0.1, affine=True, track_running_stats=True)
            (2): SiLU(0, 0.000% Params, 0.0 Mac, 0.000% MACs, inplace=True)
          )
          (2): SqueezeExcitation(
            74.54 k, 0.063% Params, 225.07 KMac, 0.002% MACs, 
            (avgpool): AdaptiveAvgPool2d(0, 0.000% Params, 150.53 KMac, 0.001% MACs, output_size=1)
            (fc1): Conv2d(36.91 k, 0.031% Params, 36.91 KMac, 0.000% MACs, 768, 48, kernel_size=(1, 1), stride=(1, 1))
            (fc2): Conv2d(37.63 k, 0.032% Params, 37.63 KMac, 0.000% MACs, 48, 768, kernel_size=(1, 1), stride=(1, 1))
            (activation): SiLU(0, 0.000% Params, 0.0 Mac, 0.000% MACs, inplace=True)
            (scale_activation): Sigmoid(0, 0.000% Params, 0.0 Mac, 0.000% MACs, )
          )
          (3): Conv2dNormActivation(
            147.84 k, 0.125% Params, 28.98 MMac, 0.235% MACs, 
            (0): Conv2d(147.46 k, 0.124% Params, 28.9 MMac, 0.235% MACs, 768, 192, kernel_size=(1, 1), stride=(1, 1), bias=False)
            (1): BatchNorm2d(384, 0.000% Params, 75.26 KMac, 0.001% MACs, 192, eps=0.001, momentum=0.1, affine=True, track_running_stats=True)
          )
        )
        (stochastic_depth): StochasticDepth(p=0.055696202531645575, mode=row)
      )
      (5): MBConv(
        379.82 k, 0.320% Params, 60.06 MMac, 0.488% MACs, 
        (block): Sequential(
          379.82 k, 0.320% Params, 60.06 MMac, 0.488% MACs, 
          (0): Conv2dNormActivation(
            148.99 k, 0.126% Params, 29.2 MMac, 0.237% MACs, 
            (0): Conv2d(147.46 k, 0.124% Params, 28.9 MMac, 0.235% MACs, 192, 768, kernel_size=(1, 1), stride=(1, 1), bias=False)
            (1): BatchNorm2d(1.54 k, 0.001% Params, 301.06 KMac, 0.002% MACs, 768, eps=0.001, momentum=0.1, affine=True, track_running_stats=True)
            (2): SiLU(0, 0.000% Params, 0.0 Mac, 0.000% MACs, inplace=True)
          )
          (1): Conv2dNormActivation(
            8.45 k, 0.007% Params, 1.66 MMac, 0.013% MACs, 
            (0): Conv2d(6.91 k, 0.006% Params, 1.35 MMac, 0.011% MACs, 768, 768, kernel_size=(3, 3), stride=(1, 1), padding=(1, 1), groups=768, bias=False)
            (1): BatchNorm2d(1.54 k, 0.001% Params, 301.06 KMac, 0.002% MACs, 768, eps=0.001, momentum=0.1, affine=True, track_running_stats=True)
            (2): SiLU(0, 0.000% Params, 0.0 Mac, 0.000% MACs, inplace=True)
          )
          (2): SqueezeExcitation(
            74.54 k, 0.063% Params, 225.07 KMac, 0.002% MACs, 
            (avgpool): AdaptiveAvgPool2d(0, 0.000% Params, 150.53 KMac, 0.001% MACs, output_size=1)
            (fc1): Conv2d(36.91 k, 0.031% Params, 36.91 KMac, 0.000% MACs, 768, 48, kernel_size=(1, 1), stride=(1, 1))
            (fc2): Conv2d(37.63 k, 0.032% Params, 37.63 KMac, 0.000% MACs, 48, 768, kernel_size=(1, 1), stride=(1, 1))
            (activation): SiLU(0, 0.000% Params, 0.0 Mac, 0.000% MACs, inplace=True)
            (scale_activation): Sigmoid(0, 0.000% Params, 0.0 Mac, 0.000% MACs, )
          )
          (3): Conv2dNormActivation(
            147.84 k, 0.125% Params, 28.98 MMac, 0.235% MACs, 
            (0): Conv2d(147.46 k, 0.124% Params, 28.9 MMac, 0.235% MACs, 768, 192, kernel_size=(1, 1), stride=(1, 1), bias=False)
            (1): BatchNorm2d(384, 0.000% Params, 75.26 KMac, 0.001% MACs, 192, eps=0.001, momentum=0.1, affine=True, track_running_stats=True)
          )
        )
        (stochastic_depth): StochasticDepth(p=0.05822784810126583, mode=row)
      )
      (6): MBConv(
        379.82 k, 0.320% Params, 60.06 MMac, 0.488% MACs, 
        (block): Sequential(
          379.82 k, 0.320% Params, 60.06 MMac, 0.488% MACs, 
          (0): Conv2dNormActivation(
            148.99 k, 0.126% Params, 29.2 MMac, 0.237% MACs, 
            (0): Conv2d(147.46 k, 0.124% Params, 28.9 MMac, 0.235% MACs, 192, 768, kernel_size=(1, 1), stride=(1, 1), bias=False)
            (1): BatchNorm2d(1.54 k, 0.001% Params, 301.06 KMac, 0.002% MACs, 768, eps=0.001, momentum=0.1, affine=True, track_running_stats=True)
            (2): SiLU(0, 0.000% Params, 0.0 Mac, 0.000% MACs, inplace=True)
          )
          (1): Conv2dNormActivation(
            8.45 k, 0.007% Params, 1.66 MMac, 0.013% MACs, 
            (0): Conv2d(6.91 k, 0.006% Params, 1.35 MMac, 0.011% MACs, 768, 768, kernel_size=(3, 3), stride=(1, 1), padding=(1, 1), groups=768, bias=False)
            (1): BatchNorm2d(1.54 k, 0.001% Params, 301.06 KMac, 0.002% MACs, 768, eps=0.001, momentum=0.1, affine=True, track_running_stats=True)
            (2): SiLU(0, 0.000% Params, 0.0 Mac, 0.000% MACs, inplace=True)
          )
          (2): SqueezeExcitation(
            74.54 k, 0.063% Params, 225.07 KMac, 0.002% MACs, 
            (avgpool): AdaptiveAvgPool2d(0, 0.000% Params, 150.53 KMac, 0.001% MACs, output_size=1)
            (fc1): Conv2d(36.91 k, 0.031% Params, 36.91 KMac, 0.000% MACs, 768, 48, kernel_size=(1, 1), stride=(1, 1))
            (fc2): Conv2d(37.63 k, 0.032% Params, 37.63 KMac, 0.000% MACs, 48, 768, kernel_size=(1, 1), stride=(1, 1))
            (activation): SiLU(0, 0.000% Params, 0.0 Mac, 0.000% MACs, inplace=True)
            (scale_activation): Sigmoid(0, 0.000% Params, 0.0 Mac, 0.000% MACs, )
          )
          (3): Conv2dNormActivation(
            147.84 k, 0.125% Params, 28.98 MMac, 0.235% MACs, 
            (0): Conv2d(147.46 k, 0.124% Params, 28.9 MMac, 0.235% MACs, 768, 192, kernel_size=(1, 1), stride=(1, 1), bias=False)
            (1): BatchNorm2d(384, 0.000% Params, 75.26 KMac, 0.001% MACs, 192, eps=0.001, momentum=0.1, affine=True, track_running_stats=True)
          )
        )
        (stochastic_depth): StochasticDepth(p=0.06075949367088609, mode=row)
      )
      (7): MBConv(
        379.82 k, 0.320% Params, 60.06 MMac, 0.488% MACs, 
        (block): Sequential(
          379.82 k, 0.320% Params, 60.06 MMac, 0.488% MACs, 
          (0): Conv2dNormActivation(
            148.99 k, 0.126% Params, 29.2 MMac, 0.237% MACs, 
            (0): Conv2d(147.46 k, 0.124% Params, 28.9 MMac, 0.235% MACs, 192, 768, kernel_size=(1, 1), stride=(1, 1), bias=False)
            (1): BatchNorm2d(1.54 k, 0.001% Params, 301.06 KMac, 0.002% MACs, 768, eps=0.001, momentum=0.1, affine=True, track_running_stats=True)
            (2): SiLU(0, 0.000% Params, 0.0 Mac, 0.000% MACs, inplace=True)
          )
          (1): Conv2dNormActivation(
            8.45 k, 0.007% Params, 1.66 MMac, 0.013% MACs, 
            (0): Conv2d(6.91 k, 0.006% Params, 1.35 MMac, 0.011% MACs, 768, 768, kernel_size=(3, 3), stride=(1, 1), padding=(1, 1), groups=768, bias=False)
            (1): BatchNorm2d(1.54 k, 0.001% Params, 301.06 KMac, 0.002% MACs, 768, eps=0.001, momentum=0.1, affine=True, track_running_stats=True)
            (2): SiLU(0, 0.000% Params, 0.0 Mac, 0.000% MACs, inplace=True)
          )
          (2): SqueezeExcitation(
            74.54 k, 0.063% Params, 225.07 KMac, 0.002% MACs, 
            (avgpool): AdaptiveAvgPool2d(0, 0.000% Params, 150.53 KMac, 0.001% MACs, output_size=1)
            (fc1): Conv2d(36.91 k, 0.031% Params, 36.91 KMac, 0.000% MACs, 768, 48, kernel_size=(1, 1), stride=(1, 1))
            (fc2): Conv2d(37.63 k, 0.032% Params, 37.63 KMac, 0.000% MACs, 48, 768, kernel_size=(1, 1), stride=(1, 1))
            (activation): SiLU(0, 0.000% Params, 0.0 Mac, 0.000% MACs, inplace=True)
            (scale_activation): Sigmoid(0, 0.000% Params, 0.0 Mac, 0.000% MACs, )
          )
          (3): Conv2dNormActivation(
            147.84 k, 0.125% Params, 28.98 MMac, 0.235% MACs, 
            (0): Conv2d(147.46 k, 0.124% Params, 28.9 MMac, 0.235% MACs, 768, 192, kernel_size=(1, 1), stride=(1, 1), bias=False)
            (1): BatchNorm2d(384, 0.000% Params, 75.26 KMac, 0.001% MACs, 192, eps=0.001, momentum=0.1, affine=True, track_running_stats=True)
          )
        )
        (stochastic_depth): StochasticDepth(p=0.06329113924050633, mode=row)
      )
      (8): MBConv(
        379.82 k, 0.320% Params, 60.06 MMac, 0.488% MACs, 
        (block): Sequential(
          379.82 k, 0.320% Params, 60.06 MMac, 0.488% MACs, 
          (0): Conv2dNormActivation(
            148.99 k, 0.126% Params, 29.2 MMac, 0.237% MACs, 
            (0): Conv2d(147.46 k, 0.124% Params, 28.9 MMac, 0.235% MACs, 192, 768, kernel_size=(1, 1), stride=(1, 1), bias=False)
            (1): BatchNorm2d(1.54 k, 0.001% Params, 301.06 KMac, 0.002% MACs, 768, eps=0.001, momentum=0.1, affine=True, track_running_stats=True)
            (2): SiLU(0, 0.000% Params, 0.0 Mac, 0.000% MACs, inplace=True)
          )
          (1): Conv2dNormActivation(
            8.45 k, 0.007% Params, 1.66 MMac, 0.013% MACs, 
            (0): Conv2d(6.91 k, 0.006% Params, 1.35 MMac, 0.011% MACs, 768, 768, kernel_size=(3, 3), stride=(1, 1), padding=(1, 1), groups=768, bias=False)
            (1): BatchNorm2d(1.54 k, 0.001% Params, 301.06 KMac, 0.002% MACs, 768, eps=0.001, momentum=0.1, affine=True, track_running_stats=True)
            (2): SiLU(0, 0.000% Params, 0.0 Mac, 0.000% MACs, inplace=True)
          )
          (2): SqueezeExcitation(
            74.54 k, 0.063% Params, 225.07 KMac, 0.002% MACs, 
            (avgpool): AdaptiveAvgPool2d(0, 0.000% Params, 150.53 KMac, 0.001% MACs, output_size=1)
            (fc1): Conv2d(36.91 k, 0.031% Params, 36.91 KMac, 0.000% MACs, 768, 48, kernel_size=(1, 1), stride=(1, 1))
            (fc2): Conv2d(37.63 k, 0.032% Params, 37.63 KMac, 0.000% MACs, 48, 768, kernel_size=(1, 1), stride=(1, 1))
            (activation): SiLU(0, 0.000% Params, 0.0 Mac, 0.000% MACs, inplace=True)
            (scale_activation): Sigmoid(0, 0.000% Params, 0.0 Mac, 0.000% MACs, )
          )
          (3): Conv2dNormActivation(
            147.84 k, 0.125% Params, 28.98 MMac, 0.235% MACs, 
            (0): Conv2d(147.46 k, 0.124% Params, 28.9 MMac, 0.235% MACs, 768, 192, kernel_size=(1, 1), stride=(1, 1), bias=False)
            (1): BatchNorm2d(384, 0.000% Params, 75.26 KMac, 0.001% MACs, 192, eps=0.001, momentum=0.1, affine=True, track_running_stats=True)
          )
        )
        (stochastic_depth): StochasticDepth(p=0.06582278481012659, mode=row)
      )
      (9): MBConv(
        379.82 k, 0.320% Params, 60.06 MMac, 0.488% MACs, 
        (block): Sequential(
          379.82 k, 0.320% Params, 60.06 MMac, 0.488% MACs, 
          (0): Conv2dNormActivation(
            148.99 k, 0.126% Params, 29.2 MMac, 0.237% MACs, 
            (0): Conv2d(147.46 k, 0.124% Params, 28.9 MMac, 0.235% MACs, 192, 768, kernel_size=(1, 1), stride=(1, 1), bias=False)
            (1): BatchNorm2d(1.54 k, 0.001% Params, 301.06 KMac, 0.002% MACs, 768, eps=0.001, momentum=0.1, affine=True, track_running_stats=True)
            (2): SiLU(0, 0.000% Params, 0.0 Mac, 0.000% MACs, inplace=True)
          )
          (1): Conv2dNormActivation(
            8.45 k, 0.007% Params, 1.66 MMac, 0.013% MACs, 
            (0): Conv2d(6.91 k, 0.006% Params, 1.35 MMac, 0.011% MACs, 768, 768, kernel_size=(3, 3), stride=(1, 1), padding=(1, 1), groups=768, bias=False)
            (1): BatchNorm2d(1.54 k, 0.001% Params, 301.06 KMac, 0.002% MACs, 768, eps=0.001, momentum=0.1, affine=True, track_running_stats=True)
            (2): SiLU(0, 0.000% Params, 0.0 Mac, 0.000% MACs, inplace=True)
          )
          (2): SqueezeExcitation(
            74.54 k, 0.063% Params, 225.07 KMac, 0.002% MACs, 
            (avgpool): AdaptiveAvgPool2d(0, 0.000% Params, 150.53 KMac, 0.001% MACs, output_size=1)
            (fc1): Conv2d(36.91 k, 0.031% Params, 36.91 KMac, 0.000% MACs, 768, 48, kernel_size=(1, 1), stride=(1, 1))
            (fc2): Conv2d(37.63 k, 0.032% Params, 37.63 KMac, 0.000% MACs, 48, 768, kernel_size=(1, 1), stride=(1, 1))
            (activation): SiLU(0, 0.000% Params, 0.0 Mac, 0.000% MACs, inplace=True)
            (scale_activation): Sigmoid(0, 0.000% Params, 0.0 Mac, 0.000% MACs, )
          )
          (3): Conv2dNormActivation(
            147.84 k, 0.125% Params, 28.98 MMac, 0.235% MACs, 
            (0): Conv2d(147.46 k, 0.124% Params, 28.9 MMac, 0.235% MACs, 768, 192, kernel_size=(1, 1), stride=(1, 1), bias=False)
            (1): BatchNorm2d(384, 0.000% Params, 75.26 KMac, 0.001% MACs, 192, eps=0.001, momentum=0.1, affine=True, track_running_stats=True)
          )
        )
        (stochastic_depth): StochasticDepth(p=0.06835443037974684, mode=row)
      )
    )
    (5): Sequential(
      14.5 M, 12.236% Params, 2.29 GMac, 18.620% MACs, 
      (0): MBConv(
        606.45 k, 0.512% Params, 97.29 MMac, 0.790% MACs, 
        (block): Sequential(
          606.45 k, 0.512% Params, 97.29 MMac, 0.790% MACs, 
          (0): Conv2dNormActivation(
            223.49 k, 0.189% Params, 43.8 MMac, 0.356% MACs, 
            (0): Conv2d(221.18 k, 0.187% Params, 43.35 MMac, 0.352% MACs, 192, 1152, kernel_size=(1, 1), stride=(1, 1), bias=False)
            (1): BatchNorm2d(2.3 k, 0.002% Params, 451.58 KMac, 0.004% MACs, 1152, eps=0.001, momentum=0.1, affine=True, track_running_stats=True)
            (2): SiLU(0, 0.000% Params, 0.0 Mac, 0.000% MACs, inplace=True)
          )
          (1): Conv2dNormActivation(
            12.67 k, 0.011% Params, 2.48 MMac, 0.020% MACs, 
            (0): Conv2d(10.37 k, 0.009% Params, 2.03 MMac, 0.017% MACs, 1152, 1152, kernel_size=(3, 3), stride=(1, 1), padding=(1, 1), groups=1152, bias=False)
            (1): BatchNorm2d(2.3 k, 0.002% Params, 451.58 KMac, 0.004% MACs, 1152, eps=0.001, momentum=0.1, affine=True, track_running_stats=True)
            (2): SiLU(0, 0.000% Params, 0.0 Mac, 0.000% MACs, inplace=True)
          )
          (2): SqueezeExcitation(
            111.79 k, 0.094% Params, 337.58 KMac, 0.003% MACs, 
            (avgpool): AdaptiveAvgPool2d(0, 0.000% Params, 225.79 KMac, 0.002% MACs, output_size=1)
            (fc1): Conv2d(55.34 k, 0.047% Params, 55.34 KMac, 0.000% MACs, 1152, 48, kernel_size=(1, 1), stride=(1, 1))
            (fc2): Conv2d(56.45 k, 0.048% Params, 56.45 KMac, 0.000% MACs, 48, 1152, kernel_size=(1, 1), stride=(1, 1))
            (activation): SiLU(0, 0.000% Params, 0.0 Mac, 0.000% MACs, inplace=True)
            (scale_activation): Sigmoid(0, 0.000% Params, 0.0 Mac, 0.000% MACs, )
          )
          (3): Conv2dNormActivation(
            258.5 k, 0.218% Params, 50.67 MMac, 0.412% MACs, 
            (0): Conv2d(258.05 k, 0.218% Params, 50.58 MMac, 0.411% MACs, 1152, 224, kernel_size=(1, 1), stride=(1, 1), bias=False)
            (1): BatchNorm2d(448, 0.000% Params, 87.81 KMac, 0.001% MACs, 224, eps=0.001, momentum=0.1, affine=True, track_running_stats=True)
          )
        )
        (stochastic_depth): StochasticDepth(p=0.07088607594936709, mode=row)
      )
      (1): MBConv(
        771.96 k, 0.651% Params, 121.94 MMac, 0.991% MACs, 
        (block): Sequential(
          771.96 k, 0.651% Params, 121.94 MMac, 0.991% MACs, 
          (0): Conv2dNormActivation(
            303.74 k, 0.256% Params, 59.53 MMac, 0.484% MACs, 
            (0): Conv2d(301.06 k, 0.254% Params, 59.01 MMac, 0.479% MACs, 224, 1344, kernel_size=(1, 1), stride=(1, 1), bias=False)
            (1): BatchNorm2d(2.69 k, 0.002% Params, 526.85 KMac, 0.004% MACs, 1344, eps=0.001, momentum=0.1, affine=True, track_running_stats=True)
            (2): SiLU(0, 0.000% Params, 0.0 Mac, 0.000% MACs, inplace=True)
          )
          (1): Conv2dNormActivation(
            14.78 k, 0.012% Params, 2.9 MMac, 0.024% MACs, 
            (0): Conv2d(12.1 k, 0.010% Params, 2.37 MMac, 0.019% MACs, 1344, 1344, kernel_size=(3, 3), stride=(1, 1), padding=(1, 1), groups=1344, bias=False)
            (1): BatchNorm2d(2.69 k, 0.002% Params, 526.85 KMac, 0.004% MACs, 1344, eps=0.001, momentum=0.1, affine=True, track_running_stats=True)
            (2): SiLU(0, 0.000% Params, 0.0 Mac, 0.000% MACs, inplace=True)
          )
          (2): SqueezeExcitation(
            151.93 k, 0.128% Params, 415.35 KMac, 0.003% MACs, 
            (avgpool): AdaptiveAvgPool2d(0, 0.000% Params, 263.42 KMac, 0.002% MACs, output_size=1)
            (fc1): Conv2d(75.32 k, 0.064% Params, 75.32 KMac, 0.001% MACs, 1344, 56, kernel_size=(1, 1), stride=(1, 1))
            (fc2): Conv2d(76.61 k, 0.065% Params, 76.61 KMac, 0.001% MACs, 56, 1344, kernel_size=(1, 1), stride=(1, 1))
            (activation): SiLU(0, 0.000% Params, 0.0 Mac, 0.000% MACs, inplace=True)
            (scale_activation): Sigmoid(0, 0.000% Params, 0.0 Mac, 0.000% MACs, )
          )
          (3): Conv2dNormActivation(
            301.5 k, 0.254% Params, 59.09 MMac, 0.480% MACs, 
            (0): Conv2d(301.06 k, 0.254% Params, 59.01 MMac, 0.479% MACs, 1344, 224, kernel_size=(1, 1), stride=(1, 1), bias=False)
            (1): BatchNorm2d(448, 0.000% Params, 87.81 KMac, 0.001% MACs, 224, eps=0.001, momentum=0.1, affine=True, track_running_stats=True)
          )
        )
        (stochastic_depth): StochasticDepth(p=0.07341772151898734, mode=row)
      )
      (2): MBConv(
        771.96 k, 0.651% Params, 121.94 MMac, 0.991% MACs, 
        (block): Sequential(
          771.96 k, 0.651% Params, 121.94 MMac, 0.991% MACs, 
          (0): Conv2dNormActivation(
            303.74 k, 0.256% Params, 59.53 MMac, 0.484% MACs, 
            (0): Conv2d(301.06 k, 0.254% Params, 59.01 MMac, 0.479% MACs, 224, 1344, kernel_size=(1, 1), stride=(1, 1), bias=False)
            (1): BatchNorm2d(2.69 k, 0.002% Params, 526.85 KMac, 0.004% MACs, 1344, eps=0.001, momentum=0.1, affine=True, track_running_stats=True)
            (2): SiLU(0, 0.000% Params, 0.0 Mac, 0.000% MACs, inplace=True)
          )
          (1): Conv2dNormActivation(
            14.78 k, 0.012% Params, 2.9 MMac, 0.024% MACs, 
            (0): Conv2d(12.1 k, 0.010% Params, 2.37 MMac, 0.019% MACs, 1344, 1344, kernel_size=(3, 3), stride=(1, 1), padding=(1, 1), groups=1344, bias=False)
            (1): BatchNorm2d(2.69 k, 0.002% Params, 526.85 KMac, 0.004% MACs, 1344, eps=0.001, momentum=0.1, affine=True, track_running_stats=True)
            (2): SiLU(0, 0.000% Params, 0.0 Mac, 0.000% MACs, inplace=True)
          )
          (2): SqueezeExcitation(
            151.93 k, 0.128% Params, 415.35 KMac, 0.003% MACs, 
            (avgpool): AdaptiveAvgPool2d(0, 0.000% Params, 263.42 KMac, 0.002% MACs, output_size=1)
            (fc1): Conv2d(75.32 k, 0.064% Params, 75.32 KMac, 0.001% MACs, 1344, 56, kernel_size=(1, 1), stride=(1, 1))
            (fc2): Conv2d(76.61 k, 0.065% Params, 76.61 KMac, 0.001% MACs, 56, 1344, kernel_size=(1, 1), stride=(1, 1))
            (activation): SiLU(0, 0.000% Params, 0.0 Mac, 0.000% MACs, inplace=True)
            (scale_activation): Sigmoid(0, 0.000% Params, 0.0 Mac, 0.000% MACs, )
          )
          (3): Conv2dNormActivation(
            301.5 k, 0.254% Params, 59.09 MMac, 0.480% MACs, 
            (0): Conv2d(301.06 k, 0.254% Params, 59.01 MMac, 0.479% MACs, 1344, 224, kernel_size=(1, 1), stride=(1, 1), bias=False)
            (1): BatchNorm2d(448, 0.000% Params, 87.81 KMac, 0.001% MACs, 224, eps=0.001, momentum=0.1, affine=True, track_running_stats=True)
          )
        )
        (stochastic_depth): StochasticDepth(p=0.0759493670886076, mode=row)
      )
      (3): MBConv(
        771.96 k, 0.651% Params, 121.94 MMac, 0.991% MACs, 
        (block): Sequential(
          771.96 k, 0.651% Params, 121.94 MMac, 0.991% MACs, 
          (0): Conv2dNormActivation(
            303.74 k, 0.256% Params, 59.53 MMac, 0.484% MACs, 
            (0): Conv2d(301.06 k, 0.254% Params, 59.01 MMac, 0.479% MACs, 224, 1344, kernel_size=(1, 1), stride=(1, 1), bias=False)
            (1): BatchNorm2d(2.69 k, 0.002% Params, 526.85 KMac, 0.004% MACs, 1344, eps=0.001, momentum=0.1, affine=True, track_running_stats=True)
            (2): SiLU(0, 0.000% Params, 0.0 Mac, 0.000% MACs, inplace=True)
          )
          (1): Conv2dNormActivation(
            14.78 k, 0.012% Params, 2.9 MMac, 0.024% MACs, 
            (0): Conv2d(12.1 k, 0.010% Params, 2.37 MMac, 0.019% MACs, 1344, 1344, kernel_size=(3, 3), stride=(1, 1), padding=(1, 1), groups=1344, bias=False)
            (1): BatchNorm2d(2.69 k, 0.002% Params, 526.85 KMac, 0.004% MACs, 1344, eps=0.001, momentum=0.1, affine=True, track_running_stats=True)
            (2): SiLU(0, 0.000% Params, 0.0 Mac, 0.000% MACs, inplace=True)
          )
          (2): SqueezeExcitation(
            151.93 k, 0.128% Params, 415.35 KMac, 0.003% MACs, 
            (avgpool): AdaptiveAvgPool2d(0, 0.000% Params, 263.42 KMac, 0.002% MACs, output_size=1)
            (fc1): Conv2d(75.32 k, 0.064% Params, 75.32 KMac, 0.001% MACs, 1344, 56, kernel_size=(1, 1), stride=(1, 1))
            (fc2): Conv2d(76.61 k, 0.065% Params, 76.61 KMac, 0.001% MACs, 56, 1344, kernel_size=(1, 1), stride=(1, 1))
            (activation): SiLU(0, 0.000% Params, 0.0 Mac, 0.000% MACs, inplace=True)
            (scale_activation): Sigmoid(0, 0.000% Params, 0.0 Mac, 0.000% MACs, )
          )
          (3): Conv2dNormActivation(
            301.5 k, 0.254% Params, 59.09 MMac, 0.480% MACs, 
            (0): Conv2d(301.06 k, 0.254% Params, 59.01 MMac, 0.479% MACs, 1344, 224, kernel_size=(1, 1), stride=(1, 1), bias=False)
            (1): BatchNorm2d(448, 0.000% Params, 87.81 KMac, 0.001% MACs, 224, eps=0.001, momentum=0.1, affine=True, track_running_stats=True)
          )
        )
        (stochastic_depth): StochasticDepth(p=0.07848101265822785, mode=row)
      )
      (4): MBConv(
        771.96 k, 0.651% Params, 121.94 MMac, 0.991% MACs, 
        (block): Sequential(
          771.96 k, 0.651% Params, 121.94 MMac, 0.991% MACs, 
          (0): Conv2dNormActivation(
            303.74 k, 0.256% Params, 59.53 MMac, 0.484% MACs, 
            (0): Conv2d(301.06 k, 0.254% Params, 59.01 MMac, 0.479% MACs, 224, 1344, kernel_size=(1, 1), stride=(1, 1), bias=False)
            (1): BatchNorm2d(2.69 k, 0.002% Params, 526.85 KMac, 0.004% MACs, 1344, eps=0.001, momentum=0.1, affine=True, track_running_stats=True)
            (2): SiLU(0, 0.000% Params, 0.0 Mac, 0.000% MACs, inplace=True)
          )
          (1): Conv2dNormActivation(
            14.78 k, 0.012% Params, 2.9 MMac, 0.024% MACs, 
            (0): Conv2d(12.1 k, 0.010% Params, 2.37 MMac, 0.019% MACs, 1344, 1344, kernel_size=(3, 3), stride=(1, 1), padding=(1, 1), groups=1344, bias=False)
            (1): BatchNorm2d(2.69 k, 0.002% Params, 526.85 KMac, 0.004% MACs, 1344, eps=0.001, momentum=0.1, affine=True, track_running_stats=True)
            (2): SiLU(0, 0.000% Params, 0.0 Mac, 0.000% MACs, inplace=True)
          )
          (2): SqueezeExcitation(
            151.93 k, 0.128% Params, 415.35 KMac, 0.003% MACs, 
            (avgpool): AdaptiveAvgPool2d(0, 0.000% Params, 263.42 KMac, 0.002% MACs, output_size=1)
            (fc1): Conv2d(75.32 k, 0.064% Params, 75.32 KMac, 0.001% MACs, 1344, 56, kernel_size=(1, 1), stride=(1, 1))
            (fc2): Conv2d(76.61 k, 0.065% Params, 76.61 KMac, 0.001% MACs, 56, 1344, kernel_size=(1, 1), stride=(1, 1))
            (activation): SiLU(0, 0.000% Params, 0.0 Mac, 0.000% MACs, inplace=True)
            (scale_activation): Sigmoid(0, 0.000% Params, 0.0 Mac, 0.000% MACs, )
          )
          (3): Conv2dNormActivation(
            301.5 k, 0.254% Params, 59.09 MMac, 0.480% MACs, 
            (0): Conv2d(301.06 k, 0.254% Params, 59.01 MMac, 0.479% MACs, 1344, 224, kernel_size=(1, 1), stride=(1, 1), bias=False)
            (1): BatchNorm2d(448, 0.000% Params, 87.81 KMac, 0.001% MACs, 224, eps=0.001, momentum=0.1, affine=True, track_running_stats=True)
          )
        )
        (stochastic_depth): StochasticDepth(p=0.0810126582278481, mode=row)
      )
      (5): MBConv(
        771.96 k, 0.651% Params, 121.94 MMac, 0.991% MACs, 
        (block): Sequential(
          771.96 k, 0.651% Params, 121.94 MMac, 0.991% MACs, 
          (0): Conv2dNormActivation(
            303.74 k, 0.256% Params, 59.53 MMac, 0.484% MACs, 
            (0): Conv2d(301.06 k, 0.254% Params, 59.01 MMac, 0.479% MACs, 224, 1344, kernel_size=(1, 1), stride=(1, 1), bias=False)
            (1): BatchNorm2d(2.69 k, 0.002% Params, 526.85 KMac, 0.004% MACs, 1344, eps=0.001, momentum=0.1, affine=True, track_running_stats=True)
            (2): SiLU(0, 0.000% Params, 0.0 Mac, 0.000% MACs, inplace=True)
          )
          (1): Conv2dNormActivation(
            14.78 k, 0.012% Params, 2.9 MMac, 0.024% MACs, 
            (0): Conv2d(12.1 k, 0.010% Params, 2.37 MMac, 0.019% MACs, 1344, 1344, kernel_size=(3, 3), stride=(1, 1), padding=(1, 1), groups=1344, bias=False)
            (1): BatchNorm2d(2.69 k, 0.002% Params, 526.85 KMac, 0.004% MACs, 1344, eps=0.001, momentum=0.1, affine=True, track_running_stats=True)
            (2): SiLU(0, 0.000% Params, 0.0 Mac, 0.000% MACs, inplace=True)
          )
          (2): SqueezeExcitation(
            151.93 k, 0.128% Params, 415.35 KMac, 0.003% MACs, 
            (avgpool): AdaptiveAvgPool2d(0, 0.000% Params, 263.42 KMac, 0.002% MACs, output_size=1)
            (fc1): Conv2d(75.32 k, 0.064% Params, 75.32 KMac, 0.001% MACs, 1344, 56, kernel_size=(1, 1), stride=(1, 1))
            (fc2): Conv2d(76.61 k, 0.065% Params, 76.61 KMac, 0.001% MACs, 56, 1344, kernel_size=(1, 1), stride=(1, 1))
            (activation): SiLU(0, 0.000% Params, 0.0 Mac, 0.000% MACs, inplace=True)
            (scale_activation): Sigmoid(0, 0.000% Params, 0.0 Mac, 0.000% MACs, )
          )
          (3): Conv2dNormActivation(
            301.5 k, 0.254% Params, 59.09 MMac, 0.480% MACs, 
            (0): Conv2d(301.06 k, 0.254% Params, 59.01 MMac, 0.479% MACs, 1344, 224, kernel_size=(1, 1), stride=(1, 1), bias=False)
            (1): BatchNorm2d(448, 0.000% Params, 87.81 KMac, 0.001% MACs, 224, eps=0.001, momentum=0.1, affine=True, track_running_stats=True)
          )
        )
        (stochastic_depth): StochasticDepth(p=0.08354430379746836, mode=row)
      )
      (6): MBConv(
        771.96 k, 0.651% Params, 121.94 MMac, 0.991% MACs, 
        (block): Sequential(
          771.96 k, 0.651% Params, 121.94 MMac, 0.991% MACs, 
          (0): Conv2dNormActivation(
            303.74 k, 0.256% Params, 59.53 MMac, 0.484% MACs, 
            (0): Conv2d(301.06 k, 0.254% Params, 59.01 MMac, 0.479% MACs, 224, 1344, kernel_size=(1, 1), stride=(1, 1), bias=False)
            (1): BatchNorm2d(2.69 k, 0.002% Params, 526.85 KMac, 0.004% MACs, 1344, eps=0.001, momentum=0.1, affine=True, track_running_stats=True)
            (2): SiLU(0, 0.000% Params, 0.0 Mac, 0.000% MACs, inplace=True)
          )
          (1): Conv2dNormActivation(
            14.78 k, 0.012% Params, 2.9 MMac, 0.024% MACs, 
            (0): Conv2d(12.1 k, 0.010% Params, 2.37 MMac, 0.019% MACs, 1344, 1344, kernel_size=(3, 3), stride=(1, 1), padding=(1, 1), groups=1344, bias=False)
            (1): BatchNorm2d(2.69 k, 0.002% Params, 526.85 KMac, 0.004% MACs, 1344, eps=0.001, momentum=0.1, affine=True, track_running_stats=True)
            (2): SiLU(0, 0.000% Params, 0.0 Mac, 0.000% MACs, inplace=True)
          )
          (2): SqueezeExcitation(
            151.93 k, 0.128% Params, 415.35 KMac, 0.003% MACs, 
            (avgpool): AdaptiveAvgPool2d(0, 0.000% Params, 263.42 KMac, 0.002% MACs, output_size=1)
            (fc1): Conv2d(75.32 k, 0.064% Params, 75.32 KMac, 0.001% MACs, 1344, 56, kernel_size=(1, 1), stride=(1, 1))
            (fc2): Conv2d(76.61 k, 0.065% Params, 76.61 KMac, 0.001% MACs, 56, 1344, kernel_size=(1, 1), stride=(1, 1))
            (activation): SiLU(0, 0.000% Params, 0.0 Mac, 0.000% MACs, inplace=True)
            (scale_activation): Sigmoid(0, 0.000% Params, 0.0 Mac, 0.000% MACs, )
          )
          (3): Conv2dNormActivation(
            301.5 k, 0.254% Params, 59.09 MMac, 0.480% MACs, 
            (0): Conv2d(301.06 k, 0.254% Params, 59.01 MMac, 0.479% MACs, 1344, 224, kernel_size=(1, 1), stride=(1, 1), bias=False)
            (1): BatchNorm2d(448, 0.000% Params, 87.81 KMac, 0.001% MACs, 224, eps=0.001, momentum=0.1, affine=True, track_running_stats=True)
          )
        )
        (stochastic_depth): StochasticDepth(p=0.08607594936708862, mode=row)
      )
      (7): MBConv(
        771.96 k, 0.651% Params, 121.94 MMac, 0.991% MACs, 
        (block): Sequential(
          771.96 k, 0.651% Params, 121.94 MMac, 0.991% MACs, 
          (0): Conv2dNormActivation(
            303.74 k, 0.256% Params, 59.53 MMac, 0.484% MACs, 
            (0): Conv2d(301.06 k, 0.254% Params, 59.01 MMac, 0.479% MACs, 224, 1344, kernel_size=(1, 1), stride=(1, 1), bias=False)
            (1): BatchNorm2d(2.69 k, 0.002% Params, 526.85 KMac, 0.004% MACs, 1344, eps=0.001, momentum=0.1, affine=True, track_running_stats=True)
            (2): SiLU(0, 0.000% Params, 0.0 Mac, 0.000% MACs, inplace=True)
          )
          (1): Conv2dNormActivation(
            14.78 k, 0.012% Params, 2.9 MMac, 0.024% MACs, 
            (0): Conv2d(12.1 k, 0.010% Params, 2.37 MMac, 0.019% MACs, 1344, 1344, kernel_size=(3, 3), stride=(1, 1), padding=(1, 1), groups=1344, bias=False)
            (1): BatchNorm2d(2.69 k, 0.002% Params, 526.85 KMac, 0.004% MACs, 1344, eps=0.001, momentum=0.1, affine=True, track_running_stats=True)
            (2): SiLU(0, 0.000% Params, 0.0 Mac, 0.000% MACs, inplace=True)
          )
          (2): SqueezeExcitation(
            151.93 k, 0.128% Params, 415.35 KMac, 0.003% MACs, 
            (avgpool): AdaptiveAvgPool2d(0, 0.000% Params, 263.42 KMac, 0.002% MACs, output_size=1)
            (fc1): Conv2d(75.32 k, 0.064% Params, 75.32 KMac, 0.001% MACs, 1344, 56, kernel_size=(1, 1), stride=(1, 1))
            (fc2): Conv2d(76.61 k, 0.065% Params, 76.61 KMac, 0.001% MACs, 56, 1344, kernel_size=(1, 1), stride=(1, 1))
            (activation): SiLU(0, 0.000% Params, 0.0 Mac, 0.000% MACs, inplace=True)
            (scale_activation): Sigmoid(0, 0.000% Params, 0.0 Mac, 0.000% MACs, )
          )
          (3): Conv2dNormActivation(
            301.5 k, 0.254% Params, 59.09 MMac, 0.480% MACs, 
            (0): Conv2d(301.06 k, 0.254% Params, 59.01 MMac, 0.479% MACs, 1344, 224, kernel_size=(1, 1), stride=(1, 1), bias=False)
            (1): BatchNorm2d(448, 0.000% Params, 87.81 KMac, 0.001% MACs, 224, eps=0.001, momentum=0.1, affine=True, track_running_stats=True)
          )
        )
        (stochastic_depth): StochasticDepth(p=0.08860759493670886, mode=row)
      )
      (8): MBConv(
        771.96 k, 0.651% Params, 121.94 MMac, 0.991% MACs, 
        (block): Sequential(
          771.96 k, 0.651% Params, 121.94 MMac, 0.991% MACs, 
          (0): Conv2dNormActivation(
            303.74 k, 0.256% Params, 59.53 MMac, 0.484% MACs, 
            (0): Conv2d(301.06 k, 0.254% Params, 59.01 MMac, 0.479% MACs, 224, 1344, kernel_size=(1, 1), stride=(1, 1), bias=False)
            (1): BatchNorm2d(2.69 k, 0.002% Params, 526.85 KMac, 0.004% MACs, 1344, eps=0.001, momentum=0.1, affine=True, track_running_stats=True)
            (2): SiLU(0, 0.000% Params, 0.0 Mac, 0.000% MACs, inplace=True)
          )
          (1): Conv2dNormActivation(
            14.78 k, 0.012% Params, 2.9 MMac, 0.024% MACs, 
            (0): Conv2d(12.1 k, 0.010% Params, 2.37 MMac, 0.019% MACs, 1344, 1344, kernel_size=(3, 3), stride=(1, 1), padding=(1, 1), groups=1344, bias=False)
            (1): BatchNorm2d(2.69 k, 0.002% Params, 526.85 KMac, 0.004% MACs, 1344, eps=0.001, momentum=0.1, affine=True, track_running_stats=True)
            (2): SiLU(0, 0.000% Params, 0.0 Mac, 0.000% MACs, inplace=True)
          )
          (2): SqueezeExcitation(
            151.93 k, 0.128% Params, 415.35 KMac, 0.003% MACs, 
            (avgpool): AdaptiveAvgPool2d(0, 0.000% Params, 263.42 KMac, 0.002% MACs, output_size=1)
            (fc1): Conv2d(75.32 k, 0.064% Params, 75.32 KMac, 0.001% MACs, 1344, 56, kernel_size=(1, 1), stride=(1, 1))
            (fc2): Conv2d(76.61 k, 0.065% Params, 76.61 KMac, 0.001% MACs, 56, 1344, kernel_size=(1, 1), stride=(1, 1))
            (activation): SiLU(0, 0.000% Params, 0.0 Mac, 0.000% MACs, inplace=True)
            (scale_activation): Sigmoid(0, 0.000% Params, 0.0 Mac, 0.000% MACs, )
          )
          (3): Conv2dNormActivation(
            301.5 k, 0.254% Params, 59.09 MMac, 0.480% MACs, 
            (0): Conv2d(301.06 k, 0.254% Params, 59.01 MMac, 0.479% MACs, 1344, 224, kernel_size=(1, 1), stride=(1, 1), bias=False)
            (1): BatchNorm2d(448, 0.000% Params, 87.81 KMac, 0.001% MACs, 224, eps=0.001, momentum=0.1, affine=True, track_running_stats=True)
          )
        )
        (stochastic_depth): StochasticDepth(p=0.09113924050632911, mode=row)
      )
      (9): MBConv(
        771.96 k, 0.651% Params, 121.94 MMac, 0.991% MACs, 
        (block): Sequential(
          771.96 k, 0.651% Params, 121.94 MMac, 0.991% MACs, 
          (0): Conv2dNormActivation(
            303.74 k, 0.256% Params, 59.53 MMac, 0.484% MACs, 
            (0): Conv2d(301.06 k, 0.254% Params, 59.01 MMac, 0.479% MACs, 224, 1344, kernel_size=(1, 1), stride=(1, 1), bias=False)
            (1): BatchNorm2d(2.69 k, 0.002% Params, 526.85 KMac, 0.004% MACs, 1344, eps=0.001, momentum=0.1, affine=True, track_running_stats=True)
            (2): SiLU(0, 0.000% Params, 0.0 Mac, 0.000% MACs, inplace=True)
          )
          (1): Conv2dNormActivation(
            14.78 k, 0.012% Params, 2.9 MMac, 0.024% MACs, 
            (0): Conv2d(12.1 k, 0.010% Params, 2.37 MMac, 0.019% MACs, 1344, 1344, kernel_size=(3, 3), stride=(1, 1), padding=(1, 1), groups=1344, bias=False)
            (1): BatchNorm2d(2.69 k, 0.002% Params, 526.85 KMac, 0.004% MACs, 1344, eps=0.001, momentum=0.1, affine=True, track_running_stats=True)
            (2): SiLU(0, 0.000% Params, 0.0 Mac, 0.000% MACs, inplace=True)
          )
          (2): SqueezeExcitation(
            151.93 k, 0.128% Params, 415.35 KMac, 0.003% MACs, 
            (avgpool): AdaptiveAvgPool2d(0, 0.000% Params, 263.42 KMac, 0.002% MACs, output_size=1)
            (fc1): Conv2d(75.32 k, 0.064% Params, 75.32 KMac, 0.001% MACs, 1344, 56, kernel_size=(1, 1), stride=(1, 1))
            (fc2): Conv2d(76.61 k, 0.065% Params, 76.61 KMac, 0.001% MACs, 56, 1344, kernel_size=(1, 1), stride=(1, 1))
            (activation): SiLU(0, 0.000% Params, 0.0 Mac, 0.000% MACs, inplace=True)
            (scale_activation): Sigmoid(0, 0.000% Params, 0.0 Mac, 0.000% MACs, )
          )
          (3): Conv2dNormActivation(
            301.5 k, 0.254% Params, 59.09 MMac, 0.480% MACs, 
            (0): Conv2d(301.06 k, 0.254% Params, 59.01 MMac, 0.479% MACs, 1344, 224, kernel_size=(1, 1), stride=(1, 1), bias=False)
            (1): BatchNorm2d(448, 0.000% Params, 87.81 KMac, 0.001% MACs, 224, eps=0.001, momentum=0.1, affine=True, track_running_stats=True)
          )
        )
        (stochastic_depth): StochasticDepth(p=0.09367088607594937, mode=row)
      )
      (10): MBConv(
        771.96 k, 0.651% Params, 121.94 MMac, 0.991% MACs, 
        (block): Sequential(
          771.96 k, 0.651% Params, 121.94 MMac, 0.991% MACs, 
          (0): Conv2dNormActivation(
            303.74 k, 0.256% Params, 59.53 MMac, 0.484% MACs, 
            (0): Conv2d(301.06 k, 0.254% Params, 59.01 MMac, 0.479% MACs, 224, 1344, kernel_size=(1, 1), stride=(1, 1), bias=False)
            (1): BatchNorm2d(2.69 k, 0.002% Params, 526.85 KMac, 0.004% MACs, 1344, eps=0.001, momentum=0.1, affine=True, track_running_stats=True)
            (2): SiLU(0, 0.000% Params, 0.0 Mac, 0.000% MACs, inplace=True)
          )
          (1): Conv2dNormActivation(
            14.78 k, 0.012% Params, 2.9 MMac, 0.024% MACs, 
            (0): Conv2d(12.1 k, 0.010% Params, 2.37 MMac, 0.019% MACs, 1344, 1344, kernel_size=(3, 3), stride=(1, 1), padding=(1, 1), groups=1344, bias=False)
            (1): BatchNorm2d(2.69 k, 0.002% Params, 526.85 KMac, 0.004% MACs, 1344, eps=0.001, momentum=0.1, affine=True, track_running_stats=True)
            (2): SiLU(0, 0.000% Params, 0.0 Mac, 0.000% MACs, inplace=True)
          )
          (2): SqueezeExcitation(
            151.93 k, 0.128% Params, 415.35 KMac, 0.003% MACs, 
            (avgpool): AdaptiveAvgPool2d(0, 0.000% Params, 263.42 KMac, 0.002% MACs, output_size=1)
            (fc1): Conv2d(75.32 k, 0.064% Params, 75.32 KMac, 0.001% MACs, 1344, 56, kernel_size=(1, 1), stride=(1, 1))
            (fc2): Conv2d(76.61 k, 0.065% Params, 76.61 KMac, 0.001% MACs, 56, 1344, kernel_size=(1, 1), stride=(1, 1))
            (activation): SiLU(0, 0.000% Params, 0.0 Mac, 0.000% MACs, inplace=True)
            (scale_activation): Sigmoid(0, 0.000% Params, 0.0 Mac, 0.000% MACs, )
          )
          (3): Conv2dNormActivation(
            301.5 k, 0.254% Params, 59.09 MMac, 0.480% MACs, 
            (0): Conv2d(301.06 k, 0.254% Params, 59.01 MMac, 0.479% MACs, 1344, 224, kernel_size=(1, 1), stride=(1, 1), bias=False)
            (1): BatchNorm2d(448, 0.000% Params, 87.81 KMac, 0.001% MACs, 224, eps=0.001, momentum=0.1, affine=True, track_running_stats=True)
          )
        )
        (stochastic_depth): StochasticDepth(p=0.09620253164556963, mode=row)
      )
      (11): MBConv(
        771.96 k, 0.651% Params, 121.94 MMac, 0.991% MACs, 
        (block): Sequential(
          771.96 k, 0.651% Params, 121.94 MMac, 0.991% MACs, 
          (0): Conv2dNormActivation(
            303.74 k, 0.256% Params, 59.53 MMac, 0.484% MACs, 
            (0): Conv2d(301.06 k, 0.254% Params, 59.01 MMac, 0.479% MACs, 224, 1344, kernel_size=(1, 1), stride=(1, 1), bias=False)
            (1): BatchNorm2d(2.69 k, 0.002% Params, 526.85 KMac, 0.004% MACs, 1344, eps=0.001, momentum=0.1, affine=True, track_running_stats=True)
            (2): SiLU(0, 0.000% Params, 0.0 Mac, 0.000% MACs, inplace=True)
          )
          (1): Conv2dNormActivation(
            14.78 k, 0.012% Params, 2.9 MMac, 0.024% MACs, 
            (0): Conv2d(12.1 k, 0.010% Params, 2.37 MMac, 0.019% MACs, 1344, 1344, kernel_size=(3, 3), stride=(1, 1), padding=(1, 1), groups=1344, bias=False)
            (1): BatchNorm2d(2.69 k, 0.002% Params, 526.85 KMac, 0.004% MACs, 1344, eps=0.001, momentum=0.1, affine=True, track_running_stats=True)
            (2): SiLU(0, 0.000% Params, 0.0 Mac, 0.000% MACs, inplace=True)
          )
          (2): SqueezeExcitation(
            151.93 k, 0.128% Params, 415.35 KMac, 0.003% MACs, 
            (avgpool): AdaptiveAvgPool2d(0, 0.000% Params, 263.42 KMac, 0.002% MACs, output_size=1)
            (fc1): Conv2d(75.32 k, 0.064% Params, 75.32 KMac, 0.001% MACs, 1344, 56, kernel_size=(1, 1), stride=(1, 1))
            (fc2): Conv2d(76.61 k, 0.065% Params, 76.61 KMac, 0.001% MACs, 56, 1344, kernel_size=(1, 1), stride=(1, 1))
            (activation): SiLU(0, 0.000% Params, 0.0 Mac, 0.000% MACs, inplace=True)
            (scale_activation): Sigmoid(0, 0.000% Params, 0.0 Mac, 0.000% MACs, )
          )
          (3): Conv2dNormActivation(
            301.5 k, 0.254% Params, 59.09 MMac, 0.480% MACs, 
            (0): Conv2d(301.06 k, 0.254% Params, 59.01 MMac, 0.479% MACs, 1344, 224, kernel_size=(1, 1), stride=(1, 1), bias=False)
            (1): BatchNorm2d(448, 0.000% Params, 87.81 KMac, 0.001% MACs, 224, eps=0.001, momentum=0.1, affine=True, track_running_stats=True)
          )
        )
        (stochastic_depth): StochasticDepth(p=0.09873417721518989, mode=row)
      )
      (12): MBConv(
        771.96 k, 0.651% Params, 121.94 MMac, 0.991% MACs, 
        (block): Sequential(
          771.96 k, 0.651% Params, 121.94 MMac, 0.991% MACs, 
          (0): Conv2dNormActivation(
            303.74 k, 0.256% Params, 59.53 MMac, 0.484% MACs, 
            (0): Conv2d(301.06 k, 0.254% Params, 59.01 MMac, 0.479% MACs, 224, 1344, kernel_size=(1, 1), stride=(1, 1), bias=False)
            (1): BatchNorm2d(2.69 k, 0.002% Params, 526.85 KMac, 0.004% MACs, 1344, eps=0.001, momentum=0.1, affine=True, track_running_stats=True)
            (2): SiLU(0, 0.000% Params, 0.0 Mac, 0.000% MACs, inplace=True)
          )
          (1): Conv2dNormActivation(
            14.78 k, 0.012% Params, 2.9 MMac, 0.024% MACs, 
            (0): Conv2d(12.1 k, 0.010% Params, 2.37 MMac, 0.019% MACs, 1344, 1344, kernel_size=(3, 3), stride=(1, 1), padding=(1, 1), groups=1344, bias=False)
            (1): BatchNorm2d(2.69 k, 0.002% Params, 526.85 KMac, 0.004% MACs, 1344, eps=0.001, momentum=0.1, affine=True, track_running_stats=True)
            (2): SiLU(0, 0.000% Params, 0.0 Mac, 0.000% MACs, inplace=True)
          )
          (2): SqueezeExcitation(
            151.93 k, 0.128% Params, 415.35 KMac, 0.003% MACs, 
            (avgpool): AdaptiveAvgPool2d(0, 0.000% Params, 263.42 KMac, 0.002% MACs, output_size=1)
            (fc1): Conv2d(75.32 k, 0.064% Params, 75.32 KMac, 0.001% MACs, 1344, 56, kernel_size=(1, 1), stride=(1, 1))
            (fc2): Conv2d(76.61 k, 0.065% Params, 76.61 KMac, 0.001% MACs, 56, 1344, kernel_size=(1, 1), stride=(1, 1))
            (activation): SiLU(0, 0.000% Params, 0.0 Mac, 0.000% MACs, inplace=True)
            (scale_activation): Sigmoid(0, 0.000% Params, 0.0 Mac, 0.000% MACs, )
          )
          (3): Conv2dNormActivation(
            301.5 k, 0.254% Params, 59.09 MMac, 0.480% MACs, 
            (0): Conv2d(301.06 k, 0.254% Params, 59.01 MMac, 0.479% MACs, 1344, 224, kernel_size=(1, 1), stride=(1, 1), bias=False)
            (1): BatchNorm2d(448, 0.000% Params, 87.81 KMac, 0.001% MACs, 224, eps=0.001, momentum=0.1, affine=True, track_running_stats=True)
          )
        )
        (stochastic_depth): StochasticDepth(p=0.10126582278481013, mode=row)
      )
      (13): MBConv(
        771.96 k, 0.651% Params, 121.94 MMac, 0.991% MACs, 
        (block): Sequential(
          771.96 k, 0.651% Params, 121.94 MMac, 0.991% MACs, 
          (0): Conv2dNormActivation(
            303.74 k, 0.256% Params, 59.53 MMac, 0.484% MACs, 
            (0): Conv2d(301.06 k, 0.254% Params, 59.01 MMac, 0.479% MACs, 224, 1344, kernel_size=(1, 1), stride=(1, 1), bias=False)
            (1): BatchNorm2d(2.69 k, 0.002% Params, 526.85 KMac, 0.004% MACs, 1344, eps=0.001, momentum=0.1, affine=True, track_running_stats=True)
            (2): SiLU(0, 0.000% Params, 0.0 Mac, 0.000% MACs, inplace=True)
          )
          (1): Conv2dNormActivation(
            14.78 k, 0.012% Params, 2.9 MMac, 0.024% MACs, 
            (0): Conv2d(12.1 k, 0.010% Params, 2.37 MMac, 0.019% MACs, 1344, 1344, kernel_size=(3, 3), stride=(1, 1), padding=(1, 1), groups=1344, bias=False)
            (1): BatchNorm2d(2.69 k, 0.002% Params, 526.85 KMac, 0.004% MACs, 1344, eps=0.001, momentum=0.1, affine=True, track_running_stats=True)
            (2): SiLU(0, 0.000% Params, 0.0 Mac, 0.000% MACs, inplace=True)
          )
          (2): SqueezeExcitation(
            151.93 k, 0.128% Params, 415.35 KMac, 0.003% MACs, 
            (avgpool): AdaptiveAvgPool2d(0, 0.000% Params, 263.42 KMac, 0.002% MACs, output_size=1)
            (fc1): Conv2d(75.32 k, 0.064% Params, 75.32 KMac, 0.001% MACs, 1344, 56, kernel_size=(1, 1), stride=(1, 1))
            (fc2): Conv2d(76.61 k, 0.065% Params, 76.61 KMac, 0.001% MACs, 56, 1344, kernel_size=(1, 1), stride=(1, 1))
            (activation): SiLU(0, 0.000% Params, 0.0 Mac, 0.000% MACs, inplace=True)
            (scale_activation): Sigmoid(0, 0.000% Params, 0.0 Mac, 0.000% MACs, )
          )
          (3): Conv2dNormActivation(
            301.5 k, 0.254% Params, 59.09 MMac, 0.480% MACs, 
            (0): Conv2d(301.06 k, 0.254% Params, 59.01 MMac, 0.479% MACs, 1344, 224, kernel_size=(1, 1), stride=(1, 1), bias=False)
            (1): BatchNorm2d(448, 0.000% Params, 87.81 KMac, 0.001% MACs, 224, eps=0.001, momentum=0.1, affine=True, track_running_stats=True)
          )
        )
        (stochastic_depth): StochasticDepth(p=0.10379746835443039, mode=row)
      )
      (14): MBConv(
        771.96 k, 0.651% Params, 121.94 MMac, 0.991% MACs, 
        (block): Sequential(
          771.96 k, 0.651% Params, 121.94 MMac, 0.991% MACs, 
          (0): Conv2dNormActivation(
            303.74 k, 0.256% Params, 59.53 MMac, 0.484% MACs, 
            (0): Conv2d(301.06 k, 0.254% Params, 59.01 MMac, 0.479% MACs, 224, 1344, kernel_size=(1, 1), stride=(1, 1), bias=False)
            (1): BatchNorm2d(2.69 k, 0.002% Params, 526.85 KMac, 0.004% MACs, 1344, eps=0.001, momentum=0.1, affine=True, track_running_stats=True)
            (2): SiLU(0, 0.000% Params, 0.0 Mac, 0.000% MACs, inplace=True)
          )
          (1): Conv2dNormActivation(
            14.78 k, 0.012% Params, 2.9 MMac, 0.024% MACs, 
            (0): Conv2d(12.1 k, 0.010% Params, 2.37 MMac, 0.019% MACs, 1344, 1344, kernel_size=(3, 3), stride=(1, 1), padding=(1, 1), groups=1344, bias=False)
            (1): BatchNorm2d(2.69 k, 0.002% Params, 526.85 KMac, 0.004% MACs, 1344, eps=0.001, momentum=0.1, affine=True, track_running_stats=True)
            (2): SiLU(0, 0.000% Params, 0.0 Mac, 0.000% MACs, inplace=True)
          )
          (2): SqueezeExcitation(
            151.93 k, 0.128% Params, 415.35 KMac, 0.003% MACs, 
            (avgpool): AdaptiveAvgPool2d(0, 0.000% Params, 263.42 KMac, 0.002% MACs, output_size=1)
            (fc1): Conv2d(75.32 k, 0.064% Params, 75.32 KMac, 0.001% MACs, 1344, 56, kernel_size=(1, 1), stride=(1, 1))
            (fc2): Conv2d(76.61 k, 0.065% Params, 76.61 KMac, 0.001% MACs, 56, 1344, kernel_size=(1, 1), stride=(1, 1))
            (activation): SiLU(0, 0.000% Params, 0.0 Mac, 0.000% MACs, inplace=True)
            (scale_activation): Sigmoid(0, 0.000% Params, 0.0 Mac, 0.000% MACs, )
          )
          (3): Conv2dNormActivation(
            301.5 k, 0.254% Params, 59.09 MMac, 0.480% MACs, 
            (0): Conv2d(301.06 k, 0.254% Params, 59.01 MMac, 0.479% MACs, 1344, 224, kernel_size=(1, 1), stride=(1, 1), bias=False)
            (1): BatchNorm2d(448, 0.000% Params, 87.81 KMac, 0.001% MACs, 224, eps=0.001, momentum=0.1, affine=True, track_running_stats=True)
          )
        )
        (stochastic_depth): StochasticDepth(p=0.10632911392405063, mode=row)
      )
      (15): MBConv(
        771.96 k, 0.651% Params, 121.94 MMac, 0.991% MACs, 
        (block): Sequential(
          771.96 k, 0.651% Params, 121.94 MMac, 0.991% MACs, 
          (0): Conv2dNormActivation(
            303.74 k, 0.256% Params, 59.53 MMac, 0.484% MACs, 
            (0): Conv2d(301.06 k, 0.254% Params, 59.01 MMac, 0.479% MACs, 224, 1344, kernel_size=(1, 1), stride=(1, 1), bias=False)
            (1): BatchNorm2d(2.69 k, 0.002% Params, 526.85 KMac, 0.004% MACs, 1344, eps=0.001, momentum=0.1, affine=True, track_running_stats=True)
            (2): SiLU(0, 0.000% Params, 0.0 Mac, 0.000% MACs, inplace=True)
          )
          (1): Conv2dNormActivation(
            14.78 k, 0.012% Params, 2.9 MMac, 0.024% MACs, 
            (0): Conv2d(12.1 k, 0.010% Params, 2.37 MMac, 0.019% MACs, 1344, 1344, kernel_size=(3, 3), stride=(1, 1), padding=(1, 1), groups=1344, bias=False)
            (1): BatchNorm2d(2.69 k, 0.002% Params, 526.85 KMac, 0.004% MACs, 1344, eps=0.001, momentum=0.1, affine=True, track_running_stats=True)
            (2): SiLU(0, 0.000% Params, 0.0 Mac, 0.000% MACs, inplace=True)
          )
          (2): SqueezeExcitation(
            151.93 k, 0.128% Params, 415.35 KMac, 0.003% MACs, 
            (avgpool): AdaptiveAvgPool2d(0, 0.000% Params, 263.42 KMac, 0.002% MACs, output_size=1)
            (fc1): Conv2d(75.32 k, 0.064% Params, 75.32 KMac, 0.001% MACs, 1344, 56, kernel_size=(1, 1), stride=(1, 1))
            (fc2): Conv2d(76.61 k, 0.065% Params, 76.61 KMac, 0.001% MACs, 56, 1344, kernel_size=(1, 1), stride=(1, 1))
            (activation): SiLU(0, 0.000% Params, 0.0 Mac, 0.000% MACs, inplace=True)
            (scale_activation): Sigmoid(0, 0.000% Params, 0.0 Mac, 0.000% MACs, )
          )
          (3): Conv2dNormActivation(
            301.5 k, 0.254% Params, 59.09 MMac, 0.480% MACs, 
            (0): Conv2d(301.06 k, 0.254% Params, 59.01 MMac, 0.479% MACs, 1344, 224, kernel_size=(1, 1), stride=(1, 1), bias=False)
            (1): BatchNorm2d(448, 0.000% Params, 87.81 KMac, 0.001% MACs, 224, eps=0.001, momentum=0.1, affine=True, track_running_stats=True)
          )
        )
        (stochastic_depth): StochasticDepth(p=0.10886075949367088, mode=row)
      )
      (16): MBConv(
        771.96 k, 0.651% Params, 121.94 MMac, 0.991% MACs, 
        (block): Sequential(
          771.96 k, 0.651% Params, 121.94 MMac, 0.991% MACs, 
          (0): Conv2dNormActivation(
            303.74 k, 0.256% Params, 59.53 MMac, 0.484% MACs, 
            (0): Conv2d(301.06 k, 0.254% Params, 59.01 MMac, 0.479% MACs, 224, 1344, kernel_size=(1, 1), stride=(1, 1), bias=False)
            (1): BatchNorm2d(2.69 k, 0.002% Params, 526.85 KMac, 0.004% MACs, 1344, eps=0.001, momentum=0.1, affine=True, track_running_stats=True)
            (2): SiLU(0, 0.000% Params, 0.0 Mac, 0.000% MACs, inplace=True)
          )
          (1): Conv2dNormActivation(
            14.78 k, 0.012% Params, 2.9 MMac, 0.024% MACs, 
            (0): Conv2d(12.1 k, 0.010% Params, 2.37 MMac, 0.019% MACs, 1344, 1344, kernel_size=(3, 3), stride=(1, 1), padding=(1, 1), groups=1344, bias=False)
            (1): BatchNorm2d(2.69 k, 0.002% Params, 526.85 KMac, 0.004% MACs, 1344, eps=0.001, momentum=0.1, affine=True, track_running_stats=True)
            (2): SiLU(0, 0.000% Params, 0.0 Mac, 0.000% MACs, inplace=True)
          )
          (2): SqueezeExcitation(
            151.93 k, 0.128% Params, 415.35 KMac, 0.003% MACs, 
            (avgpool): AdaptiveAvgPool2d(0, 0.000% Params, 263.42 KMac, 0.002% MACs, output_size=1)
            (fc1): Conv2d(75.32 k, 0.064% Params, 75.32 KMac, 0.001% MACs, 1344, 56, kernel_size=(1, 1), stride=(1, 1))
            (fc2): Conv2d(76.61 k, 0.065% Params, 76.61 KMac, 0.001% MACs, 56, 1344, kernel_size=(1, 1), stride=(1, 1))
            (activation): SiLU(0, 0.000% Params, 0.0 Mac, 0.000% MACs, inplace=True)
            (scale_activation): Sigmoid(0, 0.000% Params, 0.0 Mac, 0.000% MACs, )
          )
          (3): Conv2dNormActivation(
            301.5 k, 0.254% Params, 59.09 MMac, 0.480% MACs, 
            (0): Conv2d(301.06 k, 0.254% Params, 59.01 MMac, 0.479% MACs, 1344, 224, kernel_size=(1, 1), stride=(1, 1), bias=False)
            (1): BatchNorm2d(448, 0.000% Params, 87.81 KMac, 0.001% MACs, 224, eps=0.001, momentum=0.1, affine=True, track_running_stats=True)
          )
        )
        (stochastic_depth): StochasticDepth(p=0.11139240506329115, mode=row)
      )
      (17): MBConv(
        771.96 k, 0.651% Params, 121.94 MMac, 0.991% MACs, 
        (block): Sequential(
          771.96 k, 0.651% Params, 121.94 MMac, 0.991% MACs, 
          (0): Conv2dNormActivation(
            303.74 k, 0.256% Params, 59.53 MMac, 0.484% MACs, 
            (0): Conv2d(301.06 k, 0.254% Params, 59.01 MMac, 0.479% MACs, 224, 1344, kernel_size=(1, 1), stride=(1, 1), bias=False)
            (1): BatchNorm2d(2.69 k, 0.002% Params, 526.85 KMac, 0.004% MACs, 1344, eps=0.001, momentum=0.1, affine=True, track_running_stats=True)
            (2): SiLU(0, 0.000% Params, 0.0 Mac, 0.000% MACs, inplace=True)
          )
          (1): Conv2dNormActivation(
            14.78 k, 0.012% Params, 2.9 MMac, 0.024% MACs, 
            (0): Conv2d(12.1 k, 0.010% Params, 2.37 MMac, 0.019% MACs, 1344, 1344, kernel_size=(3, 3), stride=(1, 1), padding=(1, 1), groups=1344, bias=False)
            (1): BatchNorm2d(2.69 k, 0.002% Params, 526.85 KMac, 0.004% MACs, 1344, eps=0.001, momentum=0.1, affine=True, track_running_stats=True)
            (2): SiLU(0, 0.000% Params, 0.0 Mac, 0.000% MACs, inplace=True)
          )
          (2): SqueezeExcitation(
            151.93 k, 0.128% Params, 415.35 KMac, 0.003% MACs, 
            (avgpool): AdaptiveAvgPool2d(0, 0.000% Params, 263.42 KMac, 0.002% MACs, output_size=1)
            (fc1): Conv2d(75.32 k, 0.064% Params, 75.32 KMac, 0.001% MACs, 1344, 56, kernel_size=(1, 1), stride=(1, 1))
            (fc2): Conv2d(76.61 k, 0.065% Params, 76.61 KMac, 0.001% MACs, 56, 1344, kernel_size=(1, 1), stride=(1, 1))
            (activation): SiLU(0, 0.000% Params, 0.0 Mac, 0.000% MACs, inplace=True)
            (scale_activation): Sigmoid(0, 0.000% Params, 0.0 Mac, 0.000% MACs, )
          )
          (3): Conv2dNormActivation(
            301.5 k, 0.254% Params, 59.09 MMac, 0.480% MACs, 
            (0): Conv2d(301.06 k, 0.254% Params, 59.01 MMac, 0.479% MACs, 1344, 224, kernel_size=(1, 1), stride=(1, 1), bias=False)
            (1): BatchNorm2d(448, 0.000% Params, 87.81 KMac, 0.001% MACs, 224, eps=0.001, momentum=0.1, affine=True, track_running_stats=True)
          )
        )
        (stochastic_depth): StochasticDepth(p=0.11392405063291139, mode=row)
      )
      (18): MBConv(
        771.96 k, 0.651% Params, 121.94 MMac, 0.991% MACs, 
        (block): Sequential(
          771.96 k, 0.651% Params, 121.94 MMac, 0.991% MACs, 
          (0): Conv2dNormActivation(
            303.74 k, 0.256% Params, 59.53 MMac, 0.484% MACs, 
            (0): Conv2d(301.06 k, 0.254% Params, 59.01 MMac, 0.479% MACs, 224, 1344, kernel_size=(1, 1), stride=(1, 1), bias=False)
            (1): BatchNorm2d(2.69 k, 0.002% Params, 526.85 KMac, 0.004% MACs, 1344, eps=0.001, momentum=0.1, affine=True, track_running_stats=True)
            (2): SiLU(0, 0.000% Params, 0.0 Mac, 0.000% MACs, inplace=True)
          )
          (1): Conv2dNormActivation(
            14.78 k, 0.012% Params, 2.9 MMac, 0.024% MACs, 
            (0): Conv2d(12.1 k, 0.010% Params, 2.37 MMac, 0.019% MACs, 1344, 1344, kernel_size=(3, 3), stride=(1, 1), padding=(1, 1), groups=1344, bias=False)
            (1): BatchNorm2d(2.69 k, 0.002% Params, 526.85 KMac, 0.004% MACs, 1344, eps=0.001, momentum=0.1, affine=True, track_running_stats=True)
            (2): SiLU(0, 0.000% Params, 0.0 Mac, 0.000% MACs, inplace=True)
          )
          (2): SqueezeExcitation(
            151.93 k, 0.128% Params, 415.35 KMac, 0.003% MACs, 
            (avgpool): AdaptiveAvgPool2d(0, 0.000% Params, 263.42 KMac, 0.002% MACs, output_size=1)
            (fc1): Conv2d(75.32 k, 0.064% Params, 75.32 KMac, 0.001% MACs, 1344, 56, kernel_size=(1, 1), stride=(1, 1))
            (fc2): Conv2d(76.61 k, 0.065% Params, 76.61 KMac, 0.001% MACs, 56, 1344, kernel_size=(1, 1), stride=(1, 1))
            (activation): SiLU(0, 0.000% Params, 0.0 Mac, 0.000% MACs, inplace=True)
            (scale_activation): Sigmoid(0, 0.000% Params, 0.0 Mac, 0.000% MACs, )
          )
          (3): Conv2dNormActivation(
            301.5 k, 0.254% Params, 59.09 MMac, 0.480% MACs, 
            (0): Conv2d(301.06 k, 0.254% Params, 59.01 MMac, 0.479% MACs, 1344, 224, kernel_size=(1, 1), stride=(1, 1), bias=False)
            (1): BatchNorm2d(448, 0.000% Params, 87.81 KMac, 0.001% MACs, 224, eps=0.001, momentum=0.1, affine=True, track_running_stats=True)
          )
        )
        (stochastic_depth): StochasticDepth(p=0.11645569620253166, mode=row)
      )
    )
    (6): Sequential(
      54.87 M, 46.295% Params, 2.22 GMac, 18.003% MACs, 
      (0): MBConv(
        987.32 k, 0.833% Params, 85.8 MMac, 0.697% MACs, 
        (block): Sequential(
          987.32 k, 0.833% Params, 85.8 MMac, 0.697% MACs, 
          (0): Conv2dNormActivation(
            303.74 k, 0.256% Params, 59.53 MMac, 0.484% MACs, 
            (0): Conv2d(301.06 k, 0.254% Params, 59.01 MMac, 0.479% MACs, 224, 1344, kernel_size=(1, 1), stride=(1, 1), bias=False)
            (1): BatchNorm2d(2.69 k, 0.002% Params, 526.85 KMac, 0.004% MACs, 1344, eps=0.001, momentum=0.1, affine=True, track_running_stats=True)
            (2): SiLU(0, 0.000% Params, 0.0 Mac, 0.000% MACs, inplace=True)
          )
          (1): Conv2dNormActivation(
            14.78 k, 0.012% Params, 724.42 KMac, 0.006% MACs, 
            (0): Conv2d(12.1 k, 0.010% Params, 592.7 KMac, 0.005% MACs, 1344, 1344, kernel_size=(3, 3), stride=(2, 2), padding=(1, 1), groups=1344, bias=False)
            (1): BatchNorm2d(2.69 k, 0.002% Params, 131.71 KMac, 0.001% MACs, 1344, eps=0.001, momentum=0.1, affine=True, track_running_stats=True)
            (2): SiLU(0, 0.000% Params, 0.0 Mac, 0.000% MACs, inplace=True)
          )
          (2): SqueezeExcitation(
            151.93 k, 0.128% Params, 217.78 KMac, 0.002% MACs, 
            (avgpool): AdaptiveAvgPool2d(0, 0.000% Params, 65.86 KMac, 0.001% MACs, output_size=1)
            (fc1): Conv2d(75.32 k, 0.064% Params, 75.32 KMac, 0.001% MACs, 1344, 56, kernel_size=(1, 1), stride=(1, 1))
            (fc2): Conv2d(76.61 k, 0.065% Params, 76.61 KMac, 0.001% MACs, 56, 1344, kernel_size=(1, 1), stride=(1, 1))
            (activation): SiLU(0, 0.000% Params, 0.0 Mac, 0.000% MACs, inplace=True)
            (scale_activation): Sigmoid(0, 0.000% Params, 0.0 Mac, 0.000% MACs, )
          )
          (3): Conv2dNormActivation(
            516.86 k, 0.436% Params, 25.33 MMac, 0.206% MACs, 
            (0): Conv2d(516.1 k, 0.435% Params, 25.29 MMac, 0.205% MACs, 1344, 384, kernel_size=(1, 1), stride=(1, 1), bias=False)
            (1): BatchNorm2d(768, 0.001% Params, 37.63 KMac, 0.000% MACs, 384, eps=0.001, momentum=0.1, affine=True, track_running_stats=True)
          )
        )
        (stochastic_depth): StochasticDepth(p=0.11898734177215191, mode=row)
      )
      (1): MBConv(
        2.24 M, 1.894% Params, 88.77 MMac, 0.721% MACs, 
        (block): Sequential(
          2.24 M, 1.894% Params, 88.77 MMac, 0.721% MACs, 
          (0): Conv2dNormActivation(
            889.34 k, 0.750% Params, 43.58 MMac, 0.354% MACs, 
            (0): Conv2d(884.74 k, 0.747% Params, 43.35 MMac, 0.352% MACs, 384, 2304, kernel_size=(1, 1), stride=(1, 1), bias=False)
            (1): BatchNorm2d(4.61 k, 0.004% Params, 225.79 KMac, 0.002% MACs, 2304, eps=0.001, momentum=0.1, affine=True, track_running_stats=True)
            (2): SiLU(0, 0.000% Params, 0.0 Mac, 0.000% MACs, inplace=True)
          )
          (1): Conv2dNormActivation(
            25.34 k, 0.021% Params, 1.24 MMac, 0.010% MACs, 
            (0): Conv2d(20.74 k, 0.017% Params, 1.02 MMac, 0.008% MACs, 2304, 2304, kernel_size=(3, 3), stride=(1, 1), padding=(1, 1), groups=2304, bias=False)
            (1): BatchNorm2d(4.61 k, 0.004% Params, 225.79 KMac, 0.002% MACs, 2304, eps=0.001, momentum=0.1, affine=True, track_running_stats=True)
            (2): SiLU(0, 0.000% Params, 0.0 Mac, 0.000% MACs, inplace=True)
          )
          (2): SqueezeExcitation(
            444.77 k, 0.375% Params, 557.66 KMac, 0.005% MACs, 
            (avgpool): AdaptiveAvgPool2d(0, 0.000% Params, 112.9 KMac, 0.001% MACs, output_size=1)
            (fc1): Conv2d(221.28 k, 0.187% Params, 221.28 KMac, 0.002% MACs, 2304, 96, kernel_size=(1, 1), stride=(1, 1))
            (fc2): Conv2d(223.49 k, 0.189% Params, 223.49 KMac, 0.002% MACs, 96, 2304, kernel_size=(1, 1), stride=(1, 1))
            (activation): SiLU(0, 0.000% Params, 0.0 Mac, 0.000% MACs, inplace=True)
            (scale_activation): Sigmoid(0, 0.000% Params, 0.0 Mac, 0.000% MACs, )
          )
          (3): Conv2dNormActivation(
            885.5 k, 0.747% Params, 43.39 MMac, 0.352% MACs, 
            (0): Conv2d(884.74 k, 0.747% Params, 43.35 MMac, 0.352% MACs, 2304, 384, kernel_size=(1, 1), stride=(1, 1), bias=False)
            (1): BatchNorm2d(768, 0.001% Params, 37.63 KMac, 0.000% MACs, 384, eps=0.001, momentum=0.1, affine=True, track_running_stats=True)
          )
        )
        (stochastic_depth): StochasticDepth(p=0.12151898734177217, mode=row)
      )
      (2): MBConv(
        2.24 M, 1.894% Params, 88.77 MMac, 0.721% MACs, 
        (block): Sequential(
          2.24 M, 1.894% Params, 88.77 MMac, 0.721% MACs, 
          (0): Conv2dNormActivation(
            889.34 k, 0.750% Params, 43.58 MMac, 0.354% MACs, 
            (0): Conv2d(884.74 k, 0.747% Params, 43.35 MMac, 0.352% MACs, 384, 2304, kernel_size=(1, 1), stride=(1, 1), bias=False)
            (1): BatchNorm2d(4.61 k, 0.004% Params, 225.79 KMac, 0.002% MACs, 2304, eps=0.001, momentum=0.1, affine=True, track_running_stats=True)
            (2): SiLU(0, 0.000% Params, 0.0 Mac, 0.000% MACs, inplace=True)
          )
          (1): Conv2dNormActivation(
            25.34 k, 0.021% Params, 1.24 MMac, 0.010% MACs, 
            (0): Conv2d(20.74 k, 0.017% Params, 1.02 MMac, 0.008% MACs, 2304, 2304, kernel_size=(3, 3), stride=(1, 1), padding=(1, 1), groups=2304, bias=False)
            (1): BatchNorm2d(4.61 k, 0.004% Params, 225.79 KMac, 0.002% MACs, 2304, eps=0.001, momentum=0.1, affine=True, track_running_stats=True)
            (2): SiLU(0, 0.000% Params, 0.0 Mac, 0.000% MACs, inplace=True)
          )
          (2): SqueezeExcitation(
            444.77 k, 0.375% Params, 557.66 KMac, 0.005% MACs, 
            (avgpool): AdaptiveAvgPool2d(0, 0.000% Params, 112.9 KMac, 0.001% MACs, output_size=1)
            (fc1): Conv2d(221.28 k, 0.187% Params, 221.28 KMac, 0.002% MACs, 2304, 96, kernel_size=(1, 1), stride=(1, 1))
            (fc2): Conv2d(223.49 k, 0.189% Params, 223.49 KMac, 0.002% MACs, 96, 2304, kernel_size=(1, 1), stride=(1, 1))
            (activation): SiLU(0, 0.000% Params, 0.0 Mac, 0.000% MACs, inplace=True)
            (scale_activation): Sigmoid(0, 0.000% Params, 0.0 Mac, 0.000% MACs, )
          )
          (3): Conv2dNormActivation(
            885.5 k, 0.747% Params, 43.39 MMac, 0.352% MACs, 
            (0): Conv2d(884.74 k, 0.747% Params, 43.35 MMac, 0.352% MACs, 2304, 384, kernel_size=(1, 1), stride=(1, 1), bias=False)
            (1): BatchNorm2d(768, 0.001% Params, 37.63 KMac, 0.000% MACs, 384, eps=0.001, momentum=0.1, affine=True, track_running_stats=True)
          )
        )
        (stochastic_depth): StochasticDepth(p=0.12405063291139241, mode=row)
      )
      (3): MBConv(
        2.24 M, 1.894% Params, 88.77 MMac, 0.721% MACs, 
        (block): Sequential(
          2.24 M, 1.894% Params, 88.77 MMac, 0.721% MACs, 
          (0): Conv2dNormActivation(
            889.34 k, 0.750% Params, 43.58 MMac, 0.354% MACs, 
            (0): Conv2d(884.74 k, 0.747% Params, 43.35 MMac, 0.352% MACs, 384, 2304, kernel_size=(1, 1), stride=(1, 1), bias=False)
            (1): BatchNorm2d(4.61 k, 0.004% Params, 225.79 KMac, 0.002% MACs, 2304, eps=0.001, momentum=0.1, affine=True, track_running_stats=True)
            (2): SiLU(0, 0.000% Params, 0.0 Mac, 0.000% MACs, inplace=True)
          )
          (1): Conv2dNormActivation(
            25.34 k, 0.021% Params, 1.24 MMac, 0.010% MACs, 
            (0): Conv2d(20.74 k, 0.017% Params, 1.02 MMac, 0.008% MACs, 2304, 2304, kernel_size=(3, 3), stride=(1, 1), padding=(1, 1), groups=2304, bias=False)
            (1): BatchNorm2d(4.61 k, 0.004% Params, 225.79 KMac, 0.002% MACs, 2304, eps=0.001, momentum=0.1, affine=True, track_running_stats=True)
            (2): SiLU(0, 0.000% Params, 0.0 Mac, 0.000% MACs, inplace=True)
          )
          (2): SqueezeExcitation(
            444.77 k, 0.375% Params, 557.66 KMac, 0.005% MACs, 
            (avgpool): AdaptiveAvgPool2d(0, 0.000% Params, 112.9 KMac, 0.001% MACs, output_size=1)
            (fc1): Conv2d(221.28 k, 0.187% Params, 221.28 KMac, 0.002% MACs, 2304, 96, kernel_size=(1, 1), stride=(1, 1))
            (fc2): Conv2d(223.49 k, 0.189% Params, 223.49 KMac, 0.002% MACs, 96, 2304, kernel_size=(1, 1), stride=(1, 1))
            (activation): SiLU(0, 0.000% Params, 0.0 Mac, 0.000% MACs, inplace=True)
            (scale_activation): Sigmoid(0, 0.000% Params, 0.0 Mac, 0.000% MACs, )
          )
          (3): Conv2dNormActivation(
            885.5 k, 0.747% Params, 43.39 MMac, 0.352% MACs, 
            (0): Conv2d(884.74 k, 0.747% Params, 43.35 MMac, 0.352% MACs, 2304, 384, kernel_size=(1, 1), stride=(1, 1), bias=False)
            (1): BatchNorm2d(768, 0.001% Params, 37.63 KMac, 0.000% MACs, 384, eps=0.001, momentum=0.1, affine=True, track_running_stats=True)
          )
        )
        (stochastic_depth): StochasticDepth(p=0.12658227848101267, mode=row)
      )
      (4): MBConv(
        2.24 M, 1.894% Params, 88.77 MMac, 0.721% MACs, 
        (block): Sequential(
          2.24 M, 1.894% Params, 88.77 MMac, 0.721% MACs, 
          (0): Conv2dNormActivation(
            889.34 k, 0.750% Params, 43.58 MMac, 0.354% MACs, 
            (0): Conv2d(884.74 k, 0.747% Params, 43.35 MMac, 0.352% MACs, 384, 2304, kernel_size=(1, 1), stride=(1, 1), bias=False)
            (1): BatchNorm2d(4.61 k, 0.004% Params, 225.79 KMac, 0.002% MACs, 2304, eps=0.001, momentum=0.1, affine=True, track_running_stats=True)
            (2): SiLU(0, 0.000% Params, 0.0 Mac, 0.000% MACs, inplace=True)
          )
          (1): Conv2dNormActivation(
            25.34 k, 0.021% Params, 1.24 MMac, 0.010% MACs, 
            (0): Conv2d(20.74 k, 0.017% Params, 1.02 MMac, 0.008% MACs, 2304, 2304, kernel_size=(3, 3), stride=(1, 1), padding=(1, 1), groups=2304, bias=False)
            (1): BatchNorm2d(4.61 k, 0.004% Params, 225.79 KMac, 0.002% MACs, 2304, eps=0.001, momentum=0.1, affine=True, track_running_stats=True)
            (2): SiLU(0, 0.000% Params, 0.0 Mac, 0.000% MACs, inplace=True)
          )
          (2): SqueezeExcitation(
            444.77 k, 0.375% Params, 557.66 KMac, 0.005% MACs, 
            (avgpool): AdaptiveAvgPool2d(0, 0.000% Params, 112.9 KMac, 0.001% MACs, output_size=1)
            (fc1): Conv2d(221.28 k, 0.187% Params, 221.28 KMac, 0.002% MACs, 2304, 96, kernel_size=(1, 1), stride=(1, 1))
            (fc2): Conv2d(223.49 k, 0.189% Params, 223.49 KMac, 0.002% MACs, 96, 2304, kernel_size=(1, 1), stride=(1, 1))
            (activation): SiLU(0, 0.000% Params, 0.0 Mac, 0.000% MACs, inplace=True)
            (scale_activation): Sigmoid(0, 0.000% Params, 0.0 Mac, 0.000% MACs, )
          )
          (3): Conv2dNormActivation(
            885.5 k, 0.747% Params, 43.39 MMac, 0.352% MACs, 
            (0): Conv2d(884.74 k, 0.747% Params, 43.35 MMac, 0.352% MACs, 2304, 384, kernel_size=(1, 1), stride=(1, 1), bias=False)
            (1): BatchNorm2d(768, 0.001% Params, 37.63 KMac, 0.000% MACs, 384, eps=0.001, momentum=0.1, affine=True, track_running_stats=True)
          )
        )
        (stochastic_depth): StochasticDepth(p=0.12911392405063293, mode=row)
      )
      (5): MBConv(
        2.24 M, 1.894% Params, 88.77 MMac, 0.721% MACs, 
        (block): Sequential(
          2.24 M, 1.894% Params, 88.77 MMac, 0.721% MACs, 
          (0): Conv2dNormActivation(
            889.34 k, 0.750% Params, 43.58 MMac, 0.354% MACs, 
            (0): Conv2d(884.74 k, 0.747% Params, 43.35 MMac, 0.352% MACs, 384, 2304, kernel_size=(1, 1), stride=(1, 1), bias=False)
            (1): BatchNorm2d(4.61 k, 0.004% Params, 225.79 KMac, 0.002% MACs, 2304, eps=0.001, momentum=0.1, affine=True, track_running_stats=True)
            (2): SiLU(0, 0.000% Params, 0.0 Mac, 0.000% MACs, inplace=True)
          )
          (1): Conv2dNormActivation(
            25.34 k, 0.021% Params, 1.24 MMac, 0.010% MACs, 
            (0): Conv2d(20.74 k, 0.017% Params, 1.02 MMac, 0.008% MACs, 2304, 2304, kernel_size=(3, 3), stride=(1, 1), padding=(1, 1), groups=2304, bias=False)
            (1): BatchNorm2d(4.61 k, 0.004% Params, 225.79 KMac, 0.002% MACs, 2304, eps=0.001, momentum=0.1, affine=True, track_running_stats=True)
            (2): SiLU(0, 0.000% Params, 0.0 Mac, 0.000% MACs, inplace=True)
          )
          (2): SqueezeExcitation(
            444.77 k, 0.375% Params, 557.66 KMac, 0.005% MACs, 
            (avgpool): AdaptiveAvgPool2d(0, 0.000% Params, 112.9 KMac, 0.001% MACs, output_size=1)
            (fc1): Conv2d(221.28 k, 0.187% Params, 221.28 KMac, 0.002% MACs, 2304, 96, kernel_size=(1, 1), stride=(1, 1))
            (fc2): Conv2d(223.49 k, 0.189% Params, 223.49 KMac, 0.002% MACs, 96, 2304, kernel_size=(1, 1), stride=(1, 1))
            (activation): SiLU(0, 0.000% Params, 0.0 Mac, 0.000% MACs, inplace=True)
            (scale_activation): Sigmoid(0, 0.000% Params, 0.0 Mac, 0.000% MACs, )
          )
          (3): Conv2dNormActivation(
            885.5 k, 0.747% Params, 43.39 MMac, 0.352% MACs, 
            (0): Conv2d(884.74 k, 0.747% Params, 43.35 MMac, 0.352% MACs, 2304, 384, kernel_size=(1, 1), stride=(1, 1), bias=False)
            (1): BatchNorm2d(768, 0.001% Params, 37.63 KMac, 0.000% MACs, 384, eps=0.001, momentum=0.1, affine=True, track_running_stats=True)
          )
        )
        (stochastic_depth): StochasticDepth(p=0.13164556962025317, mode=row)
      )
      (6): MBConv(
        2.24 M, 1.894% Params, 88.77 MMac, 0.721% MACs, 
        (block): Sequential(
          2.24 M, 1.894% Params, 88.77 MMac, 0.721% MACs, 
          (0): Conv2dNormActivation(
            889.34 k, 0.750% Params, 43.58 MMac, 0.354% MACs, 
            (0): Conv2d(884.74 k, 0.747% Params, 43.35 MMac, 0.352% MACs, 384, 2304, kernel_size=(1, 1), stride=(1, 1), bias=False)
            (1): BatchNorm2d(4.61 k, 0.004% Params, 225.79 KMac, 0.002% MACs, 2304, eps=0.001, momentum=0.1, affine=True, track_running_stats=True)
            (2): SiLU(0, 0.000% Params, 0.0 Mac, 0.000% MACs, inplace=True)
          )
          (1): Conv2dNormActivation(
            25.34 k, 0.021% Params, 1.24 MMac, 0.010% MACs, 
            (0): Conv2d(20.74 k, 0.017% Params, 1.02 MMac, 0.008% MACs, 2304, 2304, kernel_size=(3, 3), stride=(1, 1), padding=(1, 1), groups=2304, bias=False)
            (1): BatchNorm2d(4.61 k, 0.004% Params, 225.79 KMac, 0.002% MACs, 2304, eps=0.001, momentum=0.1, affine=True, track_running_stats=True)
            (2): SiLU(0, 0.000% Params, 0.0 Mac, 0.000% MACs, inplace=True)
          )
          (2): SqueezeExcitation(
            444.77 k, 0.375% Params, 557.66 KMac, 0.005% MACs, 
            (avgpool): AdaptiveAvgPool2d(0, 0.000% Params, 112.9 KMac, 0.001% MACs, output_size=1)
            (fc1): Conv2d(221.28 k, 0.187% Params, 221.28 KMac, 0.002% MACs, 2304, 96, kernel_size=(1, 1), stride=(1, 1))
            (fc2): Conv2d(223.49 k, 0.189% Params, 223.49 KMac, 0.002% MACs, 96, 2304, kernel_size=(1, 1), stride=(1, 1))
            (activation): SiLU(0, 0.000% Params, 0.0 Mac, 0.000% MACs, inplace=True)
            (scale_activation): Sigmoid(0, 0.000% Params, 0.0 Mac, 0.000% MACs, )
          )
          (3): Conv2dNormActivation(
            885.5 k, 0.747% Params, 43.39 MMac, 0.352% MACs, 
            (0): Conv2d(884.74 k, 0.747% Params, 43.35 MMac, 0.352% MACs, 2304, 384, kernel_size=(1, 1), stride=(1, 1), bias=False)
            (1): BatchNorm2d(768, 0.001% Params, 37.63 KMac, 0.000% MACs, 384, eps=0.001, momentum=0.1, affine=True, track_running_stats=True)
          )
        )
        (stochastic_depth): StochasticDepth(p=0.13417721518987344, mode=row)
      )
      (7): MBConv(
        2.24 M, 1.894% Params, 88.77 MMac, 0.721% MACs, 
        (block): Sequential(
          2.24 M, 1.894% Params, 88.77 MMac, 0.721% MACs, 
          (0): Conv2dNormActivation(
            889.34 k, 0.750% Params, 43.58 MMac, 0.354% MACs, 
            (0): Conv2d(884.74 k, 0.747% Params, 43.35 MMac, 0.352% MACs, 384, 2304, kernel_size=(1, 1), stride=(1, 1), bias=False)
            (1): BatchNorm2d(4.61 k, 0.004% Params, 225.79 KMac, 0.002% MACs, 2304, eps=0.001, momentum=0.1, affine=True, track_running_stats=True)
            (2): SiLU(0, 0.000% Params, 0.0 Mac, 0.000% MACs, inplace=True)
          )
          (1): Conv2dNormActivation(
            25.34 k, 0.021% Params, 1.24 MMac, 0.010% MACs, 
            (0): Conv2d(20.74 k, 0.017% Params, 1.02 MMac, 0.008% MACs, 2304, 2304, kernel_size=(3, 3), stride=(1, 1), padding=(1, 1), groups=2304, bias=False)
            (1): BatchNorm2d(4.61 k, 0.004% Params, 225.79 KMac, 0.002% MACs, 2304, eps=0.001, momentum=0.1, affine=True, track_running_stats=True)
            (2): SiLU(0, 0.000% Params, 0.0 Mac, 0.000% MACs, inplace=True)
          )
          (2): SqueezeExcitation(
            444.77 k, 0.375% Params, 557.66 KMac, 0.005% MACs, 
            (avgpool): AdaptiveAvgPool2d(0, 0.000% Params, 112.9 KMac, 0.001% MACs, output_size=1)
            (fc1): Conv2d(221.28 k, 0.187% Params, 221.28 KMac, 0.002% MACs, 2304, 96, kernel_size=(1, 1), stride=(1, 1))
            (fc2): Conv2d(223.49 k, 0.189% Params, 223.49 KMac, 0.002% MACs, 96, 2304, kernel_size=(1, 1), stride=(1, 1))
            (activation): SiLU(0, 0.000% Params, 0.0 Mac, 0.000% MACs, inplace=True)
            (scale_activation): Sigmoid(0, 0.000% Params, 0.0 Mac, 0.000% MACs, )
          )
          (3): Conv2dNormActivation(
            885.5 k, 0.747% Params, 43.39 MMac, 0.352% MACs, 
            (0): Conv2d(884.74 k, 0.747% Params, 43.35 MMac, 0.352% MACs, 2304, 384, kernel_size=(1, 1), stride=(1, 1), bias=False)
            (1): BatchNorm2d(768, 0.001% Params, 37.63 KMac, 0.000% MACs, 384, eps=0.001, momentum=0.1, affine=True, track_running_stats=True)
          )
        )
        (stochastic_depth): StochasticDepth(p=0.13670886075949368, mode=row)
      )
      (8): MBConv(
        2.24 M, 1.894% Params, 88.77 MMac, 0.721% MACs, 
        (block): Sequential(
          2.24 M, 1.894% Params, 88.77 MMac, 0.721% MACs, 
          (0): Conv2dNormActivation(
            889.34 k, 0.750% Params, 43.58 MMac, 0.354% MACs, 
            (0): Conv2d(884.74 k, 0.747% Params, 43.35 MMac, 0.352% MACs, 384, 2304, kernel_size=(1, 1), stride=(1, 1), bias=False)
            (1): BatchNorm2d(4.61 k, 0.004% Params, 225.79 KMac, 0.002% MACs, 2304, eps=0.001, momentum=0.1, affine=True, track_running_stats=True)
            (2): SiLU(0, 0.000% Params, 0.0 Mac, 0.000% MACs, inplace=True)
          )
          (1): Conv2dNormActivation(
            25.34 k, 0.021% Params, 1.24 MMac, 0.010% MACs, 
            (0): Conv2d(20.74 k, 0.017% Params, 1.02 MMac, 0.008% MACs, 2304, 2304, kernel_size=(3, 3), stride=(1, 1), padding=(1, 1), groups=2304, bias=False)
            (1): BatchNorm2d(4.61 k, 0.004% Params, 225.79 KMac, 0.002% MACs, 2304, eps=0.001, momentum=0.1, affine=True, track_running_stats=True)
            (2): SiLU(0, 0.000% Params, 0.0 Mac, 0.000% MACs, inplace=True)
          )
          (2): SqueezeExcitation(
            444.77 k, 0.375% Params, 557.66 KMac, 0.005% MACs, 
            (avgpool): AdaptiveAvgPool2d(0, 0.000% Params, 112.9 KMac, 0.001% MACs, output_size=1)
            (fc1): Conv2d(221.28 k, 0.187% Params, 221.28 KMac, 0.002% MACs, 2304, 96, kernel_size=(1, 1), stride=(1, 1))
            (fc2): Conv2d(223.49 k, 0.189% Params, 223.49 KMac, 0.002% MACs, 96, 2304, kernel_size=(1, 1), stride=(1, 1))
            (activation): SiLU(0, 0.000% Params, 0.0 Mac, 0.000% MACs, inplace=True)
            (scale_activation): Sigmoid(0, 0.000% Params, 0.0 Mac, 0.000% MACs, )
          )
          (3): Conv2dNormActivation(
            885.5 k, 0.747% Params, 43.39 MMac, 0.352% MACs, 
            (0): Conv2d(884.74 k, 0.747% Params, 43.35 MMac, 0.352% MACs, 2304, 384, kernel_size=(1, 1), stride=(1, 1), bias=False)
            (1): BatchNorm2d(768, 0.001% Params, 37.63 KMac, 0.000% MACs, 384, eps=0.001, momentum=0.1, affine=True, track_running_stats=True)
          )
        )
        (stochastic_depth): StochasticDepth(p=0.13924050632911392, mode=row)
      )
      (9): MBConv(
        2.24 M, 1.894% Params, 88.77 MMac, 0.721% MACs, 
        (block): Sequential(
          2.24 M, 1.894% Params, 88.77 MMac, 0.721% MACs, 
          (0): Conv2dNormActivation(
            889.34 k, 0.750% Params, 43.58 MMac, 0.354% MACs, 
            (0): Conv2d(884.74 k, 0.747% Params, 43.35 MMac, 0.352% MACs, 384, 2304, kernel_size=(1, 1), stride=(1, 1), bias=False)
            (1): BatchNorm2d(4.61 k, 0.004% Params, 225.79 KMac, 0.002% MACs, 2304, eps=0.001, momentum=0.1, affine=True, track_running_stats=True)
            (2): SiLU(0, 0.000% Params, 0.0 Mac, 0.000% MACs, inplace=True)
          )
          (1): Conv2dNormActivation(
            25.34 k, 0.021% Params, 1.24 MMac, 0.010% MACs, 
            (0): Conv2d(20.74 k, 0.017% Params, 1.02 MMac, 0.008% MACs, 2304, 2304, kernel_size=(3, 3), stride=(1, 1), padding=(1, 1), groups=2304, bias=False)
            (1): BatchNorm2d(4.61 k, 0.004% Params, 225.79 KMac, 0.002% MACs, 2304, eps=0.001, momentum=0.1, affine=True, track_running_stats=True)
            (2): SiLU(0, 0.000% Params, 0.0 Mac, 0.000% MACs, inplace=True)
          )
          (2): SqueezeExcitation(
            444.77 k, 0.375% Params, 557.66 KMac, 0.005% MACs, 
            (avgpool): AdaptiveAvgPool2d(0, 0.000% Params, 112.9 KMac, 0.001% MACs, output_size=1)
            (fc1): Conv2d(221.28 k, 0.187% Params, 221.28 KMac, 0.002% MACs, 2304, 96, kernel_size=(1, 1), stride=(1, 1))
            (fc2): Conv2d(223.49 k, 0.189% Params, 223.49 KMac, 0.002% MACs, 96, 2304, kernel_size=(1, 1), stride=(1, 1))
            (activation): SiLU(0, 0.000% Params, 0.0 Mac, 0.000% MACs, inplace=True)
            (scale_activation): Sigmoid(0, 0.000% Params, 0.0 Mac, 0.000% MACs, )
          )
          (3): Conv2dNormActivation(
            885.5 k, 0.747% Params, 43.39 MMac, 0.352% MACs, 
            (0): Conv2d(884.74 k, 0.747% Params, 43.35 MMac, 0.352% MACs, 2304, 384, kernel_size=(1, 1), stride=(1, 1), bias=False)
            (1): BatchNorm2d(768, 0.001% Params, 37.63 KMac, 0.000% MACs, 384, eps=0.001, momentum=0.1, affine=True, track_running_stats=True)
          )
        )
        (stochastic_depth): StochasticDepth(p=0.14177215189873418, mode=row)
      )
      (10): MBConv(
        2.24 M, 1.894% Params, 88.77 MMac, 0.721% MACs, 
        (block): Sequential(
          2.24 M, 1.894% Params, 88.77 MMac, 0.721% MACs, 
          (0): Conv2dNormActivation(
            889.34 k, 0.750% Params, 43.58 MMac, 0.354% MACs, 
            (0): Conv2d(884.74 k, 0.747% Params, 43.35 MMac, 0.352% MACs, 384, 2304, kernel_size=(1, 1), stride=(1, 1), bias=False)
            (1): BatchNorm2d(4.61 k, 0.004% Params, 225.79 KMac, 0.002% MACs, 2304, eps=0.001, momentum=0.1, affine=True, track_running_stats=True)
            (2): SiLU(0, 0.000% Params, 0.0 Mac, 0.000% MACs, inplace=True)
          )
          (1): Conv2dNormActivation(
            25.34 k, 0.021% Params, 1.24 MMac, 0.010% MACs, 
            (0): Conv2d(20.74 k, 0.017% Params, 1.02 MMac, 0.008% MACs, 2304, 2304, kernel_size=(3, 3), stride=(1, 1), padding=(1, 1), groups=2304, bias=False)
            (1): BatchNorm2d(4.61 k, 0.004% Params, 225.79 KMac, 0.002% MACs, 2304, eps=0.001, momentum=0.1, affine=True, track_running_stats=True)
            (2): SiLU(0, 0.000% Params, 0.0 Mac, 0.000% MACs, inplace=True)
          )
          (2): SqueezeExcitation(
            444.77 k, 0.375% Params, 557.66 KMac, 0.005% MACs, 
            (avgpool): AdaptiveAvgPool2d(0, 0.000% Params, 112.9 KMac, 0.001% MACs, output_size=1)
            (fc1): Conv2d(221.28 k, 0.187% Params, 221.28 KMac, 0.002% MACs, 2304, 96, kernel_size=(1, 1), stride=(1, 1))
            (fc2): Conv2d(223.49 k, 0.189% Params, 223.49 KMac, 0.002% MACs, 96, 2304, kernel_size=(1, 1), stride=(1, 1))
            (activation): SiLU(0, 0.000% Params, 0.0 Mac, 0.000% MACs, inplace=True)
            (scale_activation): Sigmoid(0, 0.000% Params, 0.0 Mac, 0.000% MACs, )
          )
          (3): Conv2dNormActivation(
            885.5 k, 0.747% Params, 43.39 MMac, 0.352% MACs, 
            (0): Conv2d(884.74 k, 0.747% Params, 43.35 MMac, 0.352% MACs, 2304, 384, kernel_size=(1, 1), stride=(1, 1), bias=False)
            (1): BatchNorm2d(768, 0.001% Params, 37.63 KMac, 0.000% MACs, 384, eps=0.001, momentum=0.1, affine=True, track_running_stats=True)
          )
        )
        (stochastic_depth): StochasticDepth(p=0.14430379746835442, mode=row)
      )
      (11): MBConv(
        2.24 M, 1.894% Params, 88.77 MMac, 0.721% MACs, 
        (block): Sequential(
          2.24 M, 1.894% Params, 88.77 MMac, 0.721% MACs, 
          (0): Conv2dNormActivation(
            889.34 k, 0.750% Params, 43.58 MMac, 0.354% MACs, 
            (0): Conv2d(884.74 k, 0.747% Params, 43.35 MMac, 0.352% MACs, 384, 2304, kernel_size=(1, 1), stride=(1, 1), bias=False)
            (1): BatchNorm2d(4.61 k, 0.004% Params, 225.79 KMac, 0.002% MACs, 2304, eps=0.001, momentum=0.1, affine=True, track_running_stats=True)
            (2): SiLU(0, 0.000% Params, 0.0 Mac, 0.000% MACs, inplace=True)
          )
          (1): Conv2dNormActivation(
            25.34 k, 0.021% Params, 1.24 MMac, 0.010% MACs, 
            (0): Conv2d(20.74 k, 0.017% Params, 1.02 MMac, 0.008% MACs, 2304, 2304, kernel_size=(3, 3), stride=(1, 1), padding=(1, 1), groups=2304, bias=False)
            (1): BatchNorm2d(4.61 k, 0.004% Params, 225.79 KMac, 0.002% MACs, 2304, eps=0.001, momentum=0.1, affine=True, track_running_stats=True)
            (2): SiLU(0, 0.000% Params, 0.0 Mac, 0.000% MACs, inplace=True)
          )
          (2): SqueezeExcitation(
            444.77 k, 0.375% Params, 557.66 KMac, 0.005% MACs, 
            (avgpool): AdaptiveAvgPool2d(0, 0.000% Params, 112.9 KMac, 0.001% MACs, output_size=1)
            (fc1): Conv2d(221.28 k, 0.187% Params, 221.28 KMac, 0.002% MACs, 2304, 96, kernel_size=(1, 1), stride=(1, 1))
            (fc2): Conv2d(223.49 k, 0.189% Params, 223.49 KMac, 0.002% MACs, 96, 2304, kernel_size=(1, 1), stride=(1, 1))
            (activation): SiLU(0, 0.000% Params, 0.0 Mac, 0.000% MACs, inplace=True)
            (scale_activation): Sigmoid(0, 0.000% Params, 0.0 Mac, 0.000% MACs, )
          )
          (3): Conv2dNormActivation(
            885.5 k, 0.747% Params, 43.39 MMac, 0.352% MACs, 
            (0): Conv2d(884.74 k, 0.747% Params, 43.35 MMac, 0.352% MACs, 2304, 384, kernel_size=(1, 1), stride=(1, 1), bias=False)
            (1): BatchNorm2d(768, 0.001% Params, 37.63 KMac, 0.000% MACs, 384, eps=0.001, momentum=0.1, affine=True, track_running_stats=True)
          )
        )
        (stochastic_depth): StochasticDepth(p=0.1468354430379747, mode=row)
      )
      (12): MBConv(
        2.24 M, 1.894% Params, 88.77 MMac, 0.721% MACs, 
        (block): Sequential(
          2.24 M, 1.894% Params, 88.77 MMac, 0.721% MACs, 
          (0): Conv2dNormActivation(
            889.34 k, 0.750% Params, 43.58 MMac, 0.354% MACs, 
            (0): Conv2d(884.74 k, 0.747% Params, 43.35 MMac, 0.352% MACs, 384, 2304, kernel_size=(1, 1), stride=(1, 1), bias=False)
            (1): BatchNorm2d(4.61 k, 0.004% Params, 225.79 KMac, 0.002% MACs, 2304, eps=0.001, momentum=0.1, affine=True, track_running_stats=True)
            (2): SiLU(0, 0.000% Params, 0.0 Mac, 0.000% MACs, inplace=True)
          )
          (1): Conv2dNormActivation(
            25.34 k, 0.021% Params, 1.24 MMac, 0.010% MACs, 
            (0): Conv2d(20.74 k, 0.017% Params, 1.02 MMac, 0.008% MACs, 2304, 2304, kernel_size=(3, 3), stride=(1, 1), padding=(1, 1), groups=2304, bias=False)
            (1): BatchNorm2d(4.61 k, 0.004% Params, 225.79 KMac, 0.002% MACs, 2304, eps=0.001, momentum=0.1, affine=True, track_running_stats=True)
            (2): SiLU(0, 0.000% Params, 0.0 Mac, 0.000% MACs, inplace=True)
          )
          (2): SqueezeExcitation(
            444.77 k, 0.375% Params, 557.66 KMac, 0.005% MACs, 
            (avgpool): AdaptiveAvgPool2d(0, 0.000% Params, 112.9 KMac, 0.001% MACs, output_size=1)
            (fc1): Conv2d(221.28 k, 0.187% Params, 221.28 KMac, 0.002% MACs, 2304, 96, kernel_size=(1, 1), stride=(1, 1))
            (fc2): Conv2d(223.49 k, 0.189% Params, 223.49 KMac, 0.002% MACs, 96, 2304, kernel_size=(1, 1), stride=(1, 1))
            (activation): SiLU(0, 0.000% Params, 0.0 Mac, 0.000% MACs, inplace=True)
            (scale_activation): Sigmoid(0, 0.000% Params, 0.0 Mac, 0.000% MACs, )
          )
          (3): Conv2dNormActivation(
            885.5 k, 0.747% Params, 43.39 MMac, 0.352% MACs, 
            (0): Conv2d(884.74 k, 0.747% Params, 43.35 MMac, 0.352% MACs, 2304, 384, kernel_size=(1, 1), stride=(1, 1), bias=False)
            (1): BatchNorm2d(768, 0.001% Params, 37.63 KMac, 0.000% MACs, 384, eps=0.001, momentum=0.1, affine=True, track_running_stats=True)
          )
        )
        (stochastic_depth): StochasticDepth(p=0.14936708860759496, mode=row)
      )
      (13): MBConv(
        2.24 M, 1.894% Params, 88.77 MMac, 0.721% MACs, 
        (block): Sequential(
          2.24 M, 1.894% Params, 88.77 MMac, 0.721% MACs, 
          (0): Conv2dNormActivation(
            889.34 k, 0.750% Params, 43.58 MMac, 0.354% MACs, 
            (0): Conv2d(884.74 k, 0.747% Params, 43.35 MMac, 0.352% MACs, 384, 2304, kernel_size=(1, 1), stride=(1, 1), bias=False)
            (1): BatchNorm2d(4.61 k, 0.004% Params, 225.79 KMac, 0.002% MACs, 2304, eps=0.001, momentum=0.1, affine=True, track_running_stats=True)
            (2): SiLU(0, 0.000% Params, 0.0 Mac, 0.000% MACs, inplace=True)
          )
          (1): Conv2dNormActivation(
            25.34 k, 0.021% Params, 1.24 MMac, 0.010% MACs, 
            (0): Conv2d(20.74 k, 0.017% Params, 1.02 MMac, 0.008% MACs, 2304, 2304, kernel_size=(3, 3), stride=(1, 1), padding=(1, 1), groups=2304, bias=False)
            (1): BatchNorm2d(4.61 k, 0.004% Params, 225.79 KMac, 0.002% MACs, 2304, eps=0.001, momentum=0.1, affine=True, track_running_stats=True)
            (2): SiLU(0, 0.000% Params, 0.0 Mac, 0.000% MACs, inplace=True)
          )
          (2): SqueezeExcitation(
            444.77 k, 0.375% Params, 557.66 KMac, 0.005% MACs, 
            (avgpool): AdaptiveAvgPool2d(0, 0.000% Params, 112.9 KMac, 0.001% MACs, output_size=1)
            (fc1): Conv2d(221.28 k, 0.187% Params, 221.28 KMac, 0.002% MACs, 2304, 96, kernel_size=(1, 1), stride=(1, 1))
            (fc2): Conv2d(223.49 k, 0.189% Params, 223.49 KMac, 0.002% MACs, 96, 2304, kernel_size=(1, 1), stride=(1, 1))
            (activation): SiLU(0, 0.000% Params, 0.0 Mac, 0.000% MACs, inplace=True)
            (scale_activation): Sigmoid(0, 0.000% Params, 0.0 Mac, 0.000% MACs, )
          )
          (3): Conv2dNormActivation(
            885.5 k, 0.747% Params, 43.39 MMac, 0.352% MACs, 
            (0): Conv2d(884.74 k, 0.747% Params, 43.35 MMac, 0.352% MACs, 2304, 384, kernel_size=(1, 1), stride=(1, 1), bias=False)
            (1): BatchNorm2d(768, 0.001% Params, 37.63 KMac, 0.000% MACs, 384, eps=0.001, momentum=0.1, affine=True, track_running_stats=True)
          )
        )
        (stochastic_depth): StochasticDepth(p=0.1518987341772152, mode=row)
      )
      (14): MBConv(
        2.24 M, 1.894% Params, 88.77 MMac, 0.721% MACs, 
        (block): Sequential(
          2.24 M, 1.894% Params, 88.77 MMac, 0.721% MACs, 
          (0): Conv2dNormActivation(
            889.34 k, 0.750% Params, 43.58 MMac, 0.354% MACs, 
            (0): Conv2d(884.74 k, 0.747% Params, 43.35 MMac, 0.352% MACs, 384, 2304, kernel_size=(1, 1), stride=(1, 1), bias=False)
            (1): BatchNorm2d(4.61 k, 0.004% Params, 225.79 KMac, 0.002% MACs, 2304, eps=0.001, momentum=0.1, affine=True, track_running_stats=True)
            (2): SiLU(0, 0.000% Params, 0.0 Mac, 0.000% MACs, inplace=True)
          )
          (1): Conv2dNormActivation(
            25.34 k, 0.021% Params, 1.24 MMac, 0.010% MACs, 
            (0): Conv2d(20.74 k, 0.017% Params, 1.02 MMac, 0.008% MACs, 2304, 2304, kernel_size=(3, 3), stride=(1, 1), padding=(1, 1), groups=2304, bias=False)
            (1): BatchNorm2d(4.61 k, 0.004% Params, 225.79 KMac, 0.002% MACs, 2304, eps=0.001, momentum=0.1, affine=True, track_running_stats=True)
            (2): SiLU(0, 0.000% Params, 0.0 Mac, 0.000% MACs, inplace=True)
          )
          (2): SqueezeExcitation(
            444.77 k, 0.375% Params, 557.66 KMac, 0.005% MACs, 
            (avgpool): AdaptiveAvgPool2d(0, 0.000% Params, 112.9 KMac, 0.001% MACs, output_size=1)
            (fc1): Conv2d(221.28 k, 0.187% Params, 221.28 KMac, 0.002% MACs, 2304, 96, kernel_size=(1, 1), stride=(1, 1))
            (fc2): Conv2d(223.49 k, 0.189% Params, 223.49 KMac, 0.002% MACs, 96, 2304, kernel_size=(1, 1), stride=(1, 1))
            (activation): SiLU(0, 0.000% Params, 0.0 Mac, 0.000% MACs, inplace=True)
            (scale_activation): Sigmoid(0, 0.000% Params, 0.0 Mac, 0.000% MACs, )
          )
          (3): Conv2dNormActivation(
            885.5 k, 0.747% Params, 43.39 MMac, 0.352% MACs, 
            (0): Conv2d(884.74 k, 0.747% Params, 43.35 MMac, 0.352% MACs, 2304, 384, kernel_size=(1, 1), stride=(1, 1), bias=False)
            (1): BatchNorm2d(768, 0.001% Params, 37.63 KMac, 0.000% MACs, 384, eps=0.001, momentum=0.1, affine=True, track_running_stats=True)
          )
        )
        (stochastic_depth): StochasticDepth(p=0.15443037974683546, mode=row)
      )
      (15): MBConv(
        2.24 M, 1.894% Params, 88.77 MMac, 0.721% MACs, 
        (block): Sequential(
          2.24 M, 1.894% Params, 88.77 MMac, 0.721% MACs, 
          (0): Conv2dNormActivation(
            889.34 k, 0.750% Params, 43.58 MMac, 0.354% MACs, 
            (0): Conv2d(884.74 k, 0.747% Params, 43.35 MMac, 0.352% MACs, 384, 2304, kernel_size=(1, 1), stride=(1, 1), bias=False)
            (1): BatchNorm2d(4.61 k, 0.004% Params, 225.79 KMac, 0.002% MACs, 2304, eps=0.001, momentum=0.1, affine=True, track_running_stats=True)
            (2): SiLU(0, 0.000% Params, 0.0 Mac, 0.000% MACs, inplace=True)
          )
          (1): Conv2dNormActivation(
            25.34 k, 0.021% Params, 1.24 MMac, 0.010% MACs, 
            (0): Conv2d(20.74 k, 0.017% Params, 1.02 MMac, 0.008% MACs, 2304, 2304, kernel_size=(3, 3), stride=(1, 1), padding=(1, 1), groups=2304, bias=False)
            (1): BatchNorm2d(4.61 k, 0.004% Params, 225.79 KMac, 0.002% MACs, 2304, eps=0.001, momentum=0.1, affine=True, track_running_stats=True)
            (2): SiLU(0, 0.000% Params, 0.0 Mac, 0.000% MACs, inplace=True)
          )
          (2): SqueezeExcitation(
            444.77 k, 0.375% Params, 557.66 KMac, 0.005% MACs, 
            (avgpool): AdaptiveAvgPool2d(0, 0.000% Params, 112.9 KMac, 0.001% MACs, output_size=1)
            (fc1): Conv2d(221.28 k, 0.187% Params, 221.28 KMac, 0.002% MACs, 2304, 96, kernel_size=(1, 1), stride=(1, 1))
            (fc2): Conv2d(223.49 k, 0.189% Params, 223.49 KMac, 0.002% MACs, 96, 2304, kernel_size=(1, 1), stride=(1, 1))
            (activation): SiLU(0, 0.000% Params, 0.0 Mac, 0.000% MACs, inplace=True)
            (scale_activation): Sigmoid(0, 0.000% Params, 0.0 Mac, 0.000% MACs, )
          )
          (3): Conv2dNormActivation(
            885.5 k, 0.747% Params, 43.39 MMac, 0.352% MACs, 
            (0): Conv2d(884.74 k, 0.747% Params, 43.35 MMac, 0.352% MACs, 2304, 384, kernel_size=(1, 1), stride=(1, 1), bias=False)
            (1): BatchNorm2d(768, 0.001% Params, 37.63 KMac, 0.000% MACs, 384, eps=0.001, momentum=0.1, affine=True, track_running_stats=True)
          )
        )
        (stochastic_depth): StochasticDepth(p=0.1569620253164557, mode=row)
      )
      (16): MBConv(
        2.24 M, 1.894% Params, 88.77 MMac, 0.721% MACs, 
        (block): Sequential(
          2.24 M, 1.894% Params, 88.77 MMac, 0.721% MACs, 
          (0): Conv2dNormActivation(
            889.34 k, 0.750% Params, 43.58 MMac, 0.354% MACs, 
            (0): Conv2d(884.74 k, 0.747% Params, 43.35 MMac, 0.352% MACs, 384, 2304, kernel_size=(1, 1), stride=(1, 1), bias=False)
            (1): BatchNorm2d(4.61 k, 0.004% Params, 225.79 KMac, 0.002% MACs, 2304, eps=0.001, momentum=0.1, affine=True, track_running_stats=True)
            (2): SiLU(0, 0.000% Params, 0.0 Mac, 0.000% MACs, inplace=True)
          )
          (1): Conv2dNormActivation(
            25.34 k, 0.021% Params, 1.24 MMac, 0.010% MACs, 
            (0): Conv2d(20.74 k, 0.017% Params, 1.02 MMac, 0.008% MACs, 2304, 2304, kernel_size=(3, 3), stride=(1, 1), padding=(1, 1), groups=2304, bias=False)
            (1): BatchNorm2d(4.61 k, 0.004% Params, 225.79 KMac, 0.002% MACs, 2304, eps=0.001, momentum=0.1, affine=True, track_running_stats=True)
            (2): SiLU(0, 0.000% Params, 0.0 Mac, 0.000% MACs, inplace=True)
          )
          (2): SqueezeExcitation(
            444.77 k, 0.375% Params, 557.66 KMac, 0.005% MACs, 
            (avgpool): AdaptiveAvgPool2d(0, 0.000% Params, 112.9 KMac, 0.001% MACs, output_size=1)
            (fc1): Conv2d(221.28 k, 0.187% Params, 221.28 KMac, 0.002% MACs, 2304, 96, kernel_size=(1, 1), stride=(1, 1))
            (fc2): Conv2d(223.49 k, 0.189% Params, 223.49 KMac, 0.002% MACs, 96, 2304, kernel_size=(1, 1), stride=(1, 1))
            (activation): SiLU(0, 0.000% Params, 0.0 Mac, 0.000% MACs, inplace=True)
            (scale_activation): Sigmoid(0, 0.000% Params, 0.0 Mac, 0.000% MACs, )
          )
          (3): Conv2dNormActivation(
            885.5 k, 0.747% Params, 43.39 MMac, 0.352% MACs, 
            (0): Conv2d(884.74 k, 0.747% Params, 43.35 MMac, 0.352% MACs, 2304, 384, kernel_size=(1, 1), stride=(1, 1), bias=False)
            (1): BatchNorm2d(768, 0.001% Params, 37.63 KMac, 0.000% MACs, 384, eps=0.001, momentum=0.1, affine=True, track_running_stats=True)
          )
        )
        (stochastic_depth): StochasticDepth(p=0.15949367088607597, mode=row)
      )
      (17): MBConv(
        2.24 M, 1.894% Params, 88.77 MMac, 0.721% MACs, 
        (block): Sequential(
          2.24 M, 1.894% Params, 88.77 MMac, 0.721% MACs, 
          (0): Conv2dNormActivation(
            889.34 k, 0.750% Params, 43.58 MMac, 0.354% MACs, 
            (0): Conv2d(884.74 k, 0.747% Params, 43.35 MMac, 0.352% MACs, 384, 2304, kernel_size=(1, 1), stride=(1, 1), bias=False)
            (1): BatchNorm2d(4.61 k, 0.004% Params, 225.79 KMac, 0.002% MACs, 2304, eps=0.001, momentum=0.1, affine=True, track_running_stats=True)
            (2): SiLU(0, 0.000% Params, 0.0 Mac, 0.000% MACs, inplace=True)
          )
          (1): Conv2dNormActivation(
            25.34 k, 0.021% Params, 1.24 MMac, 0.010% MACs, 
            (0): Conv2d(20.74 k, 0.017% Params, 1.02 MMac, 0.008% MACs, 2304, 2304, kernel_size=(3, 3), stride=(1, 1), padding=(1, 1), groups=2304, bias=False)
            (1): BatchNorm2d(4.61 k, 0.004% Params, 225.79 KMac, 0.002% MACs, 2304, eps=0.001, momentum=0.1, affine=True, track_running_stats=True)
            (2): SiLU(0, 0.000% Params, 0.0 Mac, 0.000% MACs, inplace=True)
          )
          (2): SqueezeExcitation(
            444.77 k, 0.375% Params, 557.66 KMac, 0.005% MACs, 
            (avgpool): AdaptiveAvgPool2d(0, 0.000% Params, 112.9 KMac, 0.001% MACs, output_size=1)
            (fc1): Conv2d(221.28 k, 0.187% Params, 221.28 KMac, 0.002% MACs, 2304, 96, kernel_size=(1, 1), stride=(1, 1))
            (fc2): Conv2d(223.49 k, 0.189% Params, 223.49 KMac, 0.002% MACs, 96, 2304, kernel_size=(1, 1), stride=(1, 1))
            (activation): SiLU(0, 0.000% Params, 0.0 Mac, 0.000% MACs, inplace=True)
            (scale_activation): Sigmoid(0, 0.000% Params, 0.0 Mac, 0.000% MACs, )
          )
          (3): Conv2dNormActivation(
            885.5 k, 0.747% Params, 43.39 MMac, 0.352% MACs, 
            (0): Conv2d(884.74 k, 0.747% Params, 43.35 MMac, 0.352% MACs, 2304, 384, kernel_size=(1, 1), stride=(1, 1), bias=False)
            (1): BatchNorm2d(768, 0.001% Params, 37.63 KMac, 0.000% MACs, 384, eps=0.001, momentum=0.1, affine=True, track_running_stats=True)
          )
        )
        (stochastic_depth): StochasticDepth(p=0.1620253164556962, mode=row)
      )
      (18): MBConv(
        2.24 M, 1.894% Params, 88.77 MMac, 0.721% MACs, 
        (block): Sequential(
          2.24 M, 1.894% Params, 88.77 MMac, 0.721% MACs, 
          (0): Conv2dNormActivation(
            889.34 k, 0.750% Params, 43.58 MMac, 0.354% MACs, 
            (0): Conv2d(884.74 k, 0.747% Params, 43.35 MMac, 0.352% MACs, 384, 2304, kernel_size=(1, 1), stride=(1, 1), bias=False)
            (1): BatchNorm2d(4.61 k, 0.004% Params, 225.79 KMac, 0.002% MACs, 2304, eps=0.001, momentum=0.1, affine=True, track_running_stats=True)
            (2): SiLU(0, 0.000% Params, 0.0 Mac, 0.000% MACs, inplace=True)
          )
          (1): Conv2dNormActivation(
            25.34 k, 0.021% Params, 1.24 MMac, 0.010% MACs, 
            (0): Conv2d(20.74 k, 0.017% Params, 1.02 MMac, 0.008% MACs, 2304, 2304, kernel_size=(3, 3), stride=(1, 1), padding=(1, 1), groups=2304, bias=False)
            (1): BatchNorm2d(4.61 k, 0.004% Params, 225.79 KMac, 0.002% MACs, 2304, eps=0.001, momentum=0.1, affine=True, track_running_stats=True)
            (2): SiLU(0, 0.000% Params, 0.0 Mac, 0.000% MACs, inplace=True)
          )
          (2): SqueezeExcitation(
            444.77 k, 0.375% Params, 557.66 KMac, 0.005% MACs, 
            (avgpool): AdaptiveAvgPool2d(0, 0.000% Params, 112.9 KMac, 0.001% MACs, output_size=1)
            (fc1): Conv2d(221.28 k, 0.187% Params, 221.28 KMac, 0.002% MACs, 2304, 96, kernel_size=(1, 1), stride=(1, 1))
            (fc2): Conv2d(223.49 k, 0.189% Params, 223.49 KMac, 0.002% MACs, 96, 2304, kernel_size=(1, 1), stride=(1, 1))
            (activation): SiLU(0, 0.000% Params, 0.0 Mac, 0.000% MACs, inplace=True)
            (scale_activation): Sigmoid(0, 0.000% Params, 0.0 Mac, 0.000% MACs, )
          )
          (3): Conv2dNormActivation(
            885.5 k, 0.747% Params, 43.39 MMac, 0.352% MACs, 
            (0): Conv2d(884.74 k, 0.747% Params, 43.35 MMac, 0.352% MACs, 2304, 384, kernel_size=(1, 1), stride=(1, 1), bias=False)
            (1): BatchNorm2d(768, 0.001% Params, 37.63 KMac, 0.000% MACs, 384, eps=0.001, momentum=0.1, affine=True, track_running_stats=True)
          )
        )
        (stochastic_depth): StochasticDepth(p=0.16455696202531644, mode=row)
      )
      (19): MBConv(
        2.24 M, 1.894% Params, 88.77 MMac, 0.721% MACs, 
        (block): Sequential(
          2.24 M, 1.894% Params, 88.77 MMac, 0.721% MACs, 
          (0): Conv2dNormActivation(
            889.34 k, 0.750% Params, 43.58 MMac, 0.354% MACs, 
            (0): Conv2d(884.74 k, 0.747% Params, 43.35 MMac, 0.352% MACs, 384, 2304, kernel_size=(1, 1), stride=(1, 1), bias=False)
            (1): BatchNorm2d(4.61 k, 0.004% Params, 225.79 KMac, 0.002% MACs, 2304, eps=0.001, momentum=0.1, affine=True, track_running_stats=True)
            (2): SiLU(0, 0.000% Params, 0.0 Mac, 0.000% MACs, inplace=True)
          )
          (1): Conv2dNormActivation(
            25.34 k, 0.021% Params, 1.24 MMac, 0.010% MACs, 
            (0): Conv2d(20.74 k, 0.017% Params, 1.02 MMac, 0.008% MACs, 2304, 2304, kernel_size=(3, 3), stride=(1, 1), padding=(1, 1), groups=2304, bias=False)
            (1): BatchNorm2d(4.61 k, 0.004% Params, 225.79 KMac, 0.002% MACs, 2304, eps=0.001, momentum=0.1, affine=True, track_running_stats=True)
            (2): SiLU(0, 0.000% Params, 0.0 Mac, 0.000% MACs, inplace=True)
          )
          (2): SqueezeExcitation(
            444.77 k, 0.375% Params, 557.66 KMac, 0.005% MACs, 
            (avgpool): AdaptiveAvgPool2d(0, 0.000% Params, 112.9 KMac, 0.001% MACs, output_size=1)
            (fc1): Conv2d(221.28 k, 0.187% Params, 221.28 KMac, 0.002% MACs, 2304, 96, kernel_size=(1, 1), stride=(1, 1))
            (fc2): Conv2d(223.49 k, 0.189% Params, 223.49 KMac, 0.002% MACs, 96, 2304, kernel_size=(1, 1), stride=(1, 1))
            (activation): SiLU(0, 0.000% Params, 0.0 Mac, 0.000% MACs, inplace=True)
            (scale_activation): Sigmoid(0, 0.000% Params, 0.0 Mac, 0.000% MACs, )
          )
          (3): Conv2dNormActivation(
            885.5 k, 0.747% Params, 43.39 MMac, 0.352% MACs, 
            (0): Conv2d(884.74 k, 0.747% Params, 43.35 MMac, 0.352% MACs, 2304, 384, kernel_size=(1, 1), stride=(1, 1), bias=False)
            (1): BatchNorm2d(768, 0.001% Params, 37.63 KMac, 0.000% MACs, 384, eps=0.001, momentum=0.1, affine=True, track_running_stats=True)
          )
        )
        (stochastic_depth): StochasticDepth(p=0.1670886075949367, mode=row)
      )
      (20): MBConv(
        2.24 M, 1.894% Params, 88.77 MMac, 0.721% MACs, 
        (block): Sequential(
          2.24 M, 1.894% Params, 88.77 MMac, 0.721% MACs, 
          (0): Conv2dNormActivation(
            889.34 k, 0.750% Params, 43.58 MMac, 0.354% MACs, 
            (0): Conv2d(884.74 k, 0.747% Params, 43.35 MMac, 0.352% MACs, 384, 2304, kernel_size=(1, 1), stride=(1, 1), bias=False)
            (1): BatchNorm2d(4.61 k, 0.004% Params, 225.79 KMac, 0.002% MACs, 2304, eps=0.001, momentum=0.1, affine=True, track_running_stats=True)
            (2): SiLU(0, 0.000% Params, 0.0 Mac, 0.000% MACs, inplace=True)
          )
          (1): Conv2dNormActivation(
            25.34 k, 0.021% Params, 1.24 MMac, 0.010% MACs, 
            (0): Conv2d(20.74 k, 0.017% Params, 1.02 MMac, 0.008% MACs, 2304, 2304, kernel_size=(3, 3), stride=(1, 1), padding=(1, 1), groups=2304, bias=False)
            (1): BatchNorm2d(4.61 k, 0.004% Params, 225.79 KMac, 0.002% MACs, 2304, eps=0.001, momentum=0.1, affine=True, track_running_stats=True)
            (2): SiLU(0, 0.000% Params, 0.0 Mac, 0.000% MACs, inplace=True)
          )
          (2): SqueezeExcitation(
            444.77 k, 0.375% Params, 557.66 KMac, 0.005% MACs, 
            (avgpool): AdaptiveAvgPool2d(0, 0.000% Params, 112.9 KMac, 0.001% MACs, output_size=1)
            (fc1): Conv2d(221.28 k, 0.187% Params, 221.28 KMac, 0.002% MACs, 2304, 96, kernel_size=(1, 1), stride=(1, 1))
            (fc2): Conv2d(223.49 k, 0.189% Params, 223.49 KMac, 0.002% MACs, 96, 2304, kernel_size=(1, 1), stride=(1, 1))
            (activation): SiLU(0, 0.000% Params, 0.0 Mac, 0.000% MACs, inplace=True)
            (scale_activation): Sigmoid(0, 0.000% Params, 0.0 Mac, 0.000% MACs, )
          )
          (3): Conv2dNormActivation(
            885.5 k, 0.747% Params, 43.39 MMac, 0.352% MACs, 
            (0): Conv2d(884.74 k, 0.747% Params, 43.35 MMac, 0.352% MACs, 2304, 384, kernel_size=(1, 1), stride=(1, 1), bias=False)
            (1): BatchNorm2d(768, 0.001% Params, 37.63 KMac, 0.000% MACs, 384, eps=0.001, momentum=0.1, affine=True, track_running_stats=True)
          )
        )
        (stochastic_depth): StochasticDepth(p=0.16962025316455698, mode=row)
      )
      (21): MBConv(
        2.24 M, 1.894% Params, 88.77 MMac, 0.721% MACs, 
        (block): Sequential(
          2.24 M, 1.894% Params, 88.77 MMac, 0.721% MACs, 
          (0): Conv2dNormActivation(
            889.34 k, 0.750% Params, 43.58 MMac, 0.354% MACs, 
            (0): Conv2d(884.74 k, 0.747% Params, 43.35 MMac, 0.352% MACs, 384, 2304, kernel_size=(1, 1), stride=(1, 1), bias=False)
            (1): BatchNorm2d(4.61 k, 0.004% Params, 225.79 KMac, 0.002% MACs, 2304, eps=0.001, momentum=0.1, affine=True, track_running_stats=True)
            (2): SiLU(0, 0.000% Params, 0.0 Mac, 0.000% MACs, inplace=True)
          )
          (1): Conv2dNormActivation(
            25.34 k, 0.021% Params, 1.24 MMac, 0.010% MACs, 
            (0): Conv2d(20.74 k, 0.017% Params, 1.02 MMac, 0.008% MACs, 2304, 2304, kernel_size=(3, 3), stride=(1, 1), padding=(1, 1), groups=2304, bias=False)
            (1): BatchNorm2d(4.61 k, 0.004% Params, 225.79 KMac, 0.002% MACs, 2304, eps=0.001, momentum=0.1, affine=True, track_running_stats=True)
            (2): SiLU(0, 0.000% Params, 0.0 Mac, 0.000% MACs, inplace=True)
          )
          (2): SqueezeExcitation(
            444.77 k, 0.375% Params, 557.66 KMac, 0.005% MACs, 
            (avgpool): AdaptiveAvgPool2d(0, 0.000% Params, 112.9 KMac, 0.001% MACs, output_size=1)
            (fc1): Conv2d(221.28 k, 0.187% Params, 221.28 KMac, 0.002% MACs, 2304, 96, kernel_size=(1, 1), stride=(1, 1))
            (fc2): Conv2d(223.49 k, 0.189% Params, 223.49 KMac, 0.002% MACs, 96, 2304, kernel_size=(1, 1), stride=(1, 1))
            (activation): SiLU(0, 0.000% Params, 0.0 Mac, 0.000% MACs, inplace=True)
            (scale_activation): Sigmoid(0, 0.000% Params, 0.0 Mac, 0.000% MACs, )
          )
          (3): Conv2dNormActivation(
            885.5 k, 0.747% Params, 43.39 MMac, 0.352% MACs, 
            (0): Conv2d(884.74 k, 0.747% Params, 43.35 MMac, 0.352% MACs, 2304, 384, kernel_size=(1, 1), stride=(1, 1), bias=False)
            (1): BatchNorm2d(768, 0.001% Params, 37.63 KMac, 0.000% MACs, 384, eps=0.001, momentum=0.1, affine=True, track_running_stats=True)
          )
        )
        (stochastic_depth): StochasticDepth(p=0.17215189873417724, mode=row)
      )
      (22): MBConv(
        2.24 M, 1.894% Params, 88.77 MMac, 0.721% MACs, 
        (block): Sequential(
          2.24 M, 1.894% Params, 88.77 MMac, 0.721% MACs, 
          (0): Conv2dNormActivation(
            889.34 k, 0.750% Params, 43.58 MMac, 0.354% MACs, 
            (0): Conv2d(884.74 k, 0.747% Params, 43.35 MMac, 0.352% MACs, 384, 2304, kernel_size=(1, 1), stride=(1, 1), bias=False)
            (1): BatchNorm2d(4.61 k, 0.004% Params, 225.79 KMac, 0.002% MACs, 2304, eps=0.001, momentum=0.1, affine=True, track_running_stats=True)
            (2): SiLU(0, 0.000% Params, 0.0 Mac, 0.000% MACs, inplace=True)
          )
          (1): Conv2dNormActivation(
            25.34 k, 0.021% Params, 1.24 MMac, 0.010% MACs, 
            (0): Conv2d(20.74 k, 0.017% Params, 1.02 MMac, 0.008% MACs, 2304, 2304, kernel_size=(3, 3), stride=(1, 1), padding=(1, 1), groups=2304, bias=False)
            (1): BatchNorm2d(4.61 k, 0.004% Params, 225.79 KMac, 0.002% MACs, 2304, eps=0.001, momentum=0.1, affine=True, track_running_stats=True)
            (2): SiLU(0, 0.000% Params, 0.0 Mac, 0.000% MACs, inplace=True)
          )
          (2): SqueezeExcitation(
            444.77 k, 0.375% Params, 557.66 KMac, 0.005% MACs, 
            (avgpool): AdaptiveAvgPool2d(0, 0.000% Params, 112.9 KMac, 0.001% MACs, output_size=1)
            (fc1): Conv2d(221.28 k, 0.187% Params, 221.28 KMac, 0.002% MACs, 2304, 96, kernel_size=(1, 1), stride=(1, 1))
            (fc2): Conv2d(223.49 k, 0.189% Params, 223.49 KMac, 0.002% MACs, 96, 2304, kernel_size=(1, 1), stride=(1, 1))
            (activation): SiLU(0, 0.000% Params, 0.0 Mac, 0.000% MACs, inplace=True)
            (scale_activation): Sigmoid(0, 0.000% Params, 0.0 Mac, 0.000% MACs, )
          )
          (3): Conv2dNormActivation(
            885.5 k, 0.747% Params, 43.39 MMac, 0.352% MACs, 
            (0): Conv2d(884.74 k, 0.747% Params, 43.35 MMac, 0.352% MACs, 2304, 384, kernel_size=(1, 1), stride=(1, 1), bias=False)
            (1): BatchNorm2d(768, 0.001% Params, 37.63 KMac, 0.000% MACs, 384, eps=0.001, momentum=0.1, affine=True, track_running_stats=True)
          )
        )
        (stochastic_depth): StochasticDepth(p=0.17468354430379748, mode=row)
      )
      (23): MBConv(
        2.24 M, 1.894% Params, 88.77 MMac, 0.721% MACs, 
        (block): Sequential(
          2.24 M, 1.894% Params, 88.77 MMac, 0.721% MACs, 
          (0): Conv2dNormActivation(
            889.34 k, 0.750% Params, 43.58 MMac, 0.354% MACs, 
            (0): Conv2d(884.74 k, 0.747% Params, 43.35 MMac, 0.352% MACs, 384, 2304, kernel_size=(1, 1), stride=(1, 1), bias=False)
            (1): BatchNorm2d(4.61 k, 0.004% Params, 225.79 KMac, 0.002% MACs, 2304, eps=0.001, momentum=0.1, affine=True, track_running_stats=True)
            (2): SiLU(0, 0.000% Params, 0.0 Mac, 0.000% MACs, inplace=True)
          )
          (1): Conv2dNormActivation(
            25.34 k, 0.021% Params, 1.24 MMac, 0.010% MACs, 
            (0): Conv2d(20.74 k, 0.017% Params, 1.02 MMac, 0.008% MACs, 2304, 2304, kernel_size=(3, 3), stride=(1, 1), padding=(1, 1), groups=2304, bias=False)
            (1): BatchNorm2d(4.61 k, 0.004% Params, 225.79 KMac, 0.002% MACs, 2304, eps=0.001, momentum=0.1, affine=True, track_running_stats=True)
            (2): SiLU(0, 0.000% Params, 0.0 Mac, 0.000% MACs, inplace=True)
          )
          (2): SqueezeExcitation(
            444.77 k, 0.375% Params, 557.66 KMac, 0.005% MACs, 
            (avgpool): AdaptiveAvgPool2d(0, 0.000% Params, 112.9 KMac, 0.001% MACs, output_size=1)
            (fc1): Conv2d(221.28 k, 0.187% Params, 221.28 KMac, 0.002% MACs, 2304, 96, kernel_size=(1, 1), stride=(1, 1))
            (fc2): Conv2d(223.49 k, 0.189% Params, 223.49 KMac, 0.002% MACs, 96, 2304, kernel_size=(1, 1), stride=(1, 1))
            (activation): SiLU(0, 0.000% Params, 0.0 Mac, 0.000% MACs, inplace=True)
            (scale_activation): Sigmoid(0, 0.000% Params, 0.0 Mac, 0.000% MACs, )
          )
          (3): Conv2dNormActivation(
            885.5 k, 0.747% Params, 43.39 MMac, 0.352% MACs, 
            (0): Conv2d(884.74 k, 0.747% Params, 43.35 MMac, 0.352% MACs, 2304, 384, kernel_size=(1, 1), stride=(1, 1), bias=False)
            (1): BatchNorm2d(768, 0.001% Params, 37.63 KMac, 0.000% MACs, 384, eps=0.001, momentum=0.1, affine=True, track_running_stats=True)
          )
        )
        (stochastic_depth): StochasticDepth(p=0.17721518987341772, mode=row)
      )
      (24): MBConv(
        2.24 M, 1.894% Params, 88.77 MMac, 0.721% MACs, 
        (block): Sequential(
          2.24 M, 1.894% Params, 88.77 MMac, 0.721% MACs, 
          (0): Conv2dNormActivation(
            889.34 k, 0.750% Params, 43.58 MMac, 0.354% MACs, 
            (0): Conv2d(884.74 k, 0.747% Params, 43.35 MMac, 0.352% MACs, 384, 2304, kernel_size=(1, 1), stride=(1, 1), bias=False)
            (1): BatchNorm2d(4.61 k, 0.004% Params, 225.79 KMac, 0.002% MACs, 2304, eps=0.001, momentum=0.1, affine=True, track_running_stats=True)
            (2): SiLU(0, 0.000% Params, 0.0 Mac, 0.000% MACs, inplace=True)
          )
          (1): Conv2dNormActivation(
            25.34 k, 0.021% Params, 1.24 MMac, 0.010% MACs, 
            (0): Conv2d(20.74 k, 0.017% Params, 1.02 MMac, 0.008% MACs, 2304, 2304, kernel_size=(3, 3), stride=(1, 1), padding=(1, 1), groups=2304, bias=False)
            (1): BatchNorm2d(4.61 k, 0.004% Params, 225.79 KMac, 0.002% MACs, 2304, eps=0.001, momentum=0.1, affine=True, track_running_stats=True)
            (2): SiLU(0, 0.000% Params, 0.0 Mac, 0.000% MACs, inplace=True)
          )
          (2): SqueezeExcitation(
            444.77 k, 0.375% Params, 557.66 KMac, 0.005% MACs, 
            (avgpool): AdaptiveAvgPool2d(0, 0.000% Params, 112.9 KMac, 0.001% MACs, output_size=1)
            (fc1): Conv2d(221.28 k, 0.187% Params, 221.28 KMac, 0.002% MACs, 2304, 96, kernel_size=(1, 1), stride=(1, 1))
            (fc2): Conv2d(223.49 k, 0.189% Params, 223.49 KMac, 0.002% MACs, 96, 2304, kernel_size=(1, 1), stride=(1, 1))
            (activation): SiLU(0, 0.000% Params, 0.0 Mac, 0.000% MACs, inplace=True)
            (scale_activation): Sigmoid(0, 0.000% Params, 0.0 Mac, 0.000% MACs, )
          )
          (3): Conv2dNormActivation(
            885.5 k, 0.747% Params, 43.39 MMac, 0.352% MACs, 
            (0): Conv2d(884.74 k, 0.747% Params, 43.35 MMac, 0.352% MACs, 2304, 384, kernel_size=(1, 1), stride=(1, 1), bias=False)
            (1): BatchNorm2d(768, 0.001% Params, 37.63 KMac, 0.000% MACs, 384, eps=0.001, momentum=0.1, affine=True, track_running_stats=True)
          )
        )
        (stochastic_depth): StochasticDepth(p=0.179746835443038, mode=row)
      )
    )
    (7): Sequential(
      40.03 M, 33.777% Params, 1.59 GMac, 12.886% MACs, 
      (0): MBConv(
        2.84 M, 2.392% Params, 117.69 MMac, 0.956% MACs, 
        (block): Sequential(
          2.84 M, 2.392% Params, 117.69 MMac, 0.956% MACs, 
          (0): Conv2dNormActivation(
            889.34 k, 0.750% Params, 43.58 MMac, 0.354% MACs, 
            (0): Conv2d(884.74 k, 0.747% Params, 43.35 MMac, 0.352% MACs, 384, 2304, kernel_size=(1, 1), stride=(1, 1), bias=False)
            (1): BatchNorm2d(4.61 k, 0.004% Params, 225.79 KMac, 0.002% MACs, 2304, eps=0.001, momentum=0.1, affine=True, track_running_stats=True)
            (2): SiLU(0, 0.000% Params, 0.0 Mac, 0.000% MACs, inplace=True)
          )
          (1): Conv2dNormActivation(
            25.34 k, 0.021% Params, 1.24 MMac, 0.010% MACs, 
            (0): Conv2d(20.74 k, 0.017% Params, 1.02 MMac, 0.008% MACs, 2304, 2304, kernel_size=(3, 3), stride=(1, 1), padding=(1, 1), groups=2304, bias=False)
            (1): BatchNorm2d(4.61 k, 0.004% Params, 225.79 KMac, 0.002% MACs, 2304, eps=0.001, momentum=0.1, affine=True, track_running_stats=True)
            (2): SiLU(0, 0.000% Params, 0.0 Mac, 0.000% MACs, inplace=True)
          )
          (2): SqueezeExcitation(
            444.77 k, 0.375% Params, 557.66 KMac, 0.005% MACs, 
            (avgpool): AdaptiveAvgPool2d(0, 0.000% Params, 112.9 KMac, 0.001% MACs, output_size=1)
            (fc1): Conv2d(221.28 k, 0.187% Params, 221.28 KMac, 0.002% MACs, 2304, 96, kernel_size=(1, 1), stride=(1, 1))
            (fc2): Conv2d(223.49 k, 0.189% Params, 223.49 KMac, 0.002% MACs, 96, 2304, kernel_size=(1, 1), stride=(1, 1))
            (activation): SiLU(0, 0.000% Params, 0.0 Mac, 0.000% MACs, inplace=True)
            (scale_activation): Sigmoid(0, 0.000% Params, 0.0 Mac, 0.000% MACs, )
          )
          (3): Conv2dNormActivation(
            1.48 M, 1.245% Params, 72.32 MMac, 0.587% MACs, 
            (0): Conv2d(1.47 M, 1.244% Params, 72.25 MMac, 0.587% MACs, 2304, 640, kernel_size=(1, 1), stride=(1, 1), bias=False)
            (1): BatchNorm2d(1.28 k, 0.001% Params, 62.72 KMac, 0.001% MACs, 640, eps=0.001, momentum=0.1, affine=True, track_running_stats=True)
          )
        )
        (stochastic_depth): StochasticDepth(p=0.18227848101265823, mode=row)
      )
      (1): MBConv(
        6.2 M, 5.231% Params, 244.77 MMac, 1.988% MACs, 
        (block): Sequential(
          6.2 M, 5.231% Params, 244.77 MMac, 1.988% MACs, 
          (0): Conv2dNormActivation(
            2.47 M, 2.080% Params, 120.8 MMac, 0.981% MACs, 
            (0): Conv2d(2.46 M, 2.074% Params, 120.42 MMac, 0.978% MACs, 640, 3840, kernel_size=(1, 1), stride=(1, 1), bias=False)
            (1): BatchNorm2d(7.68 k, 0.006% Params, 376.32 KMac, 0.003% MACs, 3840, eps=0.001, momentum=0.1, affine=True, track_running_stats=True)
            (2): SiLU(0, 0.000% Params, 0.0 Mac, 0.000% MACs, inplace=True)
          )
          (1): Conv2dNormActivation(
            42.24 k, 0.036% Params, 2.07 MMac, 0.017% MACs, 
            (0): Conv2d(34.56 k, 0.029% Params, 1.69 MMac, 0.014% MACs, 3840, 3840, kernel_size=(3, 3), stride=(1, 1), padding=(1, 1), groups=3840, bias=False)
            (1): BatchNorm2d(7.68 k, 0.006% Params, 376.32 KMac, 0.003% MACs, 3840, eps=0.001, momentum=0.1, affine=True, track_running_stats=True)
            (2): SiLU(0, 0.000% Params, 0.0 Mac, 0.000% MACs, inplace=True)
          )
          (2): SqueezeExcitation(
            1.23 M, 1.040% Params, 1.42 MMac, 0.012% MACs, 
            (avgpool): AdaptiveAvgPool2d(0, 0.000% Params, 188.16 KMac, 0.002% MACs, output_size=1)
            (fc1): Conv2d(614.56 k, 0.519% Params, 614.56 KMac, 0.005% MACs, 3840, 160, kernel_size=(1, 1), stride=(1, 1))
            (fc2): Conv2d(618.24 k, 0.522% Params, 618.24 KMac, 0.005% MACs, 160, 3840, kernel_size=(1, 1), stride=(1, 1))
            (activation): SiLU(0, 0.000% Params, 0.0 Mac, 0.000% MACs, inplace=True)
            (scale_activation): Sigmoid(0, 0.000% Params, 0.0 Mac, 0.000% MACs, )
          )
          (3): Conv2dNormActivation(
            2.46 M, 2.075% Params, 120.49 MMac, 0.979% MACs, 
            (0): Conv2d(2.46 M, 2.074% Params, 120.42 MMac, 0.978% MACs, 3840, 640, kernel_size=(1, 1), stride=(1, 1), bias=False)
            (1): BatchNorm2d(1.28 k, 0.001% Params, 62.72 KMac, 0.001% MACs, 640, eps=0.001, momentum=0.1, affine=True, track_running_stats=True)
          )
        )
        (stochastic_depth): StochasticDepth(p=0.1848101265822785, mode=row)
      )
      (2): MBConv(
        6.2 M, 5.231% Params, 244.77 MMac, 1.988% MACs, 
        (block): Sequential(
          6.2 M, 5.231% Params, 244.77 MMac, 1.988% MACs, 
          (0): Conv2dNormActivation(
            2.47 M, 2.080% Params, 120.8 MMac, 0.981% MACs, 
            (0): Conv2d(2.46 M, 2.074% Params, 120.42 MMac, 0.978% MACs, 640, 3840, kernel_size=(1, 1), stride=(1, 1), bias=False)
            (1): BatchNorm2d(7.68 k, 0.006% Params, 376.32 KMac, 0.003% MACs, 3840, eps=0.001, momentum=0.1, affine=True, track_running_stats=True)
            (2): SiLU(0, 0.000% Params, 0.0 Mac, 0.000% MACs, inplace=True)
          )
          (1): Conv2dNormActivation(
            42.24 k, 0.036% Params, 2.07 MMac, 0.017% MACs, 
            (0): Conv2d(34.56 k, 0.029% Params, 1.69 MMac, 0.014% MACs, 3840, 3840, kernel_size=(3, 3), stride=(1, 1), padding=(1, 1), groups=3840, bias=False)
            (1): BatchNorm2d(7.68 k, 0.006% Params, 376.32 KMac, 0.003% MACs, 3840, eps=0.001, momentum=0.1, affine=True, track_running_stats=True)
            (2): SiLU(0, 0.000% Params, 0.0 Mac, 0.000% MACs, inplace=True)
          )
          (2): SqueezeExcitation(
            1.23 M, 1.040% Params, 1.42 MMac, 0.012% MACs, 
            (avgpool): AdaptiveAvgPool2d(0, 0.000% Params, 188.16 KMac, 0.002% MACs, output_size=1)
            (fc1): Conv2d(614.56 k, 0.519% Params, 614.56 KMac, 0.005% MACs, 3840, 160, kernel_size=(1, 1), stride=(1, 1))
            (fc2): Conv2d(618.24 k, 0.522% Params, 618.24 KMac, 0.005% MACs, 160, 3840, kernel_size=(1, 1), stride=(1, 1))
            (activation): SiLU(0, 0.000% Params, 0.0 Mac, 0.000% MACs, inplace=True)
            (scale_activation): Sigmoid(0, 0.000% Params, 0.0 Mac, 0.000% MACs, )
          )
          (3): Conv2dNormActivation(
            2.46 M, 2.075% Params, 120.49 MMac, 0.979% MACs, 
            (0): Conv2d(2.46 M, 2.074% Params, 120.42 MMac, 0.978% MACs, 3840, 640, kernel_size=(1, 1), stride=(1, 1), bias=False)
            (1): BatchNorm2d(1.28 k, 0.001% Params, 62.72 KMac, 0.001% MACs, 640, eps=0.001, momentum=0.1, affine=True, track_running_stats=True)
          )
        )
        (stochastic_depth): StochasticDepth(p=0.18734177215189873, mode=row)
      )
      (3): MBConv(
        6.2 M, 5.231% Params, 244.77 MMac, 1.988% MACs, 
        (block): Sequential(
          6.2 M, 5.231% Params, 244.77 MMac, 1.988% MACs, 
          (0): Conv2dNormActivation(
            2.47 M, 2.080% Params, 120.8 MMac, 0.981% MACs, 
            (0): Conv2d(2.46 M, 2.074% Params, 120.42 MMac, 0.978% MACs, 640, 3840, kernel_size=(1, 1), stride=(1, 1), bias=False)
            (1): BatchNorm2d(7.68 k, 0.006% Params, 376.32 KMac, 0.003% MACs, 3840, eps=0.001, momentum=0.1, affine=True, track_running_stats=True)
            (2): SiLU(0, 0.000% Params, 0.0 Mac, 0.000% MACs, inplace=True)
          )
          (1): Conv2dNormActivation(
            42.24 k, 0.036% Params, 2.07 MMac, 0.017% MACs, 
            (0): Conv2d(34.56 k, 0.029% Params, 1.69 MMac, 0.014% MACs, 3840, 3840, kernel_size=(3, 3), stride=(1, 1), padding=(1, 1), groups=3840, bias=False)
            (1): BatchNorm2d(7.68 k, 0.006% Params, 376.32 KMac, 0.003% MACs, 3840, eps=0.001, momentum=0.1, affine=True, track_running_stats=True)
            (2): SiLU(0, 0.000% Params, 0.0 Mac, 0.000% MACs, inplace=True)
          )
          (2): SqueezeExcitation(
            1.23 M, 1.040% Params, 1.42 MMac, 0.012% MACs, 
            (avgpool): AdaptiveAvgPool2d(0, 0.000% Params, 188.16 KMac, 0.002% MACs, output_size=1)
            (fc1): Conv2d(614.56 k, 0.519% Params, 614.56 KMac, 0.005% MACs, 3840, 160, kernel_size=(1, 1), stride=(1, 1))
            (fc2): Conv2d(618.24 k, 0.522% Params, 618.24 KMac, 0.005% MACs, 160, 3840, kernel_size=(1, 1), stride=(1, 1))
            (activation): SiLU(0, 0.000% Params, 0.0 Mac, 0.000% MACs, inplace=True)
            (scale_activation): Sigmoid(0, 0.000% Params, 0.0 Mac, 0.000% MACs, )
          )
          (3): Conv2dNormActivation(
            2.46 M, 2.075% Params, 120.49 MMac, 0.979% MACs, 
            (0): Conv2d(2.46 M, 2.074% Params, 120.42 MMac, 0.978% MACs, 3840, 640, kernel_size=(1, 1), stride=(1, 1), bias=False)
            (1): BatchNorm2d(1.28 k, 0.001% Params, 62.72 KMac, 0.001% MACs, 640, eps=0.001, momentum=0.1, affine=True, track_running_stats=True)
          )
        )
        (stochastic_depth): StochasticDepth(p=0.189873417721519, mode=row)
      )
      (4): MBConv(
        6.2 M, 5.231% Params, 244.77 MMac, 1.988% MACs, 
        (block): Sequential(
          6.2 M, 5.231% Params, 244.77 MMac, 1.988% MACs, 
          (0): Conv2dNormActivation(
            2.47 M, 2.080% Params, 120.8 MMac, 0.981% MACs, 
            (0): Conv2d(2.46 M, 2.074% Params, 120.42 MMac, 0.978% MACs, 640, 3840, kernel_size=(1, 1), stride=(1, 1), bias=False)
            (1): BatchNorm2d(7.68 k, 0.006% Params, 376.32 KMac, 0.003% MACs, 3840, eps=0.001, momentum=0.1, affine=True, track_running_stats=True)
            (2): SiLU(0, 0.000% Params, 0.0 Mac, 0.000% MACs, inplace=True)
          )
          (1): Conv2dNormActivation(
            42.24 k, 0.036% Params, 2.07 MMac, 0.017% MACs, 
            (0): Conv2d(34.56 k, 0.029% Params, 1.69 MMac, 0.014% MACs, 3840, 3840, kernel_size=(3, 3), stride=(1, 1), padding=(1, 1), groups=3840, bias=False)
            (1): BatchNorm2d(7.68 k, 0.006% Params, 376.32 KMac, 0.003% MACs, 3840, eps=0.001, momentum=0.1, affine=True, track_running_stats=True)
            (2): SiLU(0, 0.000% Params, 0.0 Mac, 0.000% MACs, inplace=True)
          )
          (2): SqueezeExcitation(
            1.23 M, 1.040% Params, 1.42 MMac, 0.012% MACs, 
            (avgpool): AdaptiveAvgPool2d(0, 0.000% Params, 188.16 KMac, 0.002% MACs, output_size=1)
            (fc1): Conv2d(614.56 k, 0.519% Params, 614.56 KMac, 0.005% MACs, 3840, 160, kernel_size=(1, 1), stride=(1, 1))
            (fc2): Conv2d(618.24 k, 0.522% Params, 618.24 KMac, 0.005% MACs, 160, 3840, kernel_size=(1, 1), stride=(1, 1))
            (activation): SiLU(0, 0.000% Params, 0.0 Mac, 0.000% MACs, inplace=True)
            (scale_activation): Sigmoid(0, 0.000% Params, 0.0 Mac, 0.000% MACs, )
          )
          (3): Conv2dNormActivation(
            2.46 M, 2.075% Params, 120.49 MMac, 0.979% MACs, 
            (0): Conv2d(2.46 M, 2.074% Params, 120.42 MMac, 0.978% MACs, 3840, 640, kernel_size=(1, 1), stride=(1, 1), bias=False)
            (1): BatchNorm2d(1.28 k, 0.001% Params, 62.72 KMac, 0.001% MACs, 640, eps=0.001, momentum=0.1, affine=True, track_running_stats=True)
          )
        )
        (stochastic_depth): StochasticDepth(p=0.19240506329113927, mode=row)
      )
      (5): MBConv(
        6.2 M, 5.231% Params, 244.77 MMac, 1.988% MACs, 
        (block): Sequential(
          6.2 M, 5.231% Params, 244.77 MMac, 1.988% MACs, 
          (0): Conv2dNormActivation(
            2.47 M, 2.080% Params, 120.8 MMac, 0.981% MACs, 
            (0): Conv2d(2.46 M, 2.074% Params, 120.42 MMac, 0.978% MACs, 640, 3840, kernel_size=(1, 1), stride=(1, 1), bias=False)
            (1): BatchNorm2d(7.68 k, 0.006% Params, 376.32 KMac, 0.003% MACs, 3840, eps=0.001, momentum=0.1, affine=True, track_running_stats=True)
            (2): SiLU(0, 0.000% Params, 0.0 Mac, 0.000% MACs, inplace=True)
          )
          (1): Conv2dNormActivation(
            42.24 k, 0.036% Params, 2.07 MMac, 0.017% MACs, 
            (0): Conv2d(34.56 k, 0.029% Params, 1.69 MMac, 0.014% MACs, 3840, 3840, kernel_size=(3, 3), stride=(1, 1), padding=(1, 1), groups=3840, bias=False)
            (1): BatchNorm2d(7.68 k, 0.006% Params, 376.32 KMac, 0.003% MACs, 3840, eps=0.001, momentum=0.1, affine=True, track_running_stats=True)
            (2): SiLU(0, 0.000% Params, 0.0 Mac, 0.000% MACs, inplace=True)
          )
          (2): SqueezeExcitation(
            1.23 M, 1.040% Params, 1.42 MMac, 0.012% MACs, 
            (avgpool): AdaptiveAvgPool2d(0, 0.000% Params, 188.16 KMac, 0.002% MACs, output_size=1)
            (fc1): Conv2d(614.56 k, 0.519% Params, 614.56 KMac, 0.005% MACs, 3840, 160, kernel_size=(1, 1), stride=(1, 1))
            (fc2): Conv2d(618.24 k, 0.522% Params, 618.24 KMac, 0.005% MACs, 160, 3840, kernel_size=(1, 1), stride=(1, 1))
            (activation): SiLU(0, 0.000% Params, 0.0 Mac, 0.000% MACs, inplace=True)
            (scale_activation): Sigmoid(0, 0.000% Params, 0.0 Mac, 0.000% MACs, )
          )
          (3): Conv2dNormActivation(
            2.46 M, 2.075% Params, 120.49 MMac, 0.979% MACs, 
            (0): Conv2d(2.46 M, 2.074% Params, 120.42 MMac, 0.978% MACs, 3840, 640, kernel_size=(1, 1), stride=(1, 1), bias=False)
            (1): BatchNorm2d(1.28 k, 0.001% Params, 62.72 KMac, 0.001% MACs, 640, eps=0.001, momentum=0.1, affine=True, track_running_stats=True)
          )
        )
        (stochastic_depth): StochasticDepth(p=0.1949367088607595, mode=row)
      )
      (6): MBConv(
        6.2 M, 5.231% Params, 244.77 MMac, 1.988% MACs, 
        (block): Sequential(
          6.2 M, 5.231% Params, 244.77 MMac, 1.988% MACs, 
          (0): Conv2dNormActivation(
            2.47 M, 2.080% Params, 120.8 MMac, 0.981% MACs, 
            (0): Conv2d(2.46 M, 2.074% Params, 120.42 MMac, 0.978% MACs, 640, 3840, kernel_size=(1, 1), stride=(1, 1), bias=False)
            (1): BatchNorm2d(7.68 k, 0.006% Params, 376.32 KMac, 0.003% MACs, 3840, eps=0.001, momentum=0.1, affine=True, track_running_stats=True)
            (2): SiLU(0, 0.000% Params, 0.0 Mac, 0.000% MACs, inplace=True)
          )
          (1): Conv2dNormActivation(
            42.24 k, 0.036% Params, 2.07 MMac, 0.017% MACs, 
            (0): Conv2d(34.56 k, 0.029% Params, 1.69 MMac, 0.014% MACs, 3840, 3840, kernel_size=(3, 3), stride=(1, 1), padding=(1, 1), groups=3840, bias=False)
            (1): BatchNorm2d(7.68 k, 0.006% Params, 376.32 KMac, 0.003% MACs, 3840, eps=0.001, momentum=0.1, affine=True, track_running_stats=True)
            (2): SiLU(0, 0.000% Params, 0.0 Mac, 0.000% MACs, inplace=True)
          )
          (2): SqueezeExcitation(
            1.23 M, 1.040% Params, 1.42 MMac, 0.012% MACs, 
            (avgpool): AdaptiveAvgPool2d(0, 0.000% Params, 188.16 KMac, 0.002% MACs, output_size=1)
            (fc1): Conv2d(614.56 k, 0.519% Params, 614.56 KMac, 0.005% MACs, 3840, 160, kernel_size=(1, 1), stride=(1, 1))
            (fc2): Conv2d(618.24 k, 0.522% Params, 618.24 KMac, 0.005% MACs, 160, 3840, kernel_size=(1, 1), stride=(1, 1))
            (activation): SiLU(0, 0.000% Params, 0.0 Mac, 0.000% MACs, inplace=True)
            (scale_activation): Sigmoid(0, 0.000% Params, 0.0 Mac, 0.000% MACs, )
          )
          (3): Conv2dNormActivation(
            2.46 M, 2.075% Params, 120.49 MMac, 0.979% MACs, 
            (0): Conv2d(2.46 M, 2.074% Params, 120.42 MMac, 0.978% MACs, 3840, 640, kernel_size=(1, 1), stride=(1, 1), bias=False)
            (1): BatchNorm2d(1.28 k, 0.001% Params, 62.72 KMac, 0.001% MACs, 640, eps=0.001, momentum=0.1, affine=True, track_running_stats=True)
          )
        )
        (stochastic_depth): StochasticDepth(p=0.19746835443037977, mode=row)
      )
    )
    (8): Conv2dNormActivation(
      821.76 k, 0.693% Params, 40.27 MMac, 0.327% MACs, 
      (0): Conv2d(819.2 k, 0.691% Params, 40.14 MMac, 0.326% MACs, 640, 1280, kernel_size=(1, 1), stride=(1, 1), bias=False)
      (1): BatchNorm2d(2.56 k, 0.002% Params, 125.44 KMac, 0.001% MACs, 1280, eps=0.001, momentum=0.1, affine=True, track_running_stats=True)
      (2): SiLU(0, 0.000% Params, 0.0 Mac, 0.000% MACs, inplace=True)
    )
  )
  (avgpool): AdaptiveAvgPool2d(0, 0.000% Params, 62.72 KMac, 0.001% MACs, output_size=1)
  (classifier): Sequential(
    1.28 M, 1.081% Params, 1.28 MMac, 0.010% MACs, 
    (0): Dropout(0, 0.000% Params, 0.0 Mac, 0.000% MACs, p=0.4, inplace=True)
    (1): Linear(1.28 M, 1.081% Params, 1.28 MMac, 0.010% MACs, in_features=1280, out_features=1000, bias=True)
  )
)
Warming up with batch_size=1:   0%|          | 0/100 [00:00<?, ?it/s]Warming up with batch_size=1:   5%|▌         | 5/100 [00:00<00:01, 49.27it/s]Warming up with batch_size=1:  10%|█         | 10/100 [00:00<00:01, 49.26it/s]Warming up with batch_size=1:  15%|█▌        | 15/100 [00:00<00:01, 49.
…
