#####
fp-fp-py-id - Run 1
2024-02-25 23:01:05
#####
Benchmarking on 12 threads
Warming up with batch_size=1:   0%|          | 0/1 [00:00<?, ?it/s]Warming up with batch_size=1: 100%|██████████| 1/1 [00:00<00:00,  4.96it/s]Warming up with batch_size=1: 100%|██████████| 1/1 [00:00<00:00,  4.95it/s]
Warning: module Bottleneck is treated as a zero-op.
Warning: module ResNet is treated as a zero-op.
Warning! No positional inputs found for a module, assuming batch size is 1.
ResNet(
  25.56 M, 100.000% Params, 4.12 GMac, 100.000% MACs, 
  (conv1): Conv2d(9.41 k, 0.037% Params, 118.01 MMac, 2.863% MACs, 3, 64, kernel_size=(7, 7), stride=(2, 2), padding=(3, 3), bias=False)
  (bn1): BatchNorm2d(128, 0.001% Params, 1.61 MMac, 0.039% MACs, 64, eps=1e-05, momentum=0.1, affine=True, track_running_stats=True)
  (relu): ReLU(0, 0.000% Params, 802.82 KMac, 0.019% MACs, inplace=True)
  (maxpool): MaxPool2d(0, 0.000% Params, 802.82 KMac, 0.019% MACs, kernel_size=3, stride=2, padding=1, dilation=1, ceil_mode=False)
  (layer1): Sequential(
    215.81 k, 0.844% Params, 680.39 MMac, 16.507% MACs, 
    (0): Bottleneck(
      75.01 k, 0.293% Params, 236.43 MMac, 5.736% MACs, 
      (conv1): Conv2d(4.1 k, 0.016% Params, 12.85 MMac, 0.312% MACs, 64, 64, kernel_size=(1, 1), stride=(1, 1), bias=False)
      (bn1): BatchNorm2d(128, 0.001% Params, 401.41 KMac, 0.010% MACs, 64, eps=1e-05, momentum=0.1, affine=True, track_running_stats=True)
      (conv2): Conv2d(36.86 k, 0.144% Params, 115.61 MMac, 2.805% MACs, 64, 64, kernel_size=(3, 3), stride=(1, 1), padding=(1, 1), bias=False)
      (bn2): BatchNorm2d(128, 0.001% Params, 401.41 KMac, 0.010% MACs, 64, eps=1e-05, momentum=0.1, affine=True, track_running_stats=True)
      (conv3): Conv2d(16.38 k, 0.064% Params, 51.38 MMac, 1.247% MACs, 64, 256, kernel_size=(1, 1), stride=(1, 1), bias=False)
      (bn3): BatchNorm2d(512, 0.002% Params, 1.61 MMac, 0.039% MACs, 256, eps=1e-05, momentum=0.1, affine=True, track_running_stats=True)
      (relu): ReLU(0, 0.000% Params, 1.2 MMac, 0.029% MACs, inplace=True)
      (downsample): Sequential(
        16.9 k, 0.066% Params, 52.99 MMac, 1.285% MACs, 
        (0): Conv2d(16.38 k, 0.064% Params, 51.38 MMac, 1.247% MACs, 64, 256, kernel_size=(1, 1), stride=(1, 1), bias=False)
        (1): BatchNorm2d(512, 0.002% Params, 1.61 MMac, 0.039% MACs, 256, eps=1e-05, momentum=0.1, affine=True, track_running_stats=True)
      )
    )
    (1): Bottleneck(
      70.4 k, 0.275% Params, 221.98 MMac, 5.385% MACs, 
      (conv1): Conv2d(16.38 k, 0.064% Params, 51.38 MMac, 1.247% MACs, 256, 64, kernel_size=(1, 1), stride=(1, 1), bias=False)
      (bn1): BatchNorm2d(128, 0.001% Params, 401.41 KMac, 0.010% MACs, 64, eps=1e-05, momentum=0.1, affine=True, track_running_stats=True)
      (conv2): Conv2d(36.86 k, 0.144% Params, 115.61 MMac, 2.805% MACs, 64, 64, kernel_size=(3, 3), stride=(1, 1), padding=(1, 1), bias=False)
      (bn2): BatchNorm2d(128, 0.001% Params, 401.41 KMac, 0.010% MACs, 64, eps=1e-05, momentum=0.1, affine=True, track_running_stats=True)
      (conv3): Conv2d(16.38 k, 0.064% Params, 51.38 MMac, 1.247% MACs, 64, 256, kernel_size=(1, 1), stride=(1, 1), bias=False)
      (bn3): BatchNorm2d(512, 0.002% Params, 1.61 MMac, 0.039% MACs, 256, eps=1e-05, momentum=0.1, affine=True, track_running_stats=True)
      (relu): ReLU(0, 0.000% Params, 1.2 MMac, 0.029% MACs, inplace=True)
    )
    (2): Bottleneck(
      70.4 k, 0.275% Params, 221.98 MMac, 5.385% MACs, 
      (conv1): Conv2d(16.38 k, 0.064% Params, 51.38 MMac, 1.247% MACs, 256, 64, kernel_size=(1, 1), stride=(1, 1), bias=False)
      (bn1): BatchNorm2d(128, 0.001% Params, 401.41 KMac, 0.010% MACs, 64, eps=1e-05, momentum=0.1, affine=True, track_running_stats=True)
      (conv2): Conv2d(36.86 k, 0.144% Params, 115.61 MMac, 2.805% MACs, 64, 64, kernel_size=(3, 3), stride=(1, 1), padding=(1, 1), bias=False)
      (bn2): BatchNorm2d(128, 0.001% Params, 401.41 KMac, 0.010% MACs, 64, eps=1e-05, momentum=0.1, affine=True, track_running_stats=True)
      (conv3): Conv2d(16.38 k, 0.064% Params, 51.38 MMac, 1.247% MACs, 64, 256, kernel_size=(1, 1), stride=(1, 1), bias=False)
      (bn3): BatchNorm2d(512, 0.002% Params, 1.61 MMac, 0.039% MACs, 256, eps=1e-05, momentum=0.1, affine=True, track_running_stats=True)
      (relu): ReLU(0, 0.000% Params, 1.2 MMac, 0.029% MACs, inplace=True)
    )
  )
  (layer2): Sequential(
    1.22 M, 4.772% Params, 1.04 GMac, 25.147% MACs, 
    (0): Bottleneck(
      379.39 k, 1.484% Params, 376.02 MMac, 9.122% MACs, 
      (conv1): Conv2d(32.77 k, 0.128% Params, 102.76 MMac, 2.493% MACs, 256, 128, kernel_size=(1, 1), stride=(1, 1), bias=False)
      (bn1): BatchNorm2d(256, 0.001% Params, 802.82 KMac, 0.019% MACs, 128, eps=1e-05, momentum=0.1, affine=True, track_running_stats=True)
      (conv2): Conv2d(147.46 k, 0.577% Params, 115.61 MMac, 2.805% MACs, 128, 128, kernel_size=(3, 3), stride=(2, 2), padding=(1, 1), bias=False)
      (bn2): BatchNorm2d(256, 0.001% Params, 200.7 KMac, 0.005% MACs, 128, eps=1e-05, momentum=0.1, affine=True, track_running_stats=True)
      (conv3): Conv2d(65.54 k, 0.256% Params, 51.38 MMac, 1.247% MACs, 128, 512, kernel_size=(1, 1), stride=(1, 1), bias=False)
      (bn3): BatchNorm2d(1.02 k, 0.004% Params, 802.82 KMac, 0.019% MACs, 512, eps=1e-05, momentum=0.1, affine=True, track_running_stats=True)
      (relu): ReLU(0, 0.000% Params, 903.17 KMac, 0.022% MACs, inplace=True)
      (downsample): Sequential(
        132.1 k, 0.517% Params, 103.56 MMac, 2.512% MACs, 
        (0): Conv2d(131.07 k, 0.513% Params, 102.76 MMac, 2.493% MACs, 256, 512, kernel_size=(1, 1), stride=(2, 2), bias=False)
        (1): BatchNorm2d(1.02 k, 0.004% Params, 802.82 KMac, 0.019% MACs, 512, eps=1e-05, momentum=0.1, affine=True, track_running_stats=True)
      )
    )
    (1): Bottleneck(
      280.06 k, 1.096% Params, 220.17 MMac, 5.341% MACs, 
      (conv1): Conv2d(65.54 k, 0.256% Params, 51.38 MMac, 1.247% MACs, 512, 128, kernel_size=(1, 1), stride=(1, 1), bias=False)
      (bn1): BatchNorm2d(256, 0.001% Params, 200.7 KMac, 0.005% MACs, 128, eps=1e-05, momentum=0.1, affine=True, track_running_stats=True)
      (conv2): Conv2d(147.46 k, 0.577% Params, 115.61 MMac, 2.805% MACs, 128, 128, kernel_size=(3, 3), stride=(1, 1), padding=(1, 1), bias=False)
      (bn2): BatchNorm2d(256, 0.001% Params, 200.7 KMac, 0.005% MACs, 128, eps=1e-05, momentum=0.1, affine=True, track_running_stats=True)
      (conv3): Conv2d(65.54 k, 0.256% Params, 51.38 MMac, 1.247% MACs, 128, 512, kernel_size=(1, 1), stride=(1, 1), bias=False)
      (bn3): BatchNorm2d(1.02 k, 0.004% Params, 802.82 KMac, 0.019% MACs, 512, eps=1e-05, momentum=0.1, affine=True, track_running_stats=True)
      (relu): ReLU(0, 0.000% Params, 602.11 KMac, 0.015% MACs, inplace=True)
    )
    (2): Bottleneck(
      280.06 k, 1.096% Params, 220.17 MMac, 5.341% MACs, 
      (conv1): Conv2d(65.54 k, 0.256% Params, 51.38 MMac, 1.247% MACs, 512, 128, kernel_size=(1, 1), stride=(1, 1), bias=False)
      (bn1): BatchNorm2d(256, 0.001% Params, 200.7 KMac, 0.005% MACs, 128, eps=1e-05, momentum=0.1, affine=True, track_running_stats=True)
      (conv2): Conv2d(147.46 k, 0.577% Params, 115.61 MMac, 2.805% MACs, 128, 128, kernel_size=(3, 3), stride=(1, 1), padding=(1, 1), bias=False)
      (bn2): BatchNorm2d(256, 0.001% Params, 200.7 KMac, 0.005% MACs, 128, eps=1e-05, momentum=0.1, affine=True, track_running_stats=True)
      (conv3): Conv2d(65.54 k, 0.256% Params, 51.38 MMac, 1.247% MACs, 128, 512, kernel_size=(1, 1), stride=(1, 1), bias=False)
      (bn3): BatchNorm2d(1.02 k, 0.004% Params, 802.82 KMac, 0.019% MACs, 512, eps=1e-05, momentum=0.1, affine=True, track_running_stats=True)
      (relu): ReLU(0, 0.000% Params, 602.11 KMac, 0.015% MACs, inplace=True)
    )
    (3): Bottleneck(
      280.06 k, 1.096% Params, 220.17 MMac, 5.341% MACs, 
      (conv1): Conv2d(65.54 k, 0.256% Params, 51.38 MMac, 1.247% MACs, 512, 128, kernel_size=(1, 1), stride=(1, 1), bias=False)
      (bn1): BatchNorm2d(256, 0.001% Params, 200.7 KMac, 0.005% MACs, 128, eps=1e-05, momentum=0.1, affine=True, track_running_stats=True)
      (conv2): Conv2d(147.46 k, 0.577% Params, 115.61 MMac, 2.805% MACs, 128, 128, kernel_size=(3, 3), stride=(1, 1), padding=(1, 1), bias=False)
      (bn2): BatchNorm2d(256, 0.001% Params, 200.7 KMac, 0.005% MACs, 128, eps=1e-05, momentum=0.1, affine=True, track_running_stats=True)
      (conv3): Conv2d(65.54 k, 0.256% Params, 51.38 MMac, 1.247% MACs, 128, 512, kernel_size=(1, 1), stride=(1, 1), bias=False)
      (bn3): BatchNorm2d(1.02 k, 0.004% Params, 802.82 KMac, 0.019% MACs, 512, eps=1e-05, momentum=0.1, affine=True, track_running_stats=True)
      (relu): ReLU(0, 0.000% Params, 602.11 KMac, 0.015% MACs, inplace=True)
    )
  )
  (layer3): Sequential(
    7.1 M, 27.775% Params, 1.47 GMac, 35.678% MACs, 
    (0): Bottleneck(
      1.51 M, 5.918% Params, 374.26 MMac, 9.080% MACs, 
      (conv1): Conv2d(131.07 k, 0.513% Params, 102.76 MMac, 2.493% MACs, 512, 256, kernel_size=(1, 1), stride=(1, 1), bias=False)
      (bn1): BatchNorm2d(512, 0.002% Params, 401.41 KMac, 0.010% MACs, 256, eps=1e-05, momentum=0.1, affine=True, track_running_stats=True)
      (conv2): Conv2d(589.82 k, 2.308% Params, 115.61 MMac, 2.805% MACs, 256, 256, kernel_size=(3, 3), stride=(2, 2), padding=(1, 1), bias=False)
      (bn2): BatchNorm2d(512, 0.002% Params, 100.35 KMac, 0.002% MACs, 256, eps=1e-05, momentum=0.1, affine=True, track_running_stats=True)
      (conv3): Conv2d(262.14 k, 1.026% Params, 51.38 MMac, 1.247% MACs, 256, 1024, kernel_size=(1, 1), stride=(1, 1), bias=False)
      (bn3): BatchNorm2d(2.05 k, 0.008% Params, 401.41 KMac, 0.010% MACs, 1024, eps=1e-05, momentum=0.1, affine=True, track_running_stats=True)
      (relu): ReLU(0, 0.000% Params, 451.58 KMac, 0.011% MACs, inplace=True)
      (downsample): Sequential(
        526.34 k, 2.059% Params, 103.16 MMac, 2.503% MACs, 
        (0): Conv2d(524.29 k, 2.051% Params, 102.76 MMac, 2.493% MACs, 512, 1024, kernel_size=(1, 1), stride=(2, 2), bias=False)
        (1): BatchNorm2d(2.05 k, 0.008% Params, 401.41 KMac, 0.010% MACs, 1024, eps=1e-05, momentum=0.1, affine=True, track_running_stats=True)
      )
    )
    (1): Bottleneck(
      1.12 M, 4.371% Params, 219.27 MMac, 5.320% MACs, 
      (conv1): Conv2d(262.14 k, 1.026% Params, 51.38 MMac, 1.247% MACs, 1024, 256, kernel_size=(1, 1), stride=(1, 1), bias=False)
      (bn1): BatchNorm2d(512, 0.002% Params, 100.35 KMac, 0.002% MACs, 256, eps=1e-05, momentum=0.1, affine=True, track_running_stats=True)
      (conv2): Conv2d(589.82 k, 2.308% Params, 115.61 MMac, 2.805% MACs, 256, 256, kernel_size=(3, 3), stride=(1, 1), padding=(1, 1), bias=False)
      (bn2): BatchNorm2d(512, 0.002% Params, 100.35 KMac, 0.002% MACs, 256, eps=1e-05, momentum=0.1, affine=True, track_running_stats=True)
      (conv3): Conv2d(262.14 k, 1.026% Params, 51.38 MMac, 1.247% MACs, 256, 1024, kernel_size=(1, 1), stride=(1, 1), bias=False)
      (bn3): BatchNorm2d(2.05 k, 0.008% Params, 401.41 KMac, 0.010% MACs, 1024, eps=1e-05, momentum=0.1, affine=True, track_running_stats=True)
      (relu): ReLU(0, 0.000% Params, 301.06 KMac, 0.007% MACs, inplace=True)
    )
    (2): Bottleneck(
      1.12 M, 4.371% Params, 219.27 MMac, 5.320% MACs, 
      (conv1): Conv2d(262.14 k, 1.026% Params, 51.38 MMac, 1.247% MACs, 1024, 256, kernel_size=(1, 1), stride=(1, 1), bias=False)
      (bn1): BatchNorm2d(512, 0.002% Params, 100.35 KMac, 0.002% MACs, 256, eps=1e-05, momentum=0.1, affine=True, track_running_stats=True)
      (conv2): Conv2d(589.82 k, 2.308% Params, 115.61 MMac, 2.805% MACs, 256, 256, kernel_size=(3, 3), stride=(1, 1), padding=(1, 1), bias=False)
      (bn2): BatchNorm2d(512, 0.002% Params, 100.35 KMac, 0.002% MACs, 256, eps=1e-05, momentum=0.1, affine=True, track_running_stats=True)
      (conv3): Conv2d(262.14 k, 1.026% Params, 51.38 MMac, 1.247% MACs, 256, 1024, kernel_size=(1, 1), stride=(1, 1), bias=False)
      (bn3): BatchNorm2d(2.05 k, 0.008% Params, 401.41 KMac, 0.010% MACs, 1024, eps=1e-05, momentum=0.1, affine=True, track_running_stats=True)
      (relu): ReLU(0, 0.000% Params, 301.06 KMac, 0.007% MACs, inplace=True)
    )
    (3): Bottleneck(
      1.12 M, 4.371% Params, 219.27 MMac, 5.320% MACs, 
      (conv1): Conv2d(262.14 k, 1.026% Params, 51.38 MMac, 1.247% MACs, 1024, 256, kernel_size=(1, 1), stride=(1, 1), bias=False)
      (bn1): BatchNorm2d(512, 0.002% Params, 100.35 KMac, 0.002% MACs, 256, eps=1e-05, momentum=0.1, affine=True, track_running_stats=True)
      (conv2): Conv2d(589.82 k, 2.308% Params, 115.61 MMac, 2.805% MACs, 256, 256, kernel_size=(3, 3), stride=(1, 1), padding=(1, 1), bias=False)
      (bn2): BatchNorm2d(512, 0.002% Params, 100.35 KMac, 0.002% MACs, 256, eps=1e-05, momentum=0.1, affine=True, track_running_stats=True)
      (conv3): Conv2d(262.14 k, 1.026% Params, 51.38 MMac, 1.247% MACs, 256, 1024, kernel_size=(1, 1), stride=(1, 1), bias=False)
      (bn3): BatchNorm2d(2.05 k, 0.008% Params, 401.41 KMac, 0.010% MACs, 1024, eps=1e-05, momentum=0.1, affine=True, track_running_stats=True)
      (relu): ReLU(0, 0.000% Params, 301.06 KMac, 0.007% MACs, inplace=True)
    )
    (4): Bottleneck(
      1.12 M, 4.371% Params, 219.27 MMac, 5.320% MACs, 
      (conv1): Conv2d(262.14 k, 1.026% Params, 51.38 MMac, 1.247% MACs, 1024, 256, kernel_size=(1, 1), stride=(1, 1), bias=False)
      (bn1): BatchNorm2d(512, 0.002% Params, 100.35 KMac, 0.002% MACs, 256, eps=1e-05, momentum=0.1, affine=True, track_running_stats=True)
      (conv2): Conv2d(589.82 k, 2.308% Params, 115.61 MMac, 2.805% MACs, 256, 256, kernel_size=(3, 3), stride=(1, 1), padding=(1, 1), bias=False)
      (bn2): BatchNorm2d(512, 0.002% Params, 100.35 KMac, 0.002% MACs, 256, eps=1e-05, momentum=0.1, affine=True, track_running_stats=True)
      (conv3): Conv2d(262.14 k, 1.026% Params, 51.38 MMac, 1.247% MACs, 256, 1024, kernel_size=(1, 1), stride=(1, 1), bias=False)
      (bn3): BatchNorm2d(2.05 k, 0.008% Params, 401.41 KMac, 0.010% MACs, 1024, eps=1e-05, momentum=0.1, affine=True, track_running_stats=True)
      (relu): ReLU(0, 0.000% Params, 301.06 KMac, 0.007% MACs, inplace=True)
    )
    (5): Bottleneck(
      1.12 M, 4.371% Params, 219.27 MMac, 5.320% MACs, 
      (conv1): Conv2d(262.14 k, 1.026% Params, 51.38 MMac, 1.247% MACs, 1024, 256, kernel_size=(1, 1), stride=(1, 1), bias=False)
      (bn1): BatchNorm2d(512, 0.002% Params, 100.35 KMac, 0.002% MACs, 256, eps=1e-05, momentum=0.1, affine=True, track_running_stats=True)
      (conv2): Conv2d(589.82 k, 2.308% Params, 115.61 MMac, 2.805% MACs, 256, 256, kernel_size=(3, 3), stride=(1, 1), padding=(1, 1), bias=False)
      (bn2): BatchNorm2d(512, 0.002% Params, 100.35 KMac, 0.002% MACs, 256, eps=1e-05, momentum=0.1, affine=True, track_running_stats=True)
      (conv3): Conv2d(262.14 k, 1.026% Params, 51.38 MMac, 1.247% MACs, 256, 1024, kernel_size=(1, 1), stride=(1, 1), bias=False)
      (bn3): BatchNorm2d(2.05 k, 0.008% Params, 401.41 KMac, 0.010% MACs, 1024, eps=1e-05, momentum=0.1, affine=True, track_running_stats=True)
      (relu): ReLU(0, 0.000% Params, 301.06 KMac, 0.007% MACs, inplace=True)
    )
  )
  (layer4): Sequential(
    14.96 M, 58.554% Params, 811.02 MMac, 19.676% MACs, 
    (0): Bottleneck(
      6.04 M, 23.632% Params, 373.38 MMac, 9.059% MACs, 
      (conv1): Conv2d(524.29 k, 2.051% Params, 102.76 MMac, 2.493% MACs, 1024, 512, kernel_size=(1, 1), stride=(1, 1), bias=False)
      (bn1): BatchNorm2d(1.02 k, 0.004% Params, 200.7 KMac, 0.005% MACs, 512, eps=1e-05, momentum=0.1, affine=True, track_running_stats=True)
      (conv2): Conv2d(2.36 M, 9.231% Params, 115.61 MMac, 2.805% MACs, 512, 512, kernel_size=(3, 3), stride=(2, 2), padding=(1, 1), bias=False)
      (bn2): BatchNorm2d(1.02 k, 0.004% Params, 50.18 KMac, 0.001% MACs, 512, eps=1e-05, momentum=0.1, affine=True, track_running_stats=True)
      (conv3): Conv2d(1.05 M, 4.103% Params, 51.38 MMac, 1.247% MACs, 512, 2048, kernel_size=(1, 1), stride=(1, 1), bias=False)
      (bn3): BatchNorm2d(4.1 k, 0.016% Params, 200.7 KMac, 0.005% MACs, 2048, eps=1e-05, momentum=0.1, affine=True, track_running_stats=True)
      (relu): ReLU(0, 0.000% Params, 225.79 KMac, 0.005% MACs, inplace=True)
      (downsample): Sequential(
        2.1 M, 8.222% Params, 102.96 MMac, 2.498% MACs, 
        (0): Conv2d(2.1 M, 8.206% Params, 102.76 MMac, 2.493% MACs, 1024, 2048, kernel_size=(1, 1), stride=(2, 2), bias=False)
        (1): BatchNorm2d(4.1 k, 0.016% Params, 200.7 KMac, 0.005% MACs, 2048, eps=1e-05, momentum=0.1, affine=True, track_running_stats=True)
      )
    )
    (1): Bottleneck(
      4.46 M, 17.461% Params, 218.82 MMac, 5.309% MACs, 
      (conv1): Conv2d(1.05 M, 4.103% Params, 51.38 MMac, 1.247% MACs, 2048, 512, kernel_size=(1, 1), stride=(1, 1), bias=False)
      (bn1): BatchNorm2d(1.02 k, 0.004% Params, 50.18 KMac, 0.001% MACs, 512, eps=1e-05, momentum=0.1, affine=True, track_running_stats=True)
      (conv2): Conv2d(2.36 M, 9.231% Params, 115.61 MMac, 2.805% MACs, 512, 512, kernel_size=(3, 3), stride=(1, 1), padding=(1, 1), bias=False)
      (bn2): BatchNorm2d(1.02 k, 0.004% Params, 50.18 KMac, 0.001% MACs, 512, eps=1e-05, momentum=0.1, affine=True, track_running_stats=True)
      (conv3): Conv2d(1.05 M, 4.103% Params, 51.38 MMac, 1.247% MACs, 512, 2048, kernel_size=(1, 1), stride=(1, 1), bias=False)
      (bn3): BatchNorm2d(4.1 k, 0.016% Params, 200.7 KMac, 0.005% MACs, 2048, eps=1e-05, momentum=0.1, affine=True, track_running_stats=True)
      (relu): ReLU(0, 0.000% Params, 150.53 KMac, 0.004% MACs, inplace=True)
    )
    (2): Bottleneck(
      4.46 M, 17.461% Params, 218.82 MMac, 5.309% MACs, 
      (conv1): Conv2d(1.05 M, 4.103% Params, 51.38 MMac, 1.247% MACs, 2048, 512, kernel_size=(1, 1), stride=(1, 1), bias=False)
      (bn1): BatchNorm2d(1.02 k, 0.004% Params, 50.18 KMac, 0.001% MACs, 512, eps=1e-05, momentum=0.1, affine=True, track_running_stats=True)
      (conv2): Conv2d(2.36 M, 9.231% Params, 115.61 MMac, 2.805% MACs, 512, 512, kernel_size=(3, 3), stride=(1, 1), padding=(1, 1), bias=False)
      (bn2): BatchNorm2d(1.02 k, 0.004% Params, 50.18 KMac, 0.001% MACs, 512, eps=1e-05, momentum=0.1, affine=True, track_running_stats=True)
      (conv3): Conv2d(1.05 M, 4.103% Params, 51.38 MMac, 1.247% MACs, 512, 2048, kernel_size=(1, 1), stride=(1, 1), bias=False)
      (bn3): BatchNorm2d(4.1 k, 0.016% Params, 200.7 KMac, 0.005% MACs, 2048, eps=1e-05, momentum=0.1, affine=True, track_running_stats=True)
      (relu): ReLU(0, 0.000% Params, 150.53 KMac, 0.004% MACs, inplace=True)
    )
  )
  (avgpool): AdaptiveAvgPool2d(0, 0.000% Params, 100.35 KMac, 0.002% MACs, output_size=(1, 1))
  (fc): Linear(2.05 M, 8.017% Params, 2.05 MMac, 0.050% MACs, in_features=2048, out_features=1000, bias=True)
)
Warming up with batch_size=1:   0%|          | 0/100 [00:00<?, ?it/s]Warming up with batch_size=1:  28%|██▊       | 28/100 [00:00<00:00, 274.28it/s]Warming up with batch_size=1:  56%|█████▌    | 56/100 [00:00<00:00, 275.62it/s]Warming up with batch_size=1:  84%|████████▍ | 84/100 [00:00<00:00, 276.34it/s]Warming up with batch_size=1: 100%|██████████| 100/100 [00:00<00:00, 276.37it/s]
…
