#####
fp-fp-py-id - Run 1
2024-02-25 22:59:25
#####
Benchmarking on 12 threads
Warming up with batch_size=1:   0%|          | 0/1 [00:00<?, ?it/s]Warming up with batch_size=1: 100%|██████████| 1/1 [00:00<00:00,  4.91it/s]Warming up with batch_size=1: 100%|██████████| 1/1 [00:00<00:00,  4.91it/s]
Warning: module Bottleneck is treated as a zero-op.
Warning: module ResNet is treated as a zero-op.
Warning! No positional inputs found for a module, assuming batch size is 1.
ResNet(
  60.19 M, 100.000% Params, 11.58 GMac, 100.000% MACs, 
  (conv1): Conv2d(9.41 k, 0.016% Params, 118.01 MMac, 1.019% MACs, 3, 64, kernel_size=(7, 7), stride=(2, 2), padding=(3, 3), bias=False)
  (bn1): BatchNorm2d(128, 0.000% Params, 1.61 MMac, 0.014% MACs, 64, eps=1e-05, momentum=0.1, affine=True, track_running_stats=True)
  (relu): ReLU(0, 0.000% Params, 802.82 KMac, 0.007% MACs, inplace=True)
  (maxpool): MaxPool2d(0, 0.000% Params, 802.82 KMac, 0.007% MACs, kernel_size=3, stride=2, padding=1, dilation=1, ceil_mode=False)
  (layer1): Sequential(
    215.81 k, 0.359% Params, 680.39 MMac, 5.875% MACs, 
    (0): Bottleneck(
      75.01 k, 0.125% Params, 236.43 MMac, 2.042% MACs, 
      (conv1): Conv2d(4.1 k, 0.007% Params, 12.85 MMac, 0.111% MACs, 64, 64, kernel_size=(1, 1), stride=(1, 1), bias=False)
      (bn1): BatchNorm2d(128, 0.000% Params, 401.41 KMac, 0.003% MACs, 64, eps=1e-05, momentum=0.1, affine=True, track_running_stats=True)
      (conv2): Conv2d(36.86 k, 0.061% Params, 115.61 MMac, 0.998% MACs, 64, 64, kernel_size=(3, 3), stride=(1, 1), padding=(1, 1), bias=False)
      (bn2): BatchNorm2d(128, 0.000% Params, 401.41 KMac, 0.003% MACs, 64, eps=1e-05, momentum=0.1, affine=True, track_running_stats=True)
      (conv3): Conv2d(16.38 k, 0.027% Params, 51.38 MMac, 0.444% MACs, 64, 256, kernel_size=(1, 1), stride=(1, 1), bias=False)
      (bn3): BatchNorm2d(512, 0.001% Params, 1.61 MMac, 0.014% MACs, 256, eps=1e-05, momentum=0.1, affine=True, track_running_stats=True)
      (relu): ReLU(0, 0.000% Params, 1.2 MMac, 0.010% MACs, inplace=True)
      (downsample): Sequential(
        16.9 k, 0.028% Params, 52.99 MMac, 0.458% MACs, 
        (0): Conv2d(16.38 k, 0.027% Params, 51.38 MMac, 0.444% MACs, 64, 256, kernel_size=(1, 1), stride=(1, 1), bias=False)
        (1): BatchNorm2d(512, 0.001% Params, 1.61 MMac, 0.014% MACs, 256, eps=1e-05, momentum=0.1, affine=True, track_running_stats=True)
      )
    )
    (1): Bottleneck(
      70.4 k, 0.117% Params, 221.98 MMac, 1.917% MACs, 
      (conv1): Conv2d(16.38 k, 0.027% Params, 51.38 MMac, 0.444% MACs, 256, 64, kernel_size=(1, 1), stride=(1, 1), bias=False)
      (bn1): BatchNorm2d(128, 0.000% Params, 401.41 KMac, 0.003% MACs, 64, eps=1e-05, momentum=0.1, affine=True, track_running_stats=True)
      (conv2): Conv2d(36.86 k, 0.061% Params, 115.61 MMac, 0.998% MACs, 64, 64, kernel_size=(3, 3), stride=(1, 1), padding=(1, 1), bias=False)
      (bn2): BatchNorm2d(128, 0.000% Params, 401.41 KMac, 0.003% MACs, 64, eps=1e-05, momentum=0.1, affine=True, track_running_stats=True)
      (conv3): Conv2d(16.38 k, 0.027% Params, 51.38 MMac, 0.444% MACs, 64, 256, kernel_size=(1, 1), stride=(1, 1), bias=False)
      (bn3): BatchNorm2d(512, 0.001% Params, 1.61 MMac, 0.014% MACs, 256, eps=1e-05, momentum=0.1, affine=True, track_running_stats=True)
      (relu): ReLU(0, 0.000% Params, 1.2 MMac, 0.010% MACs, inplace=True)
    )
    (2): Bottleneck(
      70.4 k, 0.117% Params, 221.98 MMac, 1.917% MACs, 
      (conv1): Conv2d(16.38 k, 0.027% Params, 51.38 MMac, 0.444% MACs, 256, 64, kernel_size=(1, 1), stride=(1, 1), bias=False)
      (bn1): BatchNorm2d(128, 0.000% Params, 401.41 KMac, 0.003% MACs, 64, eps=1e-05, momentum=0.1, affine=True, track_running_stats=True)
      (conv2): Conv2d(36.86 k, 0.061% Params, 115.61 MMac, 0.998% MACs, 64, 64, kernel_size=(3, 3), stride=(1, 1), padding=(1, 1), bias=False)
      (bn2): BatchNorm2d(128, 0.000% Params, 401.41 KMac, 0.003% MACs, 64, eps=1e-05, momentum=0.1, affine=True, track_running_stats=True)
      (conv3): Conv2d(16.38 k, 0.027% Params, 51.38 MMac, 0.444% MACs, 64, 256, kernel_size=(1, 1), stride=(1, 1), bias=False)
      (bn3): BatchNorm2d(512, 0.001% Params, 1.61 MMac, 0.014% MACs, 256, eps=1e-05, momentum=0.1, affine=True, track_running_stats=True)
      (relu): ReLU(0, 0.000% Params, 1.2 MMac, 0.010% MACs, inplace=True)
    )
  )
  (layer2): Sequential(
    2.34 M, 3.887% Params, 1.92 GMac, 16.555% MACs, 
    (0): Bottleneck(
      379.39 k, 0.630% Params, 376.02 MMac, 3.247% MACs, 
      (conv1): Conv2d(32.77 k, 0.054% Params, 102.76 MMac, 0.887% MACs, 256, 128, kernel_size=(1, 1), stride=(1, 1), bias=False)
      (bn1): BatchNorm2d(256, 0.000% Params, 802.82 KMac, 0.007% MACs, 128, eps=1e-05, momentum=0.1, affine=True, track_running_stats=True)
      (conv2): Conv2d(147.46 k, 0.245% Params, 115.61 MMac, 0.998% MACs, 128, 128, kernel_size=(3, 3), stride=(2, 2), padding=(1, 1), bias=False)
      (bn2): BatchNorm2d(256, 0.000% Params, 200.7 KMac, 0.002% MACs, 128, eps=1e-05, momentum=0.1, affine=True, track_running_stats=True)
      (conv3): Conv2d(65.54 k, 0.109% Params, 51.38 MMac, 0.444% MACs, 128, 512, kernel_size=(1, 1), stride=(1, 1), bias=False)
      (bn3): BatchNorm2d(1.02 k, 0.002% Params, 802.82 KMac, 0.007% MACs, 512, eps=1e-05, momentum=0.1, affine=True, track_running_stats=True)
      (relu): ReLU(0, 0.000% Params, 903.17 KMac, 0.008% MACs, inplace=True)
      (downsample): Sequential(
        132.1 k, 0.219% Params, 103.56 MMac, 0.894% MACs, 
        (0): Conv2d(131.07 k, 0.218% Params, 102.76 MMac, 0.887% MACs, 256, 512, kernel_size=(1, 1), stride=(2, 2), bias=False)
        (1): BatchNorm2d(1.02 k, 0.002% Params, 802.82 KMac, 0.007% MACs, 512, eps=1e-05, momentum=0.1, affine=True, track_running_stats=True)
      )
    )
    (1): Bottleneck(
      280.06 k, 0.465% Params, 220.17 MMac, 1.901% MACs, 
      (conv1): Conv2d(65.54 k, 0.109% Params, 51.38 MMac, 0.444% MACs, 512, 128, kernel_size=(1, 1), stride=(1, 1), bias=False)
      (bn1): BatchNorm2d(256, 0.000% Params, 200.7 KMac, 0.002% MACs, 128, eps=1e-05, momentum=0.1, affine=True, track_running_stats=True)
      (conv2): Conv2d(147.46 k, 0.245% Params, 115.61 MMac, 0.998% MACs, 128, 128, kernel_size=(3, 3), stride=(1, 1), padding=(1, 1), bias=False)
      (bn2): BatchNorm2d(256, 0.000% Params, 200.7 KMac, 0.002% MACs, 128, eps=1e-05, momentum=0.1, affine=True, track_running_stats=True)
      (conv3): Conv2d(65.54 k, 0.109% Params, 51.38 MMac, 0.444% MACs, 128, 512, kernel_size=(1, 1), stride=(1, 1), bias=False)
      (bn3): BatchNorm2d(1.02 k, 0.002% Params, 802.82 KMac, 0.007% MACs, 512, eps=1e-05, momentum=0.1, affine=True, track_running_stats=True)
      (relu): ReLU(0, 0.000% Params, 602.11 KMac, 0.005% MACs, inplace=True)
    )
    (2): Bottleneck(
      280.06 k, 0.465% Params, 220.17 MMac, 1.901% MACs, 
      (conv1): Conv2d(65.54 k, 0.109% Params, 51.38 MMac, 0.444% MACs, 512, 128, kernel_size=(1, 1), stride=(1, 1), bias=False)
      (bn1): BatchNorm2d(256, 0.000% Params, 200.7 KMac, 0.002% MACs, 128, eps=1e-05, momentum=0.1, affine=True, track_running_stats=True)
      (conv2): Conv2d(147.46 k, 0.245% Params, 115.61 MMac, 0.998% MACs, 128, 128, kernel_size=(3, 3), stride=(1, 1), padding=(1, 1), bias=False)
      (bn2): BatchNorm2d(256, 0.000% Params, 200.7 KMac, 0.002% MACs, 128, eps=1e-05, momentum=0.1, affine=True, track_running_stats=True)
      (conv3): Conv2d(65.54 k, 0.109% Params, 51.38 MMac, 0.444% MACs, 128, 512, kernel_size=(1, 1), stride=(1, 1), bias=False)
      (bn3): BatchNorm2d(1.02 k, 0.002% Params, 802.82 KMac, 0.007% MACs, 512, eps=1e-05, momentum=0.1, affine=True, track_running_stats=True)
      (relu): ReLU(0, 0.000% Params, 602.11 KMac, 0.005% MACs, inplace=True)
    )
    (3): Bottleneck(
      280.06 k, 0.465% Params, 220.17 MMac, 1.901% MACs, 
      (conv1): Conv2d(65.54 k, 0.109% Params, 51.38 MMac, 0.444% MACs, 512, 128, kernel_size=(1, 1), stride=(1, 1), bias=False)
      (bn1): BatchNorm2d(256, 0.000% Params, 200.7 KMac, 0.002% MACs, 128, eps=1e-05, momentum=0.1, affine=True, track_running_stats=True)
      (conv2): Conv2d(147.46 k, 0.245% Params, 115.61 MMac, 0.998% MACs, 128, 128, kernel_size=(3, 3), stride=(1, 1), padding=(1, 1), bias=False)
      (bn2): BatchNorm2d(256, 0.000% Params, 200.7 KMac, 0.002% MACs, 128, eps=1e-05, momentum=0.1, affine=True, track_running_stats=True)
      (conv3): Conv2d(65.54 k, 0.109% Params, 51.38 MMac, 0.444% MACs, 128, 512, kernel_size=(1, 1), stride=(1, 1), bias=False)
      (bn3): BatchNorm2d(1.02 k, 0.002% Params, 802.82 KMac, 0.007% MACs, 512, eps=1e-05, momentum=0.1, affine=True, track_running_stats=True)
      (relu): ReLU(0, 0.000% Params, 602.11 KMac, 0.005% MACs, inplace=True)
    )
    (4): Bottleneck(
      280.06 k, 0.465% Params, 220.17 MMac, 1.901% MACs, 
      (conv1): Conv2d(65.54 k, 0.109% Params, 51.38 MMac, 0.444% MACs, 512, 128, kernel_size=(1, 1), stride=(1, 1), bias=False)
      (bn1): BatchNorm2d(256, 0.000% Params, 200.7 KMac, 0.002% MACs, 128, eps=1e-05, momentum=0.1, affine=True, track_running_stats=True)
      (conv2): Conv2d(147.46 k, 0.245% Params, 115.61 MMac, 0.998% MACs, 128, 128, kernel_size=(3, 3), stride=(1, 1), padding=(1, 1), bias=False)
      (bn2): BatchNorm2d(256, 0.000% Params, 200.7 KMac, 0.002% MACs, 128, eps=1e-05, momentum=0.1, affine=True, track_running_stats=True)
      (conv3): Conv2d(65.54 k, 0.109% Params, 51.38 MMac, 0.444% MACs, 128, 512, kernel_size=(1, 1), stride=(1, 1), bias=False)
      (bn3): BatchNorm2d(1.02 k, 0.002% Params, 802.82 KMac, 0.007% MACs, 512, eps=1e-05, momentum=0.1, affine=True, track_running_stats=True)
      (relu): ReLU(0, 0.000% Params, 602.11 KMac, 0.005% MACs, inplace=True)
    )
    (5): Bottleneck(
      280.06 k, 0.465% Params, 220.17 MMac, 1.901% MACs, 
      (conv1): Conv2d(65.54 k, 0.109% Params, 51.38 MMac, 0.444% MACs, 512, 128, kernel_size=(1, 1), stride=(1, 1), bias=False)
      (bn1): BatchNorm2d(256, 0.000% Params, 200.7 KMac, 0.002% MACs, 128, eps=1e-05, momentum=0.1, affine=True, track_running_stats=True)
      (conv2): Conv2d(147.46 k, 0.245% Params, 115.61 MMac, 0.998% MACs, 128, 128, kernel_size=(3, 3), stride=(1, 1), padding=(1, 1), bias=False)
      (bn2): BatchNorm2d(256, 0.000% Params, 200.7 KMac, 0.002% MACs, 128, eps=1e-05, momentum=0.1, affine=True, track_running_stats=True)
      (conv3): Conv2d(65.54 k, 0.109% Params, 51.38 MMac, 0.444% MACs, 128, 512, kernel_size=(1, 1), stride=(1, 1), bias=False)
      (bn3): BatchNorm2d(1.02 k, 0.002% Params, 802.82 KMac, 0.007% MACs, 512, eps=1e-05, momentum=0.1, affine=True, track_running_stats=True)
      (relu): ReLU(0, 0.000% Params, 602.11 KMac, 0.005% MACs, inplace=True)
    )
    (6): Bottleneck(
      280.06 k, 0.465% Params, 220.17 MMac, 1.901% MACs, 
      (conv1): Conv2d(65.54 k, 0.109% Params, 51.38 MMac, 0.444% MACs, 512, 128, kernel_size=(1, 1), stride=(1, 1), bias=False)
      (bn1): BatchNorm2d(256, 0.000% Params, 200.7 KMac, 0.002% MACs, 128, eps=1e-05, momentum=0.1, affine=True, track_running_stats=True)
      (conv2): Conv2d(147.46 k, 0.245% Params, 115.61 MMac, 0.998% MACs, 128, 128, kernel_size=(3, 3), stride=(1, 1), padding=(1, 1), bias=False)
      (bn2): BatchNorm2d(256, 0.000% Params, 200.7 KMac, 0.002% MACs, 128, eps=1e-05, momentum=0.1, affine=True, track_running_stats=True)
      (conv3): Conv2d(65.54 k, 0.109% Params, 51.38 MMac, 0.444% MACs, 128, 512, kernel_size=(1, 1), stride=(1, 1), bias=False)
      (bn3): BatchNorm2d(1.02 k, 0.002% Params, 802.82 KMac, 0.007% MACs, 512, eps=1e-05, momentum=0.1, affine=True, track_running_stats=True)
      (relu): ReLU(0, 0.000% Params, 602.11 KMac, 0.005% MACs, inplace=True)
    )
    (7): Bottleneck(
      280.06 k, 0.465% Params, 220.17 MMac, 1.901% MACs, 
      (conv1): Conv2d(65.54 k, 0.109% Params, 51.38 MMac, 0.444% MACs, 512, 128, kernel_size=(1, 1), stride=(1, 1), bias=False)
      (bn1): BatchNorm2d(256, 0.000% Params, 200.7 KMac, 0.002% MACs, 128, eps=1e-05, momentum=0.1, affine=True, track_running_stats=True)
      (conv2): Conv2d(147.46 k, 0.245% Params, 115.61 MMac, 0.998% MACs, 128, 128, kernel_size=(3, 3), stride=(1, 1), padding=(1, 1), bias=False)
      (bn2): BatchNorm2d(256, 0.000% Params, 200.7 KMac, 0.002% MACs, 128, eps=1e-05, momentum=0.1, affine=True, track_running_stats=True)
      (conv3): Conv2d(65.54 k, 0.109% Params, 51.38 MMac, 0.444% MACs, 128, 512, kernel_size=(1, 1), stride=(1, 1), bias=False)
      (bn3): BatchNorm2d(1.02 k, 0.002% Params, 802.82 KMac, 0.007% MACs, 512, eps=1e-05, momentum=0.1, affine=True, track_running_stats=True)
      (relu): ReLU(0, 0.000% Params, 602.11 KMac, 0.005% MACs, inplace=True)
    )
  )
  (layer3): Sequential(
    40.61 M, 67.473% Params, 8.05 GMac, 69.501% MACs, 
    (0): Bottleneck(
      1.51 M, 2.513% Params, 374.26 MMac, 3.232% MACs, 
      (conv1): Conv2d(131.07 k, 0.218% Params, 102.76 MMac, 0.887% MACs, 512, 256, kernel_size=(1, 1), stride=(1, 1), bias=False)
      (bn1): BatchNorm2d(512, 0.001% Params, 401.41 KMac, 0.003% MACs, 256, eps=1e-05, momentum=0.1, affine=True, track_running_stats=True)
      (conv2): Conv2d(589.82 k, 0.980% Params, 115.61 MMac, 0.998% MACs, 256, 256, kernel_size=(3, 3), stride=(2, 2), padding=(1, 1), bias=False)
      (bn2): BatchNorm2d(512, 0.001% Params, 100.35 KMac, 0.001% MACs, 256, eps=1e-05, momentum=0.1, affine=True, track_running_stats=True)
      (conv3): Conv2d(262.14 k, 0.436% Params, 51.38 MMac, 0.444% MACs, 256, 1024, kernel_size=(1, 1), stride=(1, 1), bias=False)
      (bn3): BatchNorm2d(2.05 k, 0.003% Params, 401.41 KMac, 0.003% MACs, 1024, eps=1e-05, momentum=0.1, affine=True, track_running_stats=True)
      (relu): ReLU(0, 0.000% Params, 451.58 KMac, 0.004% MACs, inplace=True)
      (downsample): Sequential(
        526.34 k, 0.874% Params, 103.16 MMac, 0.891% MACs, 
        (0): Conv2d(524.29 k, 0.871% Params, 102.76 MMac, 0.887% MACs, 512, 1024, kernel_size=(1, 1), stride=(2, 2), bias=False)
        (1): BatchNorm2d(2.05 k, 0.003% Params, 401.41 KMac, 0.003% MACs, 1024, eps=1e-05, momentum=0.1, affine=True, track_running_stats=True)
      )
    )
    (1): Bottleneck(
      1.12 M, 1.856% Params, 219.27 MMac, 1.893% MACs, 
      (conv1): Conv2d(262.14 k, 0.436% Params, 51.38 MMac, 0.444% MACs, 1024, 256, kernel_size=(1, 1), stride=(1, 1), bias=False)
      (bn1): BatchNorm2d(512, 0.001% Params, 100.35 KMac, 0.001% MACs, 256, eps=1e-05, momentum=0.1, affine=True, track_running_stats=True)
      (conv2): Conv2d(589.82 k, 0.980% Params, 115.61 MMac, 0.998% MACs, 256, 256, kernel_size=(3, 3), stride=(1, 1), padding=(1, 1), bias=False)
      (bn2): BatchNorm2d(512, 0.001% Params, 100.35 KMac, 0.001% MACs, 256, eps=1e-05, momentum=0.1, affine=True, track_running_stats=True)
      (conv3): Conv2d(262.14 k, 0.436% Params, 51.38 MMac, 0.444% MACs, 256, 1024, kernel_size=(1, 1), stride=(1, 1), bias=False)
      (bn3): BatchNorm2d(2.05 k, 0.003% Params, 401.41 KMac, 0.003% MACs, 1024, eps=1e-05, momentum=0.1, affine=True, track_running_stats=True)
      (relu): ReLU(0, 0.000% Params, 301.06 KMac, 0.003% MACs, inplace=True)
    )
    (2): Bottleneck(
      1.12 M, 1.856% Params, 219.27 MMac, 1.893% MACs, 
      (conv1): Conv2d(262.14 k, 0.436% Params, 51.38 MMac, 0.444% MACs, 1024, 256, kernel_size=(1, 1), stride=(1, 1), bias=False)
      (bn1): BatchNorm2d(512, 0.001% Params, 100.35 KMac, 0.001% MACs, 256, eps=1e-05, momentum=0.1, affine=True, track_running_stats=True)
      (conv2): Conv2d(589.82 k, 0.980% Params, 115.61 MMac, 0.998% MACs, 256, 256, kernel_size=(3, 3), stride=(1, 1), padding=(1, 1), bias=False)
      (bn2): BatchNorm2d(512, 0.001% Params, 100.35 KMac, 0.001% MACs, 256, eps=1e-05, momentum=0.1, affine=True, track_running_stats=True)
      (conv3): Conv2d(262.14 k, 0.436% Params, 51.38 MMac, 0.444% MACs, 256, 1024, kernel_size=(1, 1), stride=(1, 1), bias=False)
      (bn3): BatchNorm2d(2.05 k, 0.003% Params, 401.41 KMac, 0.003% MACs, 1024, eps=1e-05, momentum=0.1, affine=True, track_running_stats=True)
      (relu): ReLU(0, 0.000% Params, 301.06 KMac, 0.003% MACs, inplace=True)
    )
    (3): Bottleneck(
      1.12 M, 1.856% Params, 219.27 MMac, 1.893% MACs, 
      (conv1): Conv2d(262.14 k, 0.436% Params, 51.38 MMac, 0.444% MACs, 1024, 256, kernel_size=(1, 1), stride=(1, 1), bias=False)
      (bn1): BatchNorm2d(512, 0.001% Params, 100.35 KMac, 0.001% MACs, 256, eps=1e-05, momentum=0.1, affine=True, track_running_stats=True)
      (conv2): Conv2d(589.82 k, 0.980% Params, 115.61 MMac, 0.998% MACs, 256, 256, kernel_size=(3, 3), stride=(1, 1), padding=(1, 1), bias=False)
      (bn2): BatchNorm2d(512, 0.001% Params, 100.35 KMac, 0.001% MACs, 256, eps=1e-05, momentum=0.1, affine=True, track_running_stats=True)
      (conv3): Conv2d(262.14 k, 0.436% Params, 51.38 MMac, 0.444% MACs, 256, 1024, kernel_size=(1, 1), stride=(1, 1), bias=False)
      (bn3): BatchNorm2d(2.05 k, 0.003% Params, 401.41 KMac, 0.003% MACs, 1024, eps=1e-05, momentum=0.1, affine=True, track_running_stats=True)
      (relu): ReLU(0, 0.000% Params, 301.06 KMac, 0.003% MACs, inplace=True)
    )
    (4): Bottleneck(
      1.12 M, 1.856% Params, 219.27 MMac, 1.893% MACs, 
      (conv1): Conv2d(262.14 k, 0.436% Params, 51.38 MMac, 0.444% MACs, 1024, 256, kernel_size=(1, 1), stride=(1, 1), bias=False)
      (bn1): BatchNorm2d(512, 0.001% Params, 100.35 KMac, 0.001% MACs, 256, eps=1e-05, momentum=0.1, affine=True, track_running_stats=True)
      (conv2): Conv2d(589.82 k, 0.980% Params, 115.61 MMac, 0.998% MACs, 256, 256, kernel_size=(3, 3), stride=(1, 1), padding=(1, 1), bias=False)
      (bn2): BatchNorm2d(512, 0.001% Params, 100.35 KMac, 0.001% MACs, 256, eps=1e-05, momentum=0.1, affine=True, track_running_stats=True)
      (conv3): Conv2d(262.14 k, 0.436% Params, 51.38 MMac, 0.444% MACs, 256, 1024, kernel_size=(1, 1), stride=(1, 1), bias=False)
      (bn3): BatchNorm2d(2.05 k, 0.003% Params, 401.41 KMac, 0.003% MACs, 1024, eps=1e-05, momentum=0.1, affine=True, track_running_stats=True)
      (relu): ReLU(0, 0.000% Params, 301.06 KMac, 0.003% MACs, inplace=True)
    )
    (5): Bottleneck(
      1.12 M, 1.856% Params, 219.27 MMac, 1.893% MACs, 
      (conv1): Conv2d(262.14 k, 0.436% Params, 51.38 MMac, 0.444% MACs, 1024, 256, kernel_size=(1, 1), stride=(1, 1), bias=False)
      (bn1): BatchNorm2d(512, 0.001% Params, 100.35 KMac, 0.001% MACs, 256, eps=1e-05, momentum=0.1, affine=True, track_running_stats=True)
      (conv2): Conv2d(589.82 k, 0.980% Params, 115.61 MMac, 0.998% MACs, 256, 256, kernel_size=(3, 3), stride=(1, 1), padding=(1, 1), bias=False)
      (bn2): BatchNorm2d(512, 0.001% Params, 100.35 KMac, 0.001% MACs, 256, eps=1e-05, momentum=0.1, affine=True, track_running_stats=True)
      (conv3): Conv2d(262.14 k, 0.436% Params, 51.38 MMac, 0.444% MACs, 256, 1024, kernel_size=(1, 1), stride=(1, 1), bias=False)
      (bn3): BatchNorm2d(2.05 k, 0.003% Params, 401.41 KMac, 0.003% MACs, 1024, eps=1e-05, momentum=0.1, affine=True, track_running_stats=True)
      (relu): ReLU(0, 0.000% Params, 301.06 KMac, 0.003% MACs, inplace=True)
    )
    (6): Bottleneck(
      1.12 M, 1.856% Params, 219.27 MMac, 1.893% MACs, 
      (conv1): Conv2d(262.14 k, 0.436% Params, 51.38 MMac, 0.444% MACs, 1024, 256, kernel_size=(1, 1), stride=(1, 1), bias=False)
      (bn1): BatchNorm2d(512, 0.001% Params, 100.35 KMac, 0.001% MACs, 256, eps=1e-05, momentum=0.1, affine=True, track_running_stats=True)
      (conv2): Conv2d(589.82 k, 0.980% Params, 115.61 MMac, 0.998% MACs, 256, 256, kernel_size=(3, 3), stride=(1, 1), padding=(1, 1), bias=False)
      (bn2): BatchNorm2d(512, 0.001% Params, 100.35 KMac, 0.001% MACs, 256, eps=1e-05, momentum=0.1, affine=True, track_running_stats=True)
      (conv3): Conv2d(262.14 k, 0.436% Params, 51.38 MMac, 0.444% MACs, 256, 1024, kernel_size=(1, 1), stride=(1, 1), bias=False)
      (bn3): BatchNorm2d(2.05 k, 0.003% Params, 401.41 KMac, 0.003% MACs, 1024, eps=1e-05, momentum=0.1, affine=True, track_running_stats=True)
      (relu): ReLU(0, 0.000% Params, 301.06 KMac, 0.003% MACs, inplace=True)
    )
    (7): Bottleneck(
      1.12 M, 1.856% Params, 219.27 MMac, 1.893% MACs, 
      (conv1): Conv2d(262.14 k, 0.436% Params, 51.38 MMac, 0.444% MACs, 1024, 256, kernel_size=(1, 1), stride=(1, 1), bias=False)
      (bn1): BatchNorm2d(512, 0.001% Params, 100.35 KMac, 0.001% MACs, 256, eps=1e-05, momentum=0.1, affine=True, track_running_stats=True)
      (conv2): Conv2d(589.82 k, 0.980% Params, 115.61 MMac, 0.998% MACs, 256, 256, kernel_size=(3, 3), stride=(1, 1), padding=(1, 1), bias=False)
      (bn2): BatchNorm2d(512, 0.001% Params, 100.35 KMac, 0.001% MACs, 256, eps=1e-05, momentum=0.1, affine=True, track_running_stats=True)
      (conv3): Conv2d(262.14 k, 0.436% Params, 51.38 MMac, 0.444% MACs, 256, 1024, kernel_size=(1, 1), stride=(1, 1), bias=False)
      (bn3): BatchNorm2d(2.05 k, 0.003% Params, 401.41 KMac, 0.003% MACs, 1024, eps=1e-05, momentum=0.1, affine=True, track_running_stats=True)
      (relu): ReLU(0, 0.000% Params, 301.06 KMac, 0.003% MACs, inplace=True)
    )
    (8): Bottleneck(
      1.12 M, 1.856% Params, 219.27 MMac, 1.893% MACs, 
      (conv1): Conv2d(262.14 k, 0.436% Params, 51.38 MMac, 0.444% MACs, 1024, 256, kernel_size=(1, 1), stride=(1, 1), bias=False)
      (bn1): BatchNorm2d(512, 0.001% Params, 100.35 KMac, 0.001% MACs, 256, eps=1e-05, momentum=0.1, affine=True, track_running_stats=True)
      (conv2): Conv2d(589.82 k, 0.980% Params, 115.61 MMac, 0.998% MACs, 256, 256, kernel_size=(3, 3), stride=(1, 1), padding=(1, 1), bias=False)
      (bn2): BatchNorm2d(512, 0.001% Params, 100.35 KMac, 0.001% MACs, 256, eps=1e-05, momentum=0.1, affine=True, track_running_stats=True)
      (conv3): Conv2d(262.14 k, 0.436% Params, 51.38 MMac, 0.444% MACs, 256, 1024, kernel_size=(1, 1), stride=(1, 1), bias=False)
      (bn3): BatchNorm2d(2.05 k, 0.003% Params, 401.41 KMac, 0.003% MACs, 1024, eps=1e-05, momentum=0.1, affine=True, track_running_stats=True)
      (relu): ReLU(0, 0.000% Params, 301.06 KMac, 0.003% MACs, inplace=True)
    )
    (9): Bottleneck(
      1.12 M, 1.856% Params, 219.27 MMac, 1.893% MACs, 
      (conv1): Conv2d(262.14 k, 0.436% Params, 51.38 MMac, 0.444% MACs, 1024, 256, kernel_size=(1, 1), stride=(1, 1), bias=False)
      (bn1): BatchNorm2d(512, 0.001% Params, 100.35 KMac, 0.001% MACs, 256, eps=1e-05, momentum=0.1, affine=True, track_running_stats=True)
      (conv2): Conv2d(589.82 k, 0.980% Params, 115.61 MMac, 0.998% MACs, 256, 256, kernel_size=(3, 3), stride=(1, 1), padding=(1, 1), bias=False)
      (bn2): BatchNorm2d(512, 0.001% Params, 100.35 KMac, 0.001% MACs, 256, eps=1e-05, momentum=0.1, affine=True, track_running_stats=True)
      (conv3): Conv2d(262.14 k, 0.436% Params, 51.38 MMac, 0.444% MACs, 256, 1024, kernel_size=(1, 1), stride=(1, 1), bias=False)
      (bn3): BatchNorm2d(2.05 k, 0.003% Params, 401.41 KMac, 0.003% MACs, 1024, eps=1e-05, momentum=0.1, affine=True, track_running_stats=True)
      (relu): ReLU(0, 0.000% Params, 301.06 KMac, 0.003% MACs, inplace=True)
    )
    (10): Bottleneck(
      1.12 M, 1.856% Params, 219.27 MMac, 1.893% MACs, 
      (conv1): Conv2d(262.14 k, 0.436% Params, 51.38 MMac, 0.444% MACs, 1024, 256, kernel_size=(1, 1), stride=(1, 1), bias=False)
      (bn1): BatchNorm2d(512, 0.001% Params, 100.35 KMac, 0.001% MACs, 256, eps=1e-05, momentum=0.1, affine=True, track_running_stats=True)
      (conv2): Conv2d(589.82 k, 0.980% Params, 115.61 MMac, 0.998% MACs, 256, 256, kernel_size=(3, 3), stride=(1, 1), padding=(1, 1), bias=False)
      (bn2): BatchNorm2d(512, 0.001% Params, 100.35 KMac, 0.001% MACs, 256, eps=1e-05, momentum=0.1, affine=True, track_running_stats=True)
      (conv3): Conv2d(262.14 k, 0.436% Params, 51.38 MMac, 0.444% MACs, 256, 1024, kernel_size=(1, 1), stride=(1, 1), bias=False)
      (bn3): BatchNorm2d(2.05 k, 0.003% Params, 401.41 KMac, 0.003% MACs, 1024, eps=1e-05, momentum=0.1, affine=True, track_running_stats=True)
      (relu): ReLU(0, 0.000% Params, 301.06 KMac, 0.003% MACs, inplace=True)
    )
    (11): Bottleneck(
      1.12 M, 1.856% Params, 219.27 MMac, 1.893% MACs, 
      (conv1): Conv2d(262.14 k, 0.436% Params, 51.38 MMac, 0.444% MACs, 1024, 256, kernel_size=(1, 1), stride=(1, 1), bias=False)
      (bn1): BatchNorm2d(512, 0.001% Params, 100.35 KMac, 0.001% MACs, 256, eps=1e-05, momentum=0.1, affine=True, track_running_stats=True)
      (conv2): Conv2d(589.82 k, 0.980% Params, 115.61 MMac, 0.998% MACs, 256, 256, kernel_size=(3, 3), stride=(1, 1), padding=(1, 1), bias=False)
      (bn2): BatchNorm2d(512, 0.001% Params, 100.35 KMac, 0.001% MACs, 256, eps=1e-05, momentum=0.1, affine=True, track_running_stats=True)
      (conv3): Conv2d(262.14 k, 0.436% Params, 51.38 MMac, 0.444% MACs, 256, 1024, kernel_size=(1, 1), stride=(1, 1), bias=False)
      (bn3): BatchNorm2d(2.05 k, 0.003% Params, 401.41 KMac, 0.003% MACs, 1024, eps=1e-05, momentum=0.1, affine=True, track_running_stats=True)
      (relu): ReLU(0, 0.000% Params, 301.06 KMac, 0.003% MACs, inplace=True)
    )
    (12): Bottleneck(
      1.12 M, 1.856% Params, 219.27 MMac, 1.893% MACs, 
      (conv1): Conv2d(262.14 k, 0.436% Params, 51.38 MMac, 0.444% MACs, 1024, 256, kernel_size=(1, 1), stride=(1, 1), bias=False)
      (bn1): BatchNorm2d(512, 0.001% Params, 100.35 KMac, 0.001% MACs, 256, eps=1e-05, momentum=0.1, affine=True, track_running_stats=True)
      (conv2): Conv2d(589.82 k, 0.980% Params, 115.61 MMac, 0.998% MACs, 256, 256, kernel_size=(3, 3), stride=(1, 1), padding=(1, 1), bias=False)
      (bn2): BatchNorm2d(512, 0.001% Params, 100.35 KMac, 0.001% MACs, 256, eps=1e-05, momentum=0.1, affine=True, track_running_stats=True)
      (conv3): Conv2d(262.14 k, 0.436% Params, 51.38 MMac, 0.444% MACs, 256, 1024, kernel_size=(1, 1), stride=(1, 1), bias=False)
      (bn3): BatchNorm2d(2.05 k, 0.003% Params, 401.41 KMac, 0.003% MACs, 1024, eps=1e-05, momentum=0.1, affine=True, track_running_stats=True)
      (relu): ReLU(0, 0.000% Params, 301.06 KMac, 0.003% MACs, inplace=True)
    )
    (13): Bottleneck(
      1.12 M, 1.856% Params, 219.27 MMac, 1.893% MACs, 
      (conv1): Conv2d(262.14 k, 0.436% Params, 51.38 MMac, 0.444% MACs, 1024, 256, kernel_size=(1, 1), stride=(1, 1), bias=False)
      (bn1): BatchNorm2d(512, 0.001% Params, 100.35 KMac, 0.001% MACs, 256, eps=1e-05, momentum=0.1, affine=True, track_running_stats=True)
      (conv2): Conv2d(589.82 k, 0.980% Params, 115.61 MMac, 0.998% MACs, 256, 256, kernel_size=(3, 3), stride=(1, 1), padding=(1, 1), bias=False)
      (bn2): BatchNorm2d(512, 0.001% Params, 100.35 KMac, 0.001% MACs, 256, eps=1e-05, momentum=0.1, affine=True, track_running_stats=True)
      (conv3): Conv2d(262.14 k, 0.436% Params, 51.38 MMac, 0.444% MACs, 256, 1024, kernel_size=(1, 1), stride=(1, 1), bias=False)
      (bn3): BatchNorm2d(2.05 k, 0.003% Params, 401.41 KMac, 0.003% MACs, 1024, eps=1e-05, momentum=0.1, affine=True, track_running_stats=True)
      (relu): ReLU(0, 0.000% Params, 301.06 KMac, 0.003% MACs, inplace=True)
    )
    (14): Bottleneck(
      1.12 M, 1.856% Params, 219.27 MMac, 1.893% MACs, 
      (conv1): Conv2d(262.14 k, 0.436% Params, 51.38 MMac, 0.444% MACs, 1024, 256, kernel_size=(1, 1), stride=(1, 1), bias=False)
      (bn1): BatchNorm2d(512, 0.001% Params, 100.35 KMac, 0.001% MACs, 256, eps=1e-05, momentum=0.1, affine=True, track_running_stats=True)
      (conv2): Conv2d(589.82 k, 0.980% Params, 115.61 MMac, 0.998% MACs, 256, 256, kernel_size=(3, 3), stride=(1, 1), padding=(1, 1), bias=False)
      (bn2): BatchNorm2d(512, 0.001% Params, 100.35 KMac, 0.001% MACs, 256, eps=1e-05, momentum=0.1, affine=True, track_running_stats=True)
      (conv3): Conv2d(262.14 k, 0.436% Params, 51.38 MMac, 0.444% MACs, 256, 1024, kernel_size=(1, 1), stride=(1, 1), bias=False)
      (bn3): BatchNorm2d(2.05 k, 0.003% Params, 401.41 KMac, 0.003% MACs, 1024, eps=1e-05, momentum=0.1, affine=True, track_running_stats=True)
      (relu): ReLU(0, 0.000% Params, 301.06 KMac, 0.003% MACs, inplace=True)
    )
    (15): Bottleneck(
      1.12 M, 1.856% Params, 219.27 MMac, 1.893% MACs, 
      (conv1): Conv2d(262.14 k, 0.436% Params, 51.38 MMac, 0.444% MACs, 1024, 256, kernel_size=(1, 1), stride=(1, 1), bias=False)
      (bn1): BatchNorm2d(512, 0.001% Params, 100.35 KMac, 0.001% MACs, 256, eps=1e-05, momentum=0.1, affine=True, track_running_stats=True)
      (conv2): Conv2d(589.82 k, 0.980% Params, 115.61 MMac, 0.998% MACs, 256, 256, kernel_size=(3, 3), stride=(1, 1), padding=(1, 1), bias=False)
      (bn2): BatchNorm2d(512, 0.001% Params, 100.35 KMac, 0.001% MACs, 256, eps=1e-05, momentum=0.1, affine=True, track_running_stats=True)
      (conv3): Conv2d(262.14 k, 0.436% Params, 51.38 MMac, 0.444% MACs, 256, 1024, kernel_size=(1, 1), stride=(1, 1), bias=False)
      (bn3): BatchNorm2d(2.05 k, 0.003% Params, 401.41 KMac, 0.003% MACs, 1024, eps=1e-05, momentum=0.1, affine=True, track_running_stats=True)
      (relu): ReLU(0, 0.000% Params, 301.06 KMac, 0.003% MACs, inplace=True)
    )
    (16): Bottleneck(
      1.12 M, 1.856% Params, 219.27 MMac, 1.893% MACs, 
      (conv1): Conv2d(262.14 k, 0.436% Params, 51.38 MMac, 0.444% MACs, 1024, 256, kernel_size=(1, 1), stride=(1, 1), bias=False)
      (bn1): BatchNorm2d(512, 0.001% Params, 100.35 KMac, 0.001% MACs, 256, eps=1e-05, momentum=0.1, affine=True, track_running_stats=True)
      (conv2): Conv2d(589.82 k, 0.980% Params, 115.61 MMac, 0.998% MACs, 256, 256, kernel_size=(3, 3), stride=(1, 1), padding=(1, 1), bias=False)
      (bn2): BatchNorm2d(512, 0.001% Params, 100.35 KMac, 0.001% MACs, 256, eps=1e-05, momentum=0.1, affine=True, track_running_stats=True)
      (conv3): Conv2d(262.14 k, 0.436% Params, 51.38 MMac, 0.444% MACs, 256, 1024, kernel_size=(1, 1), stride=(1, 1), bias=False)
      (bn3): BatchNorm2d(2.05 k, 0.003% Params, 401.41 KMac, 0.003% MACs, 1024, eps=1e-05, momentum=0.1, affine=True, track_running_stats=True)
      (relu): ReLU(0, 0.000% Params, 301.06 KMac, 0.003% MACs, inplace=True)
    )
    (17): Bottleneck(
      1.12 M, 1.856% Params, 219.27 MMac, 1.893% MACs, 
      (conv1): Conv2d(262.14 k, 0.436% Params, 51.38 MMac, 0.444% MACs, 1024, 256, kernel_size=(1, 1), stride=(1, 1), bias=False)
      (bn1): BatchNorm2d(512, 0.001% Params, 100.35 KMac, 0.001% MACs, 256, eps=1e-05, momentum=0.1, affine=True, track_running_stats=True)
      (conv2): Conv2d(589.82 k, 0.980% Params, 115.61 MMac, 0.998% MACs, 256, 256, kernel_size=(3, 3), stride=(1, 1), padding=(1, 1), bias=False)
      (bn2): BatchNorm2d(512, 0.001% Params, 100.35 KMac, 0.001% MACs, 256, eps=1e-05, momentum=0.1, affine=True, track_running_stats=True)
      (conv3): Conv2d(262.14 k, 0.436% Params, 51.38 MMac, 0.444% MACs, 256, 1024, kernel_size=(1, 1), stride=(1, 1), bias=False)
      (bn3): BatchNorm2d(2.05 k, 0.003% Params, 401.41 KMac, 0.003% MACs, 1024, eps=1e-05, momentum=0.1, affine=True, track_running_stats=True)
      (relu): ReLU(0, 0.000% Params, 301.06 KMac, 0.003% MACs, inplace=True)
    )
    (18): Bottleneck(
      1.12 M, 1.856% Params, 219.27 MMac, 1.893% MACs, 
      (conv1): Conv2d(262.14 k, 0.436% Params, 51.38 MMac, 0.444% MACs, 1024, 256, kernel_size=(1, 1), stride=(1, 1), bias=False)
      (bn1): BatchNorm2d(512, 0.001% Params, 100.35 KMac, 0.001% MACs, 256, eps=1e-05, momentum=0.1, affine=True, track_running_stats=True)
      (conv2): Conv2d(589.82 k, 0.980% Params, 115.61 MMac, 0.998% MACs, 256, 256, kernel_size=(3, 3), stride=(1, 1), padding=(1, 1), bias=False)
      (bn2): BatchNorm2d(512, 0.001% Params, 100.35 KMac, 0.001% MACs, 256, eps=1e-05, momentum=0.1, affine=True, track_running_stats=True)
      (conv3): Conv2d(262.14 k, 0.436% Params, 51.38 MMac, 0.444% MACs, 256, 1024, kernel_size=(1, 1), stride=(1, 1), bias=False)
      (bn3): BatchNorm2d(2.05 k, 0.003% Params, 401.41 KMac, 0.003% MACs, 1024, eps=1e-05, momentum=0.1, affine=True, track_running_stats=True)
      (relu): ReLU(0, 0.000% Params, 301.06 KMac, 0.003% MACs, inplace=True)
    )
    (19): Bottleneck(
      1.12 M, 1.856% Params, 219.27 MMac, 1.893% MACs, 
      (conv1): Conv2d(262.14 k, 0.436% Params, 51.38 MMac, 0.444% MACs, 1024, 256, kernel_size=(1, 1), stride=(1, 1), bias=False)
      (bn1): BatchNorm2d(512, 0.001% Params, 100.35 KMac, 0.001% MACs, 256, eps=1e-05, momentum=0.1, affine=True, track_running_stats=True)
      (conv2): Conv2d(589.82 k, 0.980% Params, 115.61 MMac, 0.998% MACs, 256, 256, kernel_size=(3, 3), stride=(1, 1), padding=(1, 1), bias=False)
      (bn2): BatchNorm2d(512, 0.001% Params, 100.35 KMac, 0.001% MACs, 256, eps=1e-05, momentum=0.1, affine=True, track_running_stats=True)
      (conv3): Conv2d(262.14 k, 0.436% Params, 51.38 MMac, 0.444% MACs, 256, 1024, kernel_size=(1, 1), stride=(1, 1), bias=False)
      (bn3): BatchNorm2d(2.05 k, 0.003% Params, 401.41 KMac, 0.003% MACs, 1024, eps=1e-05, momentum=0.1, affine=True, track_running_stats=True)
      (relu): ReLU(0, 0.000% Params, 301.06 KMac, 0.003% MACs, inplace=True)
    )
    (20): Bottleneck(
      1.12 M, 1.856% Params, 219.27 MMac, 1.893% MACs, 
      (conv1): Conv2d(262.14 k, 0.436% Params, 51.38 MMac, 0.444% MACs, 1024, 256, kernel_size=(1, 1), stride=(1, 1), bias=False)
      (bn1): BatchNorm2d(512, 0.001% Params, 100.35 KMac, 0.001% MACs, 256, eps=1e-05, momentum=0.1, affine=True, track_running_stats=True)
      (conv2): Conv2d(589.82 k, 0.980% Params, 115.61 MMac, 0.998% MACs, 256, 256, kernel_size=(3, 3), stride=(1, 1), padding=(1, 1), bias=False)
      (bn2): BatchNorm2d(512, 0.001% Params, 100.35 KMac, 0.001% MACs, 256, eps=1e-05, momentum=0.1, affine=True, track_running_stats=True)
      (conv3): Conv2d(262.14 k, 0.436% Params, 51.38 MMac, 0.444% MACs, 256, 1024, kernel_size=(1, 1), stride=(1, 1), bias=False)
      (bn3): BatchNorm2d(2.05 k, 0.003% Params, 401.41 KMac, 0.003% MACs, 1024, eps=1e-05, momentum=0.1, affine=True, track_running_stats=True)
      (relu): ReLU(0, 0.000% Params, 301.06 KMac, 0.003% MACs, inplace=True)
    )
    (21): Bottleneck(
      1.12 M, 1.856% Params, 219.27 MMac, 1.893% MACs, 
      (conv1): Conv2d(262.14 k, 0.436% Params, 51.38 MMac, 0.444% MACs, 1024, 256, kernel_size=(1, 1), stride=(1, 1), bias=False)
      (bn1): BatchNorm2d(512, 0.001% Params, 100.35 KMac, 0.001% MACs, 256, eps=1e-05, momentum=0.1, affine=True, track_running_stats=True)
      (conv2): Conv2d(589.82 k, 0.980% Params, 115.61 MMac, 0.998% MACs, 256, 256, kernel_size=(3, 3), stride=(1, 1), padding=(1, 1), bias=False)
      (bn2): BatchNorm2d(512, 0.001% Params, 100.35 KMac, 0.001% MACs, 256, eps=1e-05, momentum=0.1, affine=True, track_running_stats=True)
      (conv3): Conv2d(262.14 k, 0.436% Params, 51.38 MMac, 0.444% MACs, 256, 1024, kernel_size=(1, 1), stride=(1, 1), bias=False)
      (bn3): BatchNorm2d(2.05 k, 0.003% Params, 401.41 KMac, 0.003% MACs, 1024, eps=1e-05, momentum=0.1, affine=True, track_running_stats=True)
      (relu): ReLU(0, 0.000% Params, 301.06 KMac, 0.003% MACs, inplace=True)
    )
    (22): Bottleneck(
      1.12 M, 1.856% Params, 219.27 MMac, 1.893% MACs, 
      (conv1): Conv2d(262.14 k, 0.436% Params, 51.38 MMac, 0.444% MACs, 1024, 256, kernel_size=(1, 1), stride=(1, 1), bias=False)
      (bn1): BatchNorm2d(512, 0.001% Params, 100.35 KMac, 0.001% MACs, 256, eps=1e-05, momentum=0.1, affine=True, track_running_stats=True)
      (conv2): Conv2d(589.82 k, 0.980% Params, 115.61 MMac, 0.998% MACs, 256, 256, kernel_size=(3, 3), stride=(1, 1), padding=(1, 1), bias=False)
      (bn2): BatchNorm2d(512, 0.001% Params, 100.35 KMac, 0.001% MACs, 256, eps=1e-05, momentum=0.1, affine=True, track_running_stats=True)
      (conv3): Conv2d(262.14 k, 0.436% Params, 51.38 MMac, 0.444% MACs, 256, 1024, kernel_size=(1, 1), stride=(1, 1), bias=False)
      (bn3): BatchNorm2d(2.05 k, 0.003% Params, 401.41 KMac, 0.003% MACs, 1024, eps=1e-05, momentum=0.1, affine=True, track_running_stats=True)
      (relu): ReLU(0, 0.000% Params, 301.06 KMac, 0.003% MACs, inplace=True)
    )
    (23): Bottleneck(
      1.12 M, 1.856% Params, 219.27 MMac, 1.893% MACs, 
      (conv1): Conv2d(262.14 k, 0.436% Params, 51.38 MMac, 0.444% MACs, 1024, 256, kernel_size=(1, 1), stride=(1, 1), bias=False)
      (bn1): BatchNorm2d(512, 0.001% Params, 100.35 KMac, 0.001% MACs, 256, eps=1e-05, momentum=0.1, affine=True, track_running_stats=True)
      (conv2): Conv2d(589.82 k, 0.980% Params, 115.61 MMac, 0.998% MACs, 256, 256, kernel_size=(3, 3), stride=(1, 1), padding=(1, 1), bias=False)
      (bn2): BatchNorm2d(512, 0.001% Params, 100.35 KMac, 0.001% MACs, 256, eps=1e-05, momentum=0.1, affine=True, track_running_stats=True)
      (conv3): Conv2d(262.14 k, 0.436% Params, 51.38 MMac, 0.444% MACs, 256, 1024, kernel_size=(1, 1), stride=(1, 1), bias=False)
      (bn3): BatchNorm2d(2.05 k, 0.003% Params, 401.41 KMac, 0.003% MACs, 1024, eps=1e-05, momentum=0.1, affine=True, track_running_stats=True)
      (relu): ReLU(0, 0.000% Params, 301.06 KMac, 0.003% MACs, inplace=True)
    )
    (24): Bottleneck(
      1.12 M, 1.856% Params, 219.27 MMac, 1.893% MACs, 
      (conv1): Conv2d(262.14 k, 0.436% Params, 51.38 MMac, 0.444% MACs, 1024, 256, kernel_size=(1, 1), stride=(1, 1), bias=False)
      (bn1): BatchNorm2d(512, 0.001% Params, 100.35 KMac, 0.001% MACs, 256, eps=1e-05, momentum=0.1, affine=True, track_running_stats=True)
      (conv2): Conv2d(589.82 k, 0.980% Params, 115.61 MMac, 0.998% MACs, 256, 256, kernel_size=(3, 3), stride=(1, 1), padding=(1, 1), bias=False)
      (bn2): BatchNorm2d(512, 0.001% Params, 100.35 KMac, 0.001% MACs, 256, eps=1e-05, momentum=0.1, affine=True, track_running_stats=True)
      (conv3): Conv2d(262.14 k, 0.436% Params, 51.38 MMac, 0.444% MACs, 256, 1024, kernel_size=(1, 1), stride=(1, 1), bias=False)
      (bn3): BatchNorm2d(2.05 k, 0.003% Params, 401.41 KMac, 0.003% MACs, 1024, eps=1e-05, momentum=0.1, affine=True, track_running_stats=True)
      (relu): ReLU(0, 0.000% Params, 301.06 KMac, 0.003% MACs, inplace=True)
    )
    (25): Bottleneck(
      1.12 M, 1.856% Params, 219.27 MMac, 1.893% MACs, 
      (conv1): Conv2d(262.14 k, 0.436% Params, 51.38 MMac, 0.444% MACs, 1024, 256, kernel_size=(1, 1), stride=(1, 1), bias=False)
      (bn1): BatchNorm2d(512, 0.001% Params, 100.35 KMac, 0.001% MACs, 256, eps=1e-05, momentum=0.1, affine=True, track_running_stats=True)
      (conv2): Conv2d(589.82 k, 0.980% Params, 115.61 MMac, 0.998% MACs, 256, 256, kernel_size=(3, 3), stride=(1, 1), padding=(1, 1), bias=False)
      (bn2): BatchNorm2d(512, 0.001% Params, 100.35 KMac, 0.001% MACs, 256, eps=1e-05, momentum=0.1, affine=True, track_running_stats=True)
      (conv3): Conv2d(262.14 k, 0.436% Params, 51.38 MMac, 0.444% MACs, 256, 1024, kernel_size=(1, 1), stride=(1, 1), bias=False)
      (bn3): BatchNorm2d(2.05 k, 0.003% Params, 401.41 KMac, 0.003% MACs, 1024, eps=1e-05, momentum=0.1, affine=True, track_running_stats=True)
      (relu): ReLU(0, 0.000% Params, 301.06 KMac, 0.003% MACs, inplace=True)
    )
    (26): Bottleneck(
      1.12 M, 1.856% Params, 219.27 MMac, 1.893% MACs, 
      (conv1): Conv2d(262.14 k, 0.436% Params, 51.38 MMac, 0.444% MACs, 1024, 256, kernel_size=(1, 1), stride=(1, 1), bias=False)
      (bn1): BatchNorm2d(512, 0.001% Params, 100.35 KMac, 0.001% MACs, 256, eps=1e-05, momentum=0.1, affine=True, track_running_stats=True)
      (conv2): Conv2d(589.82 k, 0.980% Params, 115.61 MMac, 0.998% MACs, 256, 256, kernel_size=(3, 3), stride=(1, 1), padding=(1, 1), bias=False)
      (bn2): BatchNorm2d(512, 0.001% Params, 100.35 KMac, 0.001% MACs, 256, eps=1e-05, momentum=0.1, affine=True, track_running_stats=True)
      (conv3): Conv2d(262.14 k, 0.436% Params, 51.38 MMac, 0.444% MACs, 256, 1024, kernel_size=(1, 1), stride=(1, 1), bias=False)
      (bn3): BatchNorm2d(2.05 k, 0.003% Params, 401.41 KMac, 0.003% MACs, 1024, eps=1e-05, momentum=0.1, affine=True, track_running_stats=True)
      (relu): ReLU(0, 0.000% Params, 301.06 KMac, 0.003% MACs, inplace=True)
    )
    (27): Bottleneck(
      1.12 M, 1.856% Params, 219.27 MMac, 1.893% MACs, 
      (conv1): Conv2d(262.14 k, 0.436% Params, 51.38 MMac, 0.444% MACs, 1024, 256, kernel_size=(1, 1), stride=(1, 1), bias=False)
      (bn1): BatchNorm2d(512, 0.001% Params, 100.35 KMac, 0.001% MACs, 256, eps=1e-05, momentum=0.1, affine=True, track_running_stats=True)
      (conv2): Conv2d(589.82 k, 0.980% Params, 115.61 MMac, 0.998% MACs, 256, 256, kernel_size=(3, 3), stride=(1, 1), padding=(1, 1), bias=False)
      (bn2): BatchNorm2d(512, 0.001% Params, 100.35 KMac, 0.001% MACs, 256, eps=1e-05, momentum=0.1, affine=True, track_running_stats=True)
      (conv3): Conv2d(262.14 k, 0.436% Params, 51.38 MMac, 0.444% MACs, 256, 1024, kernel_size=(1, 1), stride=(1, 1), bias=False)
      (bn3): BatchNorm2d(2.05 k, 0.003% Params, 401.41 KMac, 0.003% MACs, 1024, eps=1e-05, momentum=0.1, affine=True, track_running_stats=True)
      (relu): ReLU(0, 0.000% Params, 301.06 KMac, 0.003% MACs, inplace=True)
    )
    (28): Bottleneck(
      1.12 M, 1.856% Params, 219.27 MMac, 1.893% MACs, 
      (conv1): Conv2d(262.14 k, 0.436% Params, 51.38 MMac, 0.444% MACs, 1024, 256, kernel_size=(1, 1), stride=(1, 1), bias=False)
      (bn1): BatchNorm2d(512, 0.001% Params, 100.35 KMac, 0.001% MACs, 256, eps=1e-05, momentum=0.1, affine=True, track_running_stats=True)
      (conv2): Conv2d(589.82 k, 0.980% Params, 115.61 MMac, 0.998% MACs, 256, 256, kernel_size=(3, 3), stride=(1, 1), padding=(1, 1), bias=False)
      (bn2): BatchNorm2d(512, 0.001% Params, 100.35 KMac, 0.001% MACs, 256, eps=1e-05, momentum=0.1, affine=True, track_running_stats=True)
      (conv3): Conv2d(262.14 k, 0.436% Params, 51.38 MMac, 0.444% MACs, 256, 1024, kernel_size=(1, 1), stride=(1, 1), bias=False)
      (bn3): BatchNorm2d(2.05 k, 0.003% Params, 401.41 KMac, 0.003% MACs, 1024, eps=1e-05, momentum=0.1, affine=True, track_running_stats=True)
      (relu): ReLU(0, 0.000% Params, 301.06 KMac, 0.003% MACs, inplace=True)
    )
    (29): Bottleneck(
      1.12 M, 1.856% Params, 219.27 MMac, 1.893% MACs, 
      (conv1): Conv2d(262.14 k, 0.436% Params, 51.38 MMac, 0.444% MACs, 1024, 256, kernel_size=(1, 1), stride=(1, 1), bias=False)
      (bn1): BatchNorm2d(512, 0.001% Params, 100.35 KMac, 0.001% MACs, 256, eps=1e-05, momentum=0.1, affine=True, track_running_stats=True)
      (conv2): Conv2d(589.82 k, 0.980% Params, 115.61 MMac, 0.998% MACs, 256, 256, kernel_size=(3, 3), stride=(1, 1), padding=(1, 1), bias=False)
      (bn2): BatchNorm2d(512, 0.001% Params, 100.35 KMac, 0.001% MACs, 256, eps=1e-05, momentum=0.1, affine=True, track_running_stats=True)
      (conv3): Conv2d(262.14 k, 0.436% Params, 51.38 MMac, 0.444% MACs, 256, 1024, kernel_size=(1, 1), stride=(1, 1), bias=False)
      (bn3): BatchNorm2d(2.05 k, 0.003% Params, 401.41 KMac, 0.003% MACs, 1024, eps=1e-05, momentum=0.1, affine=True, track_running_stats=True)
      (relu): ReLU(0, 0.000% Params, 301.06 KMac, 0.003% MACs, inplace=True)
    )
    (30): Bottleneck(
      1.12 M, 1.856% Params, 219.27 MMac, 1.893% MACs, 
      (conv1): Conv2d(262.14 k, 0.436% Params, 51.38 MMac, 0.444% MACs, 1024, 256, kernel_size=(1, 1), stride=(1, 1), bias=False)
      (bn1): BatchNorm2d(512, 0.001% Params, 100.35 KMac, 0.001% MACs, 256, eps=1e-05, momentum=0.1, affine=True, track_running_stats=True)
      (conv2): Conv2d(589.82 k, 0.980% Params, 115.61 MMac, 0.998% MACs, 256, 256, kernel_size=(3, 3), stride=(1, 1), padding=(1, 1), bias=False)
      (bn2): BatchNorm2d(512, 0.001% Params, 100.35 KMac, 0.001% MACs, 256, eps=1e-05, momentum=0.1, affine=True, track_running_stats=True)
      (conv3): Conv2d(262.14 k, 0.436% Params, 51.38 MMac, 0.444% MACs, 256, 1024, kernel_size=(1, 1), stride=(1, 1), bias=False)
      (bn3): BatchNorm2d(2.05 k, 0.003% Params, 401.41 KMac, 0.003% MACs, 1024, eps=1e-05, momentum=0.1, affine=True, track_running_stats=True)
      (relu): ReLU(0, 0.000% Params, 301.06 KMac, 0.003% MACs, inplace=True)
    )
    (31): Bottleneck(
      1.12 M, 1.856% Params, 219.27 MMac, 1.893% MACs, 
      (conv1): Conv2d(262.14 k, 0.436% Params, 51.38 MMac, 0.444% MACs, 1024, 256, kernel_size=(1, 1), stride=(1, 1), bias=False)
      (bn1): BatchNorm2d(512, 0.001% Params, 100.35 KMac, 0.001% MACs, 256, eps=1e-05, momentum=0.1, affine=True, track_running_stats=True)
      (conv2): Conv2d(589.82 k, 0.980% Params, 115.61 MMac, 0.998% MACs, 256, 256, kernel_size=(3, 3), stride=(1, 1), padding=(1, 1), bias=False)
      (bn2): BatchNorm2d(512, 0.001% Params, 100.35 KMac, 0.001% MACs, 256, eps=1e-05, momentum=0.1, affine=True, track_running_stats=True)
      (conv3): Conv2d(262.14 k, 0.436% Params, 51.38 MMac, 0.444% MACs, 256, 1024, kernel_size=(1, 1), stride=(1, 1), bias=False)
      (bn3): BatchNorm2d(2.05 k, 0.003% Params, 401.41 KMac, 0.003% MACs, 1024, eps=1e-05, momentum=0.1, affine=True, track_running_stats=True)
      (relu): ReLU(0, 0.000% Params, 301.06 KMac, 0.003% MACs, inplace=True)
    )
    (32): Bottleneck(
      1.12 M, 1.856% Params, 219.27 MMac, 1.893% MACs, 
      (conv1): Conv2d(262.14 k, 0.436% Params, 51.38 MMac, 0.444% MACs, 1024, 256, kernel_size=(1, 1), stride=(1, 1), bias=False)
      (bn1): BatchNorm2d(512, 0.001% Params, 100.35 KMac, 0.001% MACs, 256, eps=1e-05, momentum=0.1, affine=True, track_running_stats=True)
      (conv2): Conv2d(589.82 k, 0.980% Params, 115.61 MMac, 0.998% MACs, 256, 256, kernel_size=(3, 3), stride=(1, 1), padding=(1, 1), bias=False)
      (bn2): BatchNorm2d(512, 0.001% Params, 100.35 KMac, 0.001% MACs, 256, eps=1e-05, momentum=0.1, affine=True, track_running_stats=True)
      (conv3): Conv2d(262.14 k, 0.436% Params, 51.38 MMac, 0.444% MACs, 256, 1024, kernel_size=(1, 1), stride=(1, 1), bias=False)
      (bn3): BatchNorm2d(2.05 k, 0.003% Params, 401.41 KMac, 0.003% MACs, 1024, eps=1e-05, momentum=0.1, affine=True, track_running_stats=True)
      (relu): ReLU(0, 0.000% Params, 301.06 KMac, 0.003% MACs, inplace=True)
    )
    (33): Bottleneck(
      1.12 M, 1.856% Params, 219.27 MMac, 1.893% MACs, 
      (conv1): Conv2d(262.14 k, 0.436% Params, 51.38 MMac, 0.444% MACs, 1024, 256, kernel_size=(1, 1), stride=(1, 1), bias=False)
      (bn1): BatchNorm2d(512, 0.001% Params, 100.35 KMac, 0.001% MACs, 256, eps=1e-05, momentum=0.1, affine=True, track_running_stats=True)
      (conv2): Conv2d(589.82 k, 0.980% Params, 115.61 MMac, 0.998% MACs, 256, 256, kernel_size=(3, 3), stride=(1, 1), padding=(1, 1), bias=False)
      (bn2): BatchNorm2d(512, 0.001% Params, 100.35 KMac, 0.001% MACs, 256, eps=1e-05, momentum=0.1, affine=True, track_running_stats=True)
      (conv3): Conv2d(262.14 k, 0.436% Params, 51.38 MMac, 0.444% MACs, 256, 1024, kernel_size=(1, 1), stride=(1, 1), bias=False)
      (bn3): BatchNorm2d(2.05 k, 0.003% Params, 401.41 KMac, 0.003% MACs, 1024, eps=1e-05, momentum=0.1, affine=True, track_running_stats=True)
      (relu): ReLU(0, 0.000% Params, 301.06 KMac, 0.003% MACs, inplace=True)
    )
    (34): Bottleneck(
      1.12 M, 1.856% Params, 219.27 MMac, 1.893% MACs, 
      (conv1): Conv2d(262.14 k, 0.436% Params, 51.38 MMac, 0.444% MACs, 1024, 256, kernel_size=(1, 1), stride=(1, 1), bias=False)
      (bn1): BatchNorm2d(512, 0.001% Params, 100.35 KMac, 0.001% MACs, 256, eps=1e-05, momentum=0.1, affine=True, track_running_stats=True)
      (conv2): Conv2d(589.82 k, 0.980% Params, 115.61 MMac, 0.998% MACs, 256, 256, kernel_size=(3, 3), stride=(1, 1), padding=(1, 1), bias=False)
      (bn2): BatchNorm2d(512, 0.001% Params, 100.35 KMac, 0.001% MACs, 256, eps=1e-05, momentum=0.1, affine=True, track_running_stats=True)
      (conv3): Conv2d(262.14 k, 0.436% Params, 51.38 MMac, 0.444% MACs, 256, 1024, kernel_size=(1, 1), stride=(1, 1), bias=False)
      (bn3): BatchNorm2d(2.05 k, 0.003% Params, 401.41 KMac, 0.003% MACs, 1024, eps=1e-05, momentum=0.1, affine=True, track_running_stats=True)
      (relu): ReLU(0, 0.000% Params, 301.06 KMac, 0.003% MACs, inplace=True)
    )
    (35): Bottleneck(
      1.12 M, 1.856% Params, 219.27 MMac, 1.893% MACs, 
      (conv1): Conv2d(262.14 k, 0.436% Params, 51.38 MMac, 0.444% MACs, 1024, 256, kernel_size=(1, 1), stride=(1, 1), bias=False)
      (bn1): BatchNorm2d(512, 0.001% Params, 100.35 KMac, 0.001% MACs, 256, eps=1e-05, momentum=0.1, affine=True, track_running_stats=True)
      (conv2): Conv2d(589.82 k, 0.980% Params, 115.61 MMac, 0.998% MACs, 256, 256, kernel_size=(3, 3), stride=(1, 1), padding=(1, 1), bias=False)
      (bn2): BatchNorm2d(512, 0.001% Params, 100.35 KMac, 0.001% MACs, 256, eps=1e-05, momentum=0.1, affine=True, track_running_stats=True)
      (conv3): Conv2d(262.14 k, 0.436% Params, 51.38 MMac, 0.444% MACs, 256, 1024, kernel_size=(1, 1), stride=(1, 1), bias=False)
      (bn3): BatchNorm2d(2.05 k, 0.003% Params, 401.41 KMac, 0.003% MACs, 1024, eps=1e-05, momentum=0.1, affine=True, track_running_stats=True)
      (relu): ReLU(0, 0.000% Params, 301.06 KMac, 0.003% MACs, inplace=True)
    )
  )
  (layer4): Sequential(
    14.96 M, 24.861% Params, 811.02 MMac, 7.003% MACs, 
    (0): Bottleneck(
      6.04 M, 10.034% Params, 373.38 MMac, 3.224% MACs, 
      (conv1): Conv2d(524.29 k, 0.871% Params, 102.76 MMac, 0.887% MACs, 1024, 512, kernel_size=(1, 1), stride=(1, 1), bias=False)
      (bn1): BatchNorm2d(1.02 k, 0.002% Params, 200.7 KMac, 0.002% MACs, 512, eps=1e-05, momentum=0.1, affine=True, track_running_stats=True)
      (conv2): Conv2d(2.36 M, 3.920% Params, 115.61 MMac, 0.998% MACs, 512, 512, kernel_size=(3, 3), stride=(2, 2), padding=(1, 1), bias=False)
      (bn2): BatchNorm2d(1.02 k, 0.002% Params, 50.18 KMac, 0.000% MACs, 512, eps=1e-05, momentum=0.1, affine=True, track_running_stats=True)
      (conv3): Conv2d(1.05 M, 1.742% Params, 51.38 MMac, 0.444% MACs, 512, 2048, kernel_size=(1, 1), stride=(1, 1), bias=False)
      (bn3): BatchNorm2d(4.1 k, 0.007% Params, 200.7 KMac, 0.002% MACs, 2048, eps=1e-05, momentum=0.1, affine=True, track_running_stats=True)
      (relu): ReLU(0, 0.000% Params, 225.79 KMac, 0.002% MACs, inplace=True)
      (downsample): Sequential(
        2.1 M, 3.491% Params, 102.96 MMac, 0.889% MACs, 
        (0): Conv2d(2.1 M, 3.484% Params, 102.76 MMac, 0.887% MACs, 1024, 2048, kernel_size=(1, 1), stride=(2, 2), bias=False)
        (1): BatchNorm2d(4.1 k, 0.007% Params, 200.7 KMac, 0.002% MACs, 2048, eps=1e-05, momentum=0.1, affine=True, track_running_stats=True)
      )
    )
    (1): Bottleneck(
      4.46 M, 7.414% Params, 218.82 MMac, 1.890% MACs, 
      (conv1): Conv2d(1.05 M, 1.742% Params, 51.38 MMac, 0.444% MACs, 2048, 512, kernel_size=(1, 1), stride=(1, 1), bias=False)
      (bn1): BatchNorm2d(1.02 k, 0.002% Params, 50.18 KMac, 0.000% MACs, 512, eps=1e-05, momentum=0.1, affine=True, track_running_stats=True)
      (conv2): Conv2d(2.36 M, 3.920% Params, 115.61 MMac, 0.998% MACs, 512, 512, kernel_size=(3, 3), stride=(1, 1), padding=(1, 1), bias=False)
      (bn2): BatchNorm2d(1.02 k, 0.002% Params, 50.18 KMac, 0.000% MACs, 512, eps=1e-05, momentum=0.1, affine=True, track_running_stats=True)
      (conv3): Conv2d(1.05 M, 1.742% Params, 51.38 MMac, 0.444% MACs, 512, 2048, kernel_size=(1, 1), stride=(1, 1), bias=False)
      (bn3): BatchNorm2d(4.1 k, 0.007% Params, 200.7 KMac, 0.002% MACs, 2048, eps=1e-05, momentum=0.1, affine=True, track_running_stats=True)
      (relu): ReLU(0, 0.000% Params, 150.53 KMac, 0.001% MACs, inplace=True)
    )
    (2): Bottleneck(
      4.46 M, 7.414% Params, 218.82 MMac, 1.890% MACs, 
      (conv1): Conv2d(1.05 M, 1.742% Params, 51.38 MMac, 0.444% MACs, 2048, 512, kernel_size=(1, 1), stride=(1, 1), bias=False)
      (bn1): BatchNorm2d(1.02 k, 0.002% Params, 50.18 KMac, 0.000% MACs, 512, eps=1e-05, momentum=0.1, affine=True, track_running_stats=True)
      (conv2): Conv2d(2.36 M, 3.920% Params, 115.61 MMac, 0.998% MACs, 512, 512, kernel_size=(3, 3), stride=(1, 1), padding=(1, 1), bias=False)
      (bn2): BatchNorm2d(1.02 k, 0.002% Params, 50.18 KMac, 0.000% MACs, 512, eps=1e-05, momentum=0.1, affine=True, track_running_stats=True)
      (conv3): Conv2d(1.05 M, 1.742% Params, 51.38 MMac, 0.444% MACs, 512, 2048, kernel_size=(1, 1), stride=(1, 1), bias=False)
      (bn3): BatchNorm2d(4.1 k, 0.007% Params, 200.7 KMac, 0.002% MACs, 2048, eps=1e-05, momentum=0.1, affine=True, track_running_stats=True)
      (relu): ReLU(0, 0.000% Params, 150.53 KMac, 0.001% MACs, inplace=True)
    )
  )
  (avgpool): AdaptiveAvgPool2d(0, 0.000% Params, 100.35 KMac, 0.001% MACs, output_size=(1, 1))
  (fc): Linear(2.05 M, 3.404% Params, 2.05 MMac, 0.018% MACs, in_features=2048, out_features=1000, bias=True)
)
Warming up with batch_size=1:   0%|          | 0/100 [00:00<?, ?it/s]Warming up with batch_size=1:  10%|█         | 10/100 [00:00<00:00, 99.58it/s]Warming up with batch_size=1:  20%|██        | 20/100 [00:00<00:00, 99.67it/s]Warming up with batch_size=1:  30%|███       | 30/100 [00:00<00:00, 99.75i
…
